src/BipedalWalkerTD3/dir_chk/chpnt_88seed_300-5sc_9h44m_actor.pth (torch, 528543 bytes, 6 tensors)

l1.weight f4 [400, 24]
0	0xbd2d9918	-0.04238233
1	0x3e2c62fa	0.16834632
2	0xbeb460b8	-0.3523004
3	0xbeead655	-0.45866647
4	0xbf10299d	-0.56313497
5	0xbe5efc3e	-0.2177591
6	0x3e5675f5	0.20943435
7	0xbf17eba2	-0.5934392
8	0xbf1c471e	-0.61046016
9	0xbe1de969	-0.1542107
10	0x3f098e08	0.5373235
11	0xbf80177a	-1.0007164
12	0x3e88bbfa	0.26705915
13	0xbfd6c479	-1.6778709
14	0xbe7b44dc	-0.24537987
15	0xbe9953c0	-0.2994671
16	0xbe7f4859	-0.24929942
17	0xbe9b8cb8	-0.30380797
18	0xbe700d09	-0.23442473
19	0xbef5c8ca	-0.48004752
20	0xbed2c4cd	-0.41165772
21	0xbea23b7e	-0.31686014
22	0xbe91d232	-0.2848068
23	0xbee5d381	-0.44887927
24	0xbf5a1a09	-0.85195976
25	0x40380b17	2.8756769
26	0xc0e036b5	-7.006678
27	0xc08b311f	-4.349746
28	0xbf5f1bd7	-0.87151855
29	0xbf153392	-0.58281815
30	0x3a9580ce	0.0011406185
31	0xbdc8946d	-0.09793935
32	0x3eceb34e	0.40371174
33	0xbe664604	-0.22487646
34	0x3d8cd183	0.06875899
35	0x3f836e3f	1.026802
36	0xbd9811c5	-0.07425264
37	0xbee6f240	-0.45106697
38	0xbf00b6c9	-0.5027891
39	0xbf045efa	-0.5170742
40	0xbf238e63	-0.6388914
41	0xbededbfa	-0.43527204
42	0xbf0c44c5	-0.54792434
43	0xbeb5f2c0	-0.35536766
44	0xbef8b807	-0.48577902
45	0xbefef457	-0.49795792
46	0xbed8a5f0	-0.423141
47	0xbf272abe	-0.65299594
48	0x3d8c52c9	0.068517275
49	0xc0064767	-2.098108
50	0x3fdebd82	1.7401583
51	0xbece801a	-0.4033211
52	0xbdb413fc	-0.08792874
53	0xbf6d598f	-0.9271478
54	0xbf06f1ee	-0.52712905
55	0x3f5a770c	0.853379
56	0xbfd50de0	-1.6644859
57	0x3e58db51	0.21177413
58	0x3f00844a	0.5020186
59	0x3f9c71eb	1.2222265
60	0x3e4969f6	0.19669327
61	0xc004fe5f	-2.0780256
62	0xbf494292	-0.78617203
63	0xbf398408	-0.7246709
64	0xbf2ed370	-0.6829138
65	0xbf4e7c65	-0.8065856
66	0xbf4dd7a9	-0.80407196
67	0xbf2ccbd0	-0.67498493
68	0xbf10cec3	-0.56565493
69	0xbf4eec08	-0.80828905
70	0xbf3aa30d	-0.72905046
71	0xbf19a284	-0.60013604
72	0x3ed84e0f	0.42247054
73	0xc12b78c1	-10.716981
74	0x408c58d1	4.385842
75	0x3f0c9ec2	0.54929745
76	0xc01f74d8	-2.4915066
77	0xbe0a4424	-0.13502556
78	0xbf0b4ae3	-0.54411143
79	0xbbcd53d9	-0.006266099
80	0xbe6fa134	-0.23401338
81	0x3e21bb63	0.15794139
82	0xbe4903eb	-0.19630401
83	0xbeac4db3	-0.3365303
84	0x3edb9147	0.42884275
85	0xbecf779f	-0.4052095
86	0x3d83d59b	0.064372264
87	0xbd2f952b	-0.042866867
88	0x3d72aa1c	0.05924426
89	0x3d04ade4	0.032392398
90	0xbeada783	-0.33916864
91	0xbedfa083	-0.43677148
92	0xbeefc6a5	-0.4683124
93	0xbee7b7a1	-0.45257285
94	0xbc4e942f	-0.012608572
95	0x3e9ecd7a	0.3101614
96	0xbff0a1cf	-1.879938
97	0x4037d69a	2.8724732
98	0x3e9f08c6	0.3106138
99	0x3f50df25	0.8159049
100	0xbe1a22e2	-0.15052369
101	0xbf9f30ca	-1.2436764
102	0xbfa713e3	-1.3052944
103	0x3f8db7f1	1.107176
104	0x3eff121e	0.4981851
105	0x3f2709ac	0.65249133
106	0xbf3f9f53	-0.74852484
107	0x3f6d08f5	0.9259179
108	0xbf10f71d	-0.56627065
109	0x3f26037d	0.6484907
110	0x3d15c000	0.03656006
111	0xbe77c498	-0.24196088
112	0xbe4050d3	-0.18780832
113	0xbc421a97	-0.01184716
114	0xbe9d3aac	-0.30708826
115	0xbe4e43e1	-0.20143081
116	0xbea33b52	-0.31881195
117	0xbe82044d	-0.25393906
118	0xbd874224	-0.06604412
119	0xbf0667b1	-0.5250197
120	0xbf839159	-1.0278732
121	0x3fc3e49b	1.530414
122	0x3f9a4d04	1.2054753
123	0xbe9d838b	-0.30764422
124	0xbed26769	-0.4109452
125	0xbf73c42e	-0.9522122
126	0x3f559b00	0.83439636
127	0xbf8e7258	-1.1128645
128	0x3f533f2e	0.8251828
129	0xbd599e56	-0.053129517
130	0xbf1cd64f	-0.6126451
131	0x3f320190	0.69533634
132	0xbe118739	-0.1421174
133	0x3edf0fea	0.4356683
134	0xbf3e10b2	-0.74244225
135	0xbf05dabf	-0.52286905
136	0xbf4c0bea	-0.7970568
137	0xbf4c315a	-0.79762805
138	0xbefde167	-0.4958603
139	0xbf0ef11e	-0.55836666
140	0xbf355374	-0.70830464
141	0xbf1d06ce	-0.6133851
142	0xbf5caf52	-0.8620502
143	0xbf71e27f	-0.9448623
144	0xbf8dbddb	-1.1073564
145	0xbfbef22a	-1.4917653
146	0x3ce30f14	0.02771715
147	0xbfbf5b22	-1.4949687
148	0x3fa5c2fc	1.295013
149	0xbf170a90	-0.5900049
150	0x400c82f8	2.1954937
151	0x3cca2aac	0.02467855
152	0xc033de9c	-2.810462
153	0xc019c7cb	-2.4028194
154	0xbf9669de	-1.1751058
155	0x3ebb50dd	0.3658513
156	0xbfafdb25	-1.3738753
157	0xbf701a65	-0.93790275
158	0xbf170c7d	-0.5900343
159	0xbf0b72f3	-0.54472274
160	0xbeb57dba	-0.35447484
161	0xbf0a4829	-0.5401636
162	0xbf034caa	-0.51288855
163	0xbec7f1e2	-0.3905173
164	0xbef6464b	-0.48100504
165	0xbed09ee5	-0.40746227
166	0xbf25a33d	-0.64702207
167	0xbeabec80	-0.33578873
168	0x3d859bbd	0.06523845
169	0x3fc7bf50	1.5605259
170	0xbfd504e8	-1.6642122
171	0xc01668f6	-2.3501563
172	0x3f26ac53	0.65106696
173	0xbf687dfe	-0.9081725
174	0xbe3831cf	-0.1798775
175	0x3f93eb85	1.155625
176	0xbfcdf84b	-1.6091398
177	0x3e6abedf	0.22924374
178	0xbf023da7	-0.50875324
179	0x3ea14167	0.3149521
180	0xbf0ae5f2	-0.5425712
181	0x3dc07d00	0.09398842
182	0xbf410e62	-0.7541257
183	0xbf5b7a5f	-0.857336
184	0xbf1e14cb	-0.6175048
185	0xbf46a06c	-0.77588534
186	0xbf5e8c2f	-0.86932653
187	0xbf4eac75	-0.807319
188	0xbf0904cb	-0.5352294
189	0xbf12cbdc	-0.57342315
190	0xbf26796c	-0.65029025
191	0xbf25e61c	-0.64804244
192	0xbe89591a	-0.26825792
193	0x4001ed0c	2.0300932
194	0xc0379158	-2.868246
195	0x4057139a	3.3605714
196	0xc0001573	-2.0013092
197	0x3ec89021	0.39172462
198	0x401e7c04	2.4763193
199	0xbefee74d	-0.49785843
200	0xbe974e44	-0.295519
201	0x3efd8640	0.49516487
202	0xbd9497a2	-0.07255484
203	0xc002c701	-2.0433962
204	0x3dee35aa	0.11631329
205	0xbe6fb3d8	-0.23408449
206	0x3f24478f	0.6417169
207	0x3f013702	0.5047456
208	0x3f31dd23	0.6947805
209	0x3f312def	0.69210714
210	0x3f097df4	0.53707814
211	0x3f10e4a0	0.56598854
212	0x3f278cee	0.65449417
213	0x3ed102e3	0.40822515
214	0x3e9d1561	0.30680373
215	0xbe1aba5a	-0.1511015
216	0xbefb53af	-0.49087283
217	0x3f266f5c	0.6501367
218	0x3f5bb7a8	0.8582711
219	0xc00c84aa	-2.1955972
220	0xbe856822	-0.2605601
221	0x3f6370ff	0.88844293
222	0xbd8a128b	-0.06741818
223	0x3eef36d2	0.46721512
224	0xc0080056	-2.1250205
225	0xbfaa0996	-1.3284175
226	0xbf70b41f	-0.9402484
227	0xbf5356cf	-0.82554334
228	0xbe9c2b5b	-0.30501828
229	0xbecc8ecb	-0.39952692
230	0xbf4c4aec	-0.7980182
231	0xbf460aab	-0.7736003
232	0xbf63e5a0	-0.89022255
233	0xbf372010	-0.715333
234	0xbf3f052f	-0.74617285
235	0xbf8e78ac	-1.1130576
236	0xbf7b4b03	-0.98161334
237	0xbf8925cf	-1.0714663
238	0xbf299fa1	-0.662592
239	0xbe40809d	-0.18799062
240	0x3fa42cd1	1.2826177
241	0x40a556ff	5.1668696
242	0xbe993a47	-0.29927275
243	0xbffbdca1	-1.9676706
244	0xbf8217ff	-1.0163573
245	0xbe77a1e4	-0.2418285
246	0x3f94354d	1.1578766
247	0xbf866de5	-1.0502287
248	0xbf55af4b	-0.834706
249	0xbf35cb7a	-0.71013606
250	0xbeca0d3d	-0.39463225
251	0xc00fbc76	-2.2458777
252	0x3fa1086b	1.2580694
253	0xbfd93e1d	-1.697208
254	0xbe2daf8f	-0.16961502
255	0xbe10a6df	-0.14126156

l1.bias f4 [400]
0	0xbf23f272	-0.6404182
1	0xbf0e7f67	-0.5566315
2	0xbeff5603	-0.4987031
3	0x3e94f946	0.2909643
4	0xbedcea94	-0.4314772
5	0xbf92a057	-1.1455182
6	0xbcdb7395	-0.026788512
7	0xbf4b2f16	-0.7936872
8	0xbe5c13a9	-0.21491875
9	0xbe0a6076	-0.1351336
10	0x3d85ddba	0.065364316
11	0x3e8bf0e2	0.27332217
12	0x3e0d69aa	0.13809839
13	0xbf086993	-0.53286093
14	0xbdf034e6	-0.117288396
15	0x3ec86744	0.39141285
16	0xbfa848da	-1.3147233
17	0x3eb553e9	0.3541558
18	0xbd0034a8	-0.031300217
19	0x3e709f90	0.23498368
20	0xbe66486e	-0.22488567
21	0xbf9599d2	-1.1687567
22	0xbeab20d0	-0.3342347
23	0x3e7f74a4	0.24946839
24	0xbf8204fb	-1.015777
25	0xbf115368	-0.5676789
26	0xbe252aa8	-0.16129553
27	0xbe403dcc	-0.18773574
28	0x3e967406	0.29385394
29	0xbf24a1f6	-0.6430963
30	0xbf3139a0	-0.69228554
31	0x3e9d819d	0.3076295
32	0x3ecdae47	0.40172026
33	0x3f5d92d2	0.86552155
34	0xbd9b2302	-0.075750366
35	0xbe24ee2a	-0.16106477
36	0xbe3016a5	-0.17196138
37	0xbf3139aa	-0.69228613
38	0xbf1673d7	-0.5877051
39	0xbe38303c	-0.1798715
40	0xbf0262c1	-0.50931937
41	0xbf838ad6	-1.0276744
42	0xbeb00ad1	-0.34383252
43	0xbed591ab	-0.41712698
44	0xbf38f58b	-0.7224967
45	0x3dcc061c	0.09962103
46	0xbd10550c	-0.035237357
47	0xbf3b0da5	-0.73067695
48	0x3c93cdc6	0.018042456
49	0xbebc3500	-0.36759186
50	0xbd414388	-0.047183543
51	0xbec55902	-0.3854447
52	0xbf158273	-0.58402175
53	0xbef9f6a1	-0.48820975
54	0x3e60a52b	0.21938007
55	0xbea5ad49	-0.3235877
56	0xbf6ab3f9	-0.91680866
57	0xbe8156e3	-0.25261602
58	0xbed37f98	-0.41308284
59	0xbf24d1ab	-0.6438243
60	0xbf8c3d37	-1.0956181
61	0xbe81ab6d	-0.253261
62	0xbea1788e	-0.31537288
63	0xbe04f87c	-0.12985414
64	0xbf390c59	-0.72284466
65	0xbf71b4f1	-0.9441672
66	0x3da63be9	0.08116896
67	0x3f1f73fb	0.6228635
68	0xbd808cdc	-0.06276867
69	0xbeb1d705	-0.3473436
70	0xbe322515	-0.17396958
71	0xbf837ac7	-1.0271844
72	0xbf4a46d6	-0.7901434
73	0x3e65c43f	0.22438143
74	0x3e03d5c6	0.12874517
75	0xbf12f194	-0.5739987
76	0xbf94f5fc	-1.1637568
77	0xbe9dc109	-0.30811337
78	0xbecd4149	-0.4008887
79	0xbe1918eb	-0.14950912
80	0xbee0d4b2	-0.43912274
81	0xbec671be	-0.38758653
82	0xbee64c22	-0.4497996
83	0xbf31ef17	-0.6950545
84	0xbe776598	-0.24159849
85	0x3eab5302	0.33461767
86	0xbf4ac334	-0.79204106
87	0x3dc9beb7	0.09850829
88	0x3f3411aa	0.70339453
89	0xbf950f35	-1.1645266
90	0x3e848347	0.25881407
91	0xbf832d33	-1.0248169
92	0xbebd9001	-0.3702393
93	0xbd060141	-0.03271604
94	0xbd8a05b6	-0.067393705
95	0x3f5c3b19	0.86027676
96	0xbf2d75dd	-0.6775797
97	0xbe562df4	-0.20915967
98	0xbe786ab8	-0.2425946
99	0x3e1fbe0c	0.15599841
100	0x3f2c714d	0.67360383
101	0xbf4ecdfb	-0.8078305
102	0xbf1aee45	-0.6051982
103	0xbec9a498	-0.39383388
104	0xbf22e5f2	-0.6363212
105	0xbe5a0286	-0.21290025
106	0xbf285685	-0.6575702
107	0xbdf1daf2	-0.11809339
108	0x3d654a98	0.05597934
109	0xbf1f7a1f	-0.62295717
110	0xbf4db5e5	-0.80355674
111	0xbeec4afd	-0.46150962
112	0xbc2a60cd	-0.010399056
113	0x3e8c8b92	0.27450234
114	0xbd9dba38	-0.07701534
115	0xbe75c4ca	-0.2400085
116	0x3dd2d9f3	0.10295477
117	0xbe86fcf4	-0.26364863
118	0x3de9f3ad	0.114234306
119	0xbdb79290	-0.089635015
120	0xbee0f09e	-0.43933576
121	0x3e1cf9b1	0.15329625
122	0xbe5c0e84	-0.21489912
123	0x3f6b9a04	0.92031884
124	0xbe99d4c3	-0.30045137
125	0xbb787f1e	-0.0037917565
126	0xbeab0171	-0.33399537
127	0xbe03d85e	-0.12875506
128	0xbd21944a	-0.03944806
129	0xbef7dcde	-0.48410696
130	0xbec92d1c	-0.39292228
131	0xbc35af13	-0.011089104
132	0xbf8be8ae	-1.0930383
133	0xbc714828	-0.014726676
134	0xbdea04a7	-0.114266686
135	0xbd7c8a6d	-0.06165545
136	0xba7289d6	-0.00092521065
137	0xbed48d72	-0.41514164
138	0x3f1bf62b	0.609225
139	0xbf2e5e91	-0.68113047
140	0xbf7cf3f1	-0.98809725
141	0xbedb179a	-0.42791444
142	0xbf71f75d	-0.9451807
143	0xbf5bb5ed	-0.8582447
144	0x3f1aa6e5	0.6041091
145	0xbfa90896	-1.3205745
146	0xbc176852	-0.0092411805
147	0xbd10e14d	-0.035371114
148	0x3c9fbf64	0.019500442
149	0x3e4a76a7	0.19771825
150	0xbe80d735	-0.2516419
151	0xbf5f3a38	-0.8719821
152	0xbf2dc97a	-0.67885554
153	0xbe37fa32	-0.17966536
154	0xbd367ed5	-0.04455455
155	0xbf1ab72a	-0.60435736
156	0xbef19940	-0.47187233
157	0xbe2c8f29	-0.16851486
158	0x3ef5b8cb	0.47992548
159	0xbf2a45fa	-0.66513026
160	0xbececaea	-0.40389186
161	0x3f3295cb	0.69759816
162	0xbea6c66a	-0.32573253
163	0xbeee6109	-0.46558407
164	0x3f116209	0.56790215
165	0xbf4e72f2	-0.8064414
166	0xbf1454e7	-0.5794205
167	0xbef03bb9	-0.46920565
168	0xbf14ca78	-0.5812144
169	0xbf8437fd	-1.0329586
170	0xbe537058	-0.20648324
171	0xbefd546d	-0.49478474
172	0xbf887979	-1.066207
173	0xbe387739	-0.1801423
174	0xbf390d1c	-0.7228563
175	0xbea5a8ff	-0.32355496
176	0xbf6a98ce	-0.9163941
177	0x3eb4e4c8	0.35330796
178	0x3f4995d1	0.78744227
179	0x3efb5f30	0.4909606
180	0xbcc23a8b	-0.023709556
181	0x3e79ca78	0.24393642
182	0xbf857c6f	-1.0428599
183	0xbef6444b	-0.48098978
184	0xbe035eb2	-0.12829092
185	0xbf1ea957	-0.6197714
186	0xbe0f61c5	-0.1400214
187	0xbf90864d	-1.1290985
188	0x3e9d0fed	0.30676213
189	0x3ddb074e	0.10694753
190	0x3d2e5f44	0.04257132
191	0xbe627df0	-0.22118354
192	0x3e295553	0.16536455
193	0xbe505036	-0.20343098
194	0xbebeb5b5	-0.37248006
195	0xbf3cee5c	-0.7380121
196	0x3d5c34ca	0.05376128
197	0x3dac53a6	0.08414392
198	0x3f0a038a	0.5391165
199	0xbf7ba45c	-0.9829767
200	0x3ef31af7	0.4748151
201	0xbe699aad	-0.2281291
202	0x3f55ee03	0.835663
203	0xbde1ee20	-0.11031747
204	0xbe93f954	-0.2890116
205	0x3e7b7de9	0.2455975
206	0xbedaae8f	-0.42711303
207	0xbc832dd6	-0.016013067
208	0xbf114bed	-0.5675648
209	0xbe3408ad	-0.17581435
210	0xbf53de95	-0.8276151
211	0xbe3aeb5f	-0.1825385
212	0xbf1e2c4e	-0.61786354
213	0xbee68c50	-0.45028925
214	0xbece8da0	-0.40342426
215	0xbf54d2a8	-0.83133936
216	0xbe0cd3dd	-0.13752694
217	0x3f1141fa	0.567413
218	0x3f01dee6	0.5073074
219	0xbe9b3c21	-0.30319312
220	0x3f47e720	0.78087044
221	0xbec5f057	-0.38659927
222	0x3e18121d	0.1485066
223	0xbf4175b6	-0.7557024
224	0x3e55a3c4	0.20863253
225	0x3e3cd247	0.1843959
226	0xbf7572d1	-0.9587832
227	0xbf33df2c	-0.7026241
228	0xbea64b52	-0.3247934
229	0xbf250dc2	-0.6447412
230	0xbf838d6c	-1.0277534
231	0x3eff4c6c	0.49862993
232	0xbeeccb2a	-0.46248752
233	0xbe06c6e3	-0.13161807
234	0x3c85fbba	0.016355384
235	0xbe3116e0	-0.17293882
236	0x3ec6617c	0.3874625
237	0xbeeb4d68	-0.45957494
238	0x3c5d6186	0.013512021
239	0x3ca804dc	0.02051013
240	0xbf4db5ee	-0.8035573
241	0xbdec8c92	-0.11550249
242	0xbe83e765	-0.25762478
243	0x3ed9edef	0.4256434
244	0xbdff5b10	-0.12468541
245	0x3f229fd5	0.63525134
246	0xbec3c5e3	-0.38236913
247	0xbf164b58	-0.58708715
248	0xbf40a90c	-0.75257945
249	0xbf3412a2	-0.7034093
250	0xbf20eeba	-0.6286427
251	0x3e7d4e89	0.2473699
252	0x3db7a336	0.08966677
253	0xbead4768	-0.3384354
254	0xbebb0531	-0.36527398
255	0xbf2c24d3	-0.6724369

l2.weight f4 [300, 400]
0	0xbf151aff	-0.5824432
1	0x3f47d60b	0.7806098
2	0xbebe38e5	-0.37152782
3	0xbfccfa8b	-1.601396
4	0x3d76a244	0.060213342
5	0xbfe67be6	-1.8006561
6	0xbf8e4702	-1.111542
7	0x3f48d369	0.78447586
8	0x3f7fadbc	0.9987447
9	0xbedfdacf	-0.43721625
10	0xbf50bb2d	-0.8153561
11	0xbf6ff40a	-0.9373175
12	0xbffdbc3c	-1.982307
13	0xbea62f90	-0.32458162
14	0xbf039838	-0.5140414
15	0x3cc5c5eb	0.024142226
16	0xbbac933a	-0.005266574
17	0xbf99e508	-1.202302
18	0xbf35c3c0	-0.71001816
19	0xbf82c328	-1.0215807
20	0xbd8f2d2d	-0.069910385
21	0x3ed42fea	0.41442806
22	0xbf504f42	-0.8137094
23	0xbe136bd7	-0.14396606
24	0x3e5967cf	0.21231006
25	0x3ebbc18f	0.3667111
26	0x3a88a2b1	0.0010424462
27	0x3cc18675	0.023623684
28	0xbf3506f6	-0.70713747
29	0xbf4c8aa7	-0.79899067
30	0x3d7326bc	0.05936311
31	0xbf3717f7	-0.7152094
32	0xbff53c0b	-1.9158949
33	0xbf8dd622	-1.1080973
34	0xbe59bf7a	-0.21264449
35	0x3f9d6811	1.2297384
36	0xbeda2eb7	-0.42613766
37	0xbfa69574	-1.301436
38	0xc0226456	-2.537374
39	0xbe622702	-0.22085193
40	0x3ec4dd13	0.38449916
41	0x3f955c40	1.1668777
42	0xbe051dbb	-0.12999623
43	0xbf5ceb80	-0.86296844
44	0x3efbe075	0.49194685
45	0xbe1d54ce	-0.15364382
46	0xbf79ea98	-0.97623587
47	0xbce93e4f	-0.028472094
48	0xbe89dda5	-0.26926914
49	0x3e6de2da	0.23231068
50	0xbde6013b	-0.112307034
51	0x3e0a05ad	0.13478728
52	0x3e7bd197	0.24591671
53	0xbe85ca2d	-0.2613081
54	0x3f3933ee	0.72344863
55	0xbf85b1ea	-1.044492
56	0xbf6c59ca	-0.9232451
57	0x3c056626	0.00814203
58	0xbf2cac90	-0.6745081
59	0x3dc7a3ee	0.09748064
60	0xbee77ea8	-0.4521382
61	0xbe059939	-0.13046731
62	0x3e9351a7	0.28773233
63	0xbfda0fdf	-1.7036093
64	0xbf140d9f	-0.57833284
65	0x3cd8d01c	0.026466422
66	0xbf20bb06	-0.62785375
67	0xbea0bf8a	-0.31396133
68	0xbf83b9b7	-1.0291051
69	0xbf71eca8	-0.94501734
70	0xbdf2002e	-0.118164405
71	0xbf034776	-0.51280916
72	0xbf51cc44	-0.8195231
73	0xbfac1960	-1.3445244
74	0x3f3bb1b2	0.73318017
75	0xbeff89ea	-0.49909908
76	0xbf541eba	-0.82859385
77	0x3e5c543d	0.2151651
78	0xbf5f964c	-0.8733871
79	0xbf05c776	-0.5225748
80	0xbf7eefe6	-0.99584806
81	0xbe75dabf	-0.24009226
82	0xbf3072a7	-0.68924946
83	0x3dc91495	0.09818379
84	0x3ebdba70	0.37056303
85	0xbf76fe1f	-0.9648151
86	0xbf2d5da3	-0.67721003
87	0x3e399374	0.18122655
88	0x3f899833	1.0749573
89	0x3fc43d10	1.5331135
90	0xbf7c516f	-0.9856176
91	0xbe8c6ec0	-0.27428246
92	0xbb53984b	-0.0032286819
93	0xc007b15f	-2.1202009
94	0xbe82726e	-0.25477928
95	0xc021722c	-2.5225935
96	0xbf1bfa67	-0.6092896
97	0xbf1e310b	-0.61793584
98	0xbd24dd48	-0.040250093
99	0xbf1f5951	-0.6224566
100	0xc04adff9	-3.1699202
101	0x3f4a752e	0.7908505
102	0xbe9ac5da	-0.30229074
103	0xbd76f959	-0.06029639
104	0xbf82ce3d	-1.0219189
105	0xbf0e29c8	-0.55532503
106	0xbf18afad	-0.5964306
107	0xbf610fd8	-0.879148
108	0x3f1e6b6d	0.6188267
109	0x3e8879a9	0.2665532
110	0x3f03ad25	0.5143607
111	0xbea41352	-0.3204599
112	0xbf15f2f8	-0.58573866
113	0xbeeaaf5d	-0.45836917
114	0x3cc2b761	0.023769083
115	0xbf444b54	-0.7667744
116	0xbf6c5302	-0.9231416
117	0x3c11a46a	0.008889297
118	0xbf4dcfe1	-0.80395323
119	0xbeb63d26	-0.35593528
120	0x3f508aa0	0.81461525
121	0x3ec1fb2a	0.37886935
122	0x3fbe2ded	1.4857765
123	0xbfc6e370	-1.5538158
124	0xbef595d6	-0.47965878
125	0xbf71d264	-0.94461656
126	0xbf620260	-0.88284874
127	0xbf308353	-0.68950385
128	0x3f8dac73	1.1068252
129	0xbfb117d3	-1.3835396
130	0xbf906577	-1.1280965
131	0xc003f822	-2.0620198
132	0x3f14fba7	0.5819649
133	0x3dcb1c3e	0.09917496
134	0xbf539ff3	-0.8266594
135	0xbcd1a204	-0.02558995
136	0xbfb2b5cd	-1.3961731
137	0xbfeda6bf	-1.8566512
138	0xbf5668db	-0.83753747
139	0x3ea322e4	0.31862557
140	0xbf7b3a0b	-0.9813544
141	0xbfb96c16	-1.448611
142	0xbec7235b	-0.38894162
143	0x3e2fa181	0.17151453
144	0xbf4a1b59	-0.7894798
145	0xbf019dcd	-0.5063141
146	0xbfa7e4e6	-1.3116729
147	0xbee7886c	-0.4522127
148	0xbf378080	-0.7168045
149	0xbfc7e036	-1.5615299
150	0xbf96f435	-1.1793276
151	0x3f485a02	0.7826234
152	0xbe8b9488	-0.27261758
153	0xbf151518	-0.5823531
154	0x3d4f2864	0.05057563
155	0xbea312fe	-0.31850427
156	0x3f2f2dec	0.68429446
157	0x3e4e8655	0.20168431
158	0x3f254ec9	0.6457334
159	0xbf5fd4f0	-0.8743429
160	0xbeae70d0	-0.34070444
161	0xbf99e03a	-1.2021554
162	0x3cd0650d	0.02543881
163	0x3ed8c64f	0.42338797
164	0x3d212631	0.039343063
165	0xbf2de10d	-0.67921525
166	0xbf20cc71	-0.6281195
167	0x3eab5309	0.33461788
168	0x3e979a14	0.2960974
169	0xbe44913c	-0.19196028
170	0xba897d2d	-0.0010489576
171	0xbf559b38	-0.8343997
172	0x3f212af0	0.6295614
173	0x3e571905	0.21005638
174	0xbf02c46f	-0.51080984
175	0xbf30f491	-0.6912318
176	0xbed22f8f	-0.4105191
177	0xbf1b2684	-0.60605645
178	0xbefdf29d	-0.49599162
179	0x3f7ecdb7	0.99532646
180	0xbca138d3	-0.019680416
181	0x3eaf74fd	0.34268942
182	0xbf9e53e1	-1.2369348
183	0xbf416e8f	-0.75559324
184	0xbfd67050	-1.6753025
185	0xbf7c3c64	-0.9852965
186	0xbe94e4d1	-0.29080823
187	0xbddca4af	-0.107735984
188	0xbf017914	-0.50575376
189	0xbf41dc73	-0.75727004
190	0xbf841877	-1.0319966
191	0xbf814766	-1.0099914
192	0xbf406307	-0.75151104
193	0xbc12cb39	-0.008959585
194	0x3ea5e454	0.32400763
195	0x3f0079cc	0.5018585
196	0xbfad5318	-1.3540983
197	0xbe5d12d6	-0.21589217
198	0x3f0dda7c	0.55411506
199	0x3f6c85ad	0.92391473
200	0xbec2ca99	-0.38045195
201	0xbef069db	-0.4695576
202	0xbf408777	-0.752067
203	0xbeaddd6b	-0.3395799
204	0x3cf32f8b	0.029685756
205	0xbfa27a24	-1.2693524
206	0xbd4222d3	-0.047396492
207	0x3e0914bf	0.1338682
208	0xbf2748b9	-0.6534534
209	0xc0596373	-3.396695
210	0xbcbe4668	-0.023226932
211	0xbf1ce7b0	-0.6129103
212	0x3e9e437a	0.30910856
213	0x3db4f234	0.08835259
214	0xbdf93db6	-0.121699736
215	0xbfa10ec7	-1.2582635
216	0xbcbbd3bf	-0.022928117
217	0xbf83d5bf	-1.0299605
218	0xbf842652	-1.0324194
219	0xbdcb3330	-0.099218726
220	0xbf4ceed8	-0.80051947
221	0x3e9ff1b4	0.31239092
222	0xbf999b46	-1.2000511
223	0xbeed3903	-0.4633256
224	0x3f3e88ef	0.74427694
225	0xbdb66c4c	-0.08907375
226	0xbe220b41	-0.15824606
227	0xbf81b835	-1.013434
228	0x3d84b001	0.064788826
229	0xc00244c5	-2.0354474
230	0x3d1bf7fa	0.038078286
231	0xbf019f03	-0.5063326
232	0x3e84a0c2	0.25903898
233	0xbffaf9c8	-1.9607477
234	0xbf901487	-1.1256264
235	0xbd36180b	-0.044456523
236	0xc0394cf0	-2.895321
237	0xbe9a6653	-0.30156192
238	0xc0adbc1e	-5.4292135
239	0xbf53c773	-0.8272621
240	0xbee11d66	-0.43967742
241	0xbeeadda4	-0.45872223
242	0xbd2c34dd	-0.0420426
243	0xbf041b2c	-0.5160396
244	0xbe3c7b11	-0.18406321
245	0xbe4db639	-0.20089044
246	0x3f8d4f7c	1.1039882
247	0x3f7217ea	0.9456774
248	0xbeb20529	-0.34769562
249	0x3eb90de3	0.36143407
250	0x3fa095a5	1.2545668
251	0xbe476916	-0.19473681
252	0xbfbcaa52	-1.4739478
253	0x3ef48ebd	0.4776515
254	0xbf77afc5	-0.9675258
255	0xbee3e596	-0.44511098

l2.bias f4 [300]
0	0x3f8a2a6a	1.0794194
1	0x3ed1f676	0.41008347
2	0x3e90ac33	0.28256378
3	0xbe937f80	-0.28808212
4	0x3f6e29ec	0.9303272
5	0xbee6aa19	-0.4505165
6	0xbf0cc7a9	-0.5499216
7	0xbd9889c1	-0.074481495
8	0xbef410c5	-0.47669044
9	0xbe424e48	-0.18975174
10	0xbf0e3e26	-0.5556358
11	0xbd328643	-0.043585073
12	0xbf3fd04e	-0.7492722
13	0xbda6d704	-0.0814648
14	0xbdfdad1d	-0.12386534
15	0xbbea1237	-0.0071432847
16	0xbf4ea0d7	-0.8071417
17	0xbdb335ad	-0.08750472
18	0x3ace5bb0	0.0015743878
19	0xbea428c1	-0.32062343
20	0x3f8fa040	1.122078
21	0xbd7f38e1	-0.062310103
22	0xbd4c0b58	-0.049815506
23	0xbd24317c	-0.040086254
24	0x3f14b84d	0.5809372
25	0xbf4a1601	-0.78939825
26	0xbdb8a0e0	-0.090150595
27	0xbd1c5e54	-0.038175896
28	0xbf06ab21	-0.5260487
29	0x3fed0514	1.8517175
30	0xbdba1c29	-0.090874024
31	0xbdda0408	-0.106453
32	0xbdbf75b8	-0.09348625
33	0xbf848b09	-1.035493
34	0xbd0e643b	-0.034763556
35	0xbd3953e2	-0.045246013
36	0xbb89b33b	-0.004202274
37	0xbf374062	-0.71582615
38	0xbd917c2c	-0.07103762
39	0xbf35e04a	-0.7104536
40	0x3f561b18	0.8363509
41	0xbf230d67	-0.63692325
42	0xbd28e269	-0.041231547
43	0xbdaf842f	-0.08570134
44	0xbed18b7d	-0.40926734
45	0xbd2dc96a	-0.04242841
46	0xbf44fc52	-0.7694751
47	0xbe805440	-0.25064278
48	0xbe11991d	-0.14218564
49	0xbd209e2e	-0.039213352
50	0x3f717c69	0.9433046
51	0xbd10d1f8	-0.03535649
52	0xbd9f918e	-0.07791434
53	0xbf0600c7	-0.52344936
54	0xbdd18163	-0.10229757
55	0xbca4d5ec	-0.020121537
56	0xbf87682b	-1.0578665
57	0xbcbeb918	-0.023281619
58	0x3f0fe9c4	0.56216073
59	0xbda764a7	-0.08173495
60	0xbee2bf70	-0.4428668
61	0xbf17e551	-0.59334284
62	0x3cadf629	0.021235542
63	0xbef45b2e	-0.47725815
64	0xbd1f0127	-0.03881946
65	0xbf00a09f	-0.5024509
66	0x3d1a10e6	0.03761377
67	0xbd40a7f4	-0.047035173
68	0xbf12e649	-0.5738264
69	0xbe96f287	-0.2948191
70	0xbe26a262	-0.16272882
71	0xbbcb1467	-0.0061975005
72	0xbde752f5	-0.1129512
73	0xbe10e4c6	-0.1414977
74	0xbd101fa6	-0.035186432
75	0xbd43202d	-0.047638107
76	0xbd203ea0	-0.039122224
77	0xbd397197	-0.045274343
78	0x3fef12a6	1.8677566
79	0xbd18f73d	-0.03734516
80	0x3f036cd9	0.51337963
81	0xbcbcd859	-0.023052381
82	0xbfbc8766	-1.472882
83	0xbdaaa963	-0.08333089
84	0xbe515952	-0.20444229
85	0xbdd8fc29	-0.10594971
86	0x3f2211cf	0.63308424
87	0xbd7bf7e9	-0.061515722
88	0xbc7d9a58	-0.015478693
89	0xbe87d7da	-0.2653187
90	0xbfc689a3	-1.5510753
91	0xbf108615	-0.5645459
92	0xbe2befa7	-0.16790639
93	0xbd0f1a77	-0.03493735
94	0xbe82990e	-0.25507396
95	0xbeedf0de	-0.4647283
96	0xbd83e6ca	-0.06440504
97	0xbdfa1c78	-0.12212461
98	0xbec40e39	-0.382921
99	0x3d292b49	0.041301046
100	0xbf430d08	-0.7619176
101	0xbe881eee	-0.26586097
102	0xbf1e92a4	-0.61942506
103	0xbf04a08f	-0.5180749
104	0xbda4b87f	-0.08043002
105	0xbdb050ae	-0.086091384
106	0xbcc6f7dc	-0.02428811
107	0xbf292d00	-0.6608429
108	0xbec4703e	-0.38366884
109	0xbf01190a	-0.5042883
110	0xbf772e68	-0.96555185
111	0xbc721e42	-0.014777722
112	0xbda38938	-0.07985157
113	0xbd3f288a	-0.04666952
114	0x3f94bdd8	1.1620436
115	0xbde55d13	-0.11199393
116	0xbf9c662a	-1.2218678
117	0xbe838f99	-0.25695494
118	0xbd031b86	-0.03200867
119	0x3fafd17a	1.3735802
120	0xbed5210d	-0.41626778
121	0x3f0e4973	0.55580825
122	0xbcda1885	-0.02662302
123	0xbda063b0	-0.07831514
124	0xbe059379	-0.13044538
125	0xbd89013b	-0.06689688
126	0x3e889946	0.26679438
127	0xbe1ccb7e	-0.15312001
128	0xbd5633eb	-0.052295607
129	0xbd44f32e	-0.048083477
130	0xbdec2237	-0.115299635
131	0x3eb2711d	0.34851924
132	0xbeb74940	-0.35798073
133	0xbd322769	-0.043494616
134	0xbef3ade4	-0.47593606
135	0xbe01b1cf	-0.12665485
136	0xbf5cc6ea	-0.8624102
137	0x3ec86c61	0.39145187
138	0x3f06ded0	0.52683735
139	0xbf10350e	-0.56330955
140	0x3e69accb	0.22819822
141	0xbd53df7f	-0.051726814
142	0xbb4d0cec	-0.003128822
143	0xbf9a4eaa	-1.2055256
144	0x3c3731ac	0.011181276
145	0xbe1adbb7	-0.15122877
146	0xbe17dd5a	-0.14830533
147	0xbf116bc0	-0.5680504
148	0xbd33525a	-0.04377971
149	0xbf2e006a	-0.6796938
150	0x3e8b6f4d	0.27233353
151	0xbc7f74c9	-0.015591809
152	0x3d253ba7	0.040340092
153	0xbe259193	-0.16168813
154	0x3f4b6ff4	0.794677
155	0xbee6a5a7	-0.45048258
156	0xbda1bf00	-0.078977585
157	0xbdc1b4bc	-0.094583005
158	0x3ea8730b	0.3290027
159	0xbf711b02	-0.94181836
160	0xbf17f27b	-0.5935437
161	0xbd0469a5	-0.032327313
162	0x3dc1b2f7	0.09457963
163	0xbd94fec3	-0.072751544
164	0xbd9caf79	-0.07650656
165	0xbdc9c21d	-0.09851477
166	0xbebedf4f	-0.37279746
167	0xbe9d4ca2	-0.3072253
168	0xbca34109	-0.019928472
169	0xbf5abcd1	-0.8544436
170	0xbcd05992	-0.025433335
171	0x3ef692d4	0.48158896
172	0xbf1d2e16	-0.61398447
173	0xbc2ffa61	-0.010740847
174	0xbf66e439	-0.9019199
175	0xbeb34e6c	-0.3502077
176	0x3f3b4fd5	0.7316869
177	0x3b63a2cb	0.0034734483
178	0xbc068e23	-0.008212599
179	0xbe24785f	-0.16061543
180	0xbd4ec7e5	-0.050483603
181	0xbe5af08d	-0.21380825
182	0xbd993a0b	-0.07481774
183	0xbe0ba43e	-0.13636872
184	0xbd514953	-0.051095318
185	0xbeba98c1	-0.36444667
186	0xbe169229	-0.14704193
187	0xbd0a2e0b	-0.033735316
188	0x3df52ec1	0.11971808
189	0x3ec218c0	0.37909508
190	0xbd7d7289	-0.061876807
191	0xbd699e76	-0.057035886
192	0xbe924244	-0.28566182
193	0xbc245bbc	-0.010031637
194	0xbda4c2f6	-0.08044998
195	0x3f19b7dc	0.6004617
196	0xbe49df1b	-0.19714014
197	0xbddf9e80	-0.10918903
198	0xbdebd004	-0.11514285
199	0xbe42c05b	-0.1901869
200	0x3db40393	0.08789744
201	0xbd0bbc3f	-0.034115072
202	0xbe4ccc17	-0.19999729
203	0xbe69294c	-0.2276966
204	0xbd9ea47d	-0.077462174
205	0xbc33d69f	-0.010976463
206	0xbecfc1f8	-0.40577674
207	0x3eb94e55	0.36192575
208	0xbe97c11c	-0.29639518
209	0x3eca775d	0.39544192
210	0xbeede2a7	-0.46461985
211	0xbde5d812	-0.11222853
212	0xbd86ca2c	-0.0658153
213	0xbf0b12f0	-0.5432577
214	0x3ddf443f	0.10901689
215	0xbdaba012	-0.0838014
216	0xbead5fb5	-0.3386208
217	0xbe725f99	-0.2366928
218	0xbc9f627f	-0.019456146
219	0xbd9723f5	-0.07379905
220	0xbd0b636b	-0.03403036
221	0xbd990a77	-0.07472699
222	0xbcc79f75	-0.024368027
223	0xbc324f97	-0.0108832335
224	0x3f2376a4	0.63852906
225	0xbdf3876d	-0.11891065
226	0xbd9b3ad8	-0.07579583
227	0xbd88b194	-0.06674495
228	0xbdc31163	-0.09524801
229	0xbd26b77e	-0.040702336
230	0xbdc40e25	-0.0957301
231	0x3f4f787c	0.8104322
232	0xbd4c61da	-0.049898006
233	0xbcc5ecc3	-0.024160748
234	0xbe0454ce	-0.12922975
235	0xbd97a2b3	-0.07404079
236	0xbf0fedfd	-0.56222516
237	0xbe0cb1f0	-0.13739753
238	0xbbafc8bd	-0.005364506
239	0xbcbf74c3	-0.023371106
240	0x3e37d23e	0.17951295
241	0xbd9fce64	-0.07803038
242	0xbe0d833c	-0.13819593
243	0xbfbc0df6	-1.469176
244	0xbdfb3451	-0.12265838
245	0xbe943ea7	-0.2895405
246	0x3ee074cb	0.43839106
247	0xbf0eeb01	-0.5582734
248	0xbd40622b	-0.04696862
249	0xbe92981b	-0.28631672
250	0xbe010fb2	-0.12603644
251	0xbdc07d50	-0.093989015
252	0xbce9f153	-0.028557455
253	0xbf12436d	-0.57134134
254	0xbda47d48	-0.08031708
255	0xbdbeb58c	-0.09311971

l3.weight f4 [4, 300]
0	0xbf7fbca2	-0.99897206
1	0xbe122571	-0.14272095
2	0xbfadc91e	-1.3577001
3	0xbf682466	-0.9068054
4	0x3f28eaee	0.65983474
5	0x3eb0812b	0.34473547
6	0xbed6ac93	-0.4192854
7	0x3cd2b3e9	0.025720553
8	0x3ee52ac1	0.4475918
9	0x3db77739	0.08958287
10	0xbe86e6a1	-0.2634783
11	0xbc9937b5	-0.018703321
12	0x3f21190d	0.6292885
13	0x3d0f9b9b	0.035060506
14	0xbc16f838	-0.009214453
15	0x3d5eea30	0.054422557
16	0x3ece2140	0.40259743
17	0xbd006ba6	-0.03135266
18	0xbd78455e	-0.06061303
19	0x3eead4d9	0.45865515
20	0x3f5b604e	0.85693824
21	0xbd36d95c	-0.044640884
22	0x3d800b2a	0.062521294
23	0xbf07826c	-0.52933383
24	0xbd86b833	-0.06578102
25	0xbf025be7	-0.5092148
26	0x3ce3d31c	0.027810626
27	0xbc420164	-0.011841152
28	0x3f2ebbfe	0.68255603
29	0x3eaf5539	0.34244707
30	0x3bcb4804	0.0062036533
31	0x3d630670	0.05542606
32	0x3d26a732	0.040686794
33	0x3ec678d6	0.38764066
34	0xbd8ed7cb	-0.06974753
35	0xba0af3cd	-0.00053006114
36	0x3cf22bf5	0.029561976
37	0xbe0b2514	-0.13588363
38	0xbba7ea75	-0.005124385
39	0x3e47170f	0.1944239
40	0xbd60c33d	-0.054873694
41	0x3e060cfb	0.13090889
42	0x3db9f338	0.090795934
43	0x3d17844c	0.036991403
44	0xbf429e5a	-0.76022875
45	0xbeade81f	-0.33966157
46	0xbdf74920	-0.12074494
47	0x3e8dcdd0	0.27696085
48	0x3d9c5240	0.076328754
49	0x3c860968	0.016361907
50	0xbf1a8599	-0.60360104
51	0x3c475734	0.012166787
52	0xbcbcefc7	-0.023063553
53	0xbff50ef5	-1.914519
54	0x3d163128	0.036667973
55	0x3ea093d0	0.31362772
56	0xbf6d3e7d	-0.92673475
57	0xbd2ae656	-0.04172357
58	0xbe9dc9ed	-0.3081812
59	0xbbe1a510	-0.006886132
60	0x3e22476e	0.15847561
61	0x3ecf87f4	0.40533412
62	0x3e5e9485	0.21736343
63	0x3e940654	0.28911078
64	0xbce180a3	-0.02752716
65	0x3ea9aa15	0.33137575
66	0xbe8780e4	-0.26465523
67	0xbd230113	-0.039795946
68	0x3f2c03e5	0.6719344
69	0xbedcb323	-0.4310542
70	0xbf0e64ad	-0.5562237
71	0x3d837eae	0.064206466
72	0x3c536844	0.012903277
73	0x3e5db689	0.21651663
74	0xbcbca0d8	-0.023025915
75	0x3d4ca0ee	0.049958162
76	0x3d054c45	0.03254344
77	0xbbb1e4f5	-0.005428905
78	0x3e764e38	0.24053276
79	0x3d8b580a	0.068039015
80	0xbf802538	-1.0011358
81	0x3d5058a4	0.050865784
82	0xbc8ac6e9	-0.01694055
83	0xbd682070	-0.05667156
84	0x3d0cadd3	0.03434546
85	0xbd265a64	-0.040613547
86	0x3f3d2275	0.738807
87	0x3b370534	0.0027926685
88	0x3b9a1c7c	0.0047031026
89	0xbf2e7e55	-0.6816152
90	0x3cb99351	0.022653254
91	0xbf03637f	-0.51323694
92	0xbd9bcea2	-0.076077715
93	0xbca0b3c6	-0.019616973
94	0x3d86ce61	0.065823324
95	0xbf4c080b	-0.7969977
96	0x3bd0af68	0.0063685663
97	0xbd7761ce	-0.06039601
98	0xbdedcc6e	-0.116112575
99	0x3e08d79e	0.13363501
100	0xbecb1b64	-0.39669335
101	0x3ec2d18c	0.38050497
102	0x3dbb95a1	0.09159399
103	0xbe0115aa	-0.1260592
104	0x3d16adc2	0.036786802
105	0x3a2118f9	0.0006145384
106	0xbf8bad64	-1.091229
107	0xbe1ea29a	-0.15491715
108	0xbe39bea3	-0.18139128
109	0xbf43624f	-0.7632188
110	0xbf9c00d4	-1.2187753
111	0x3cc393ad	0.023874128
112	0x3d07d371	0.03316063
113	0x3c39d9ee	0.011343462
114	0xbaabad81	-0.0013097973
115	0x3dd37e06	0.103267714
116	0x3f460c4c	0.77362514
117	0x3ef736a8	0.48283887
118	0xbca750b0	-0.020424217
119	0x3e9b37e0	0.30316067
120	0x3e39b04f	0.18133663
121	0x3ec0dbf3	0.37667808
122	0x3d129082	0.035782345
123	0xbd0bad91	-0.034101073
124	0xbd12efd1	-0.035873238
125	0x3db7ca80	0.08974171
126	0xbe091ebc	-0.1339063
127	0xbff03ff9	-1.8769523
128	0xbd04f89a	-0.032463647
129	0x3b29bc16	0.0025899461
130	0x3c75e348	0.015007801
131	0xbf715ce5	-0.9428237
132	0x3e738fe3	0.23785357
133	0x3cd45c12	0.025922809
134	0xbf926bd1	-1.1439153
135	0x3f08a8e2	0.53382695
136	0xbfee0d4f	-1.8597811
137	0x3d2703af	0.040774997
138	0xbd62c17d	-0.055360306
139	0x3f91221b	1.1338533
140	0x3db484eb	0.088144146
141	0x3d1ae6c2	0.037817724
142	0x3c3ad321	0.011402876
143	0x3db0b3dc	0.086280555
144	0x3ec34fb0	0.38146734
145	0xbc38ba14	-0.011274833
146	0x3e913e7a	0.28367978
147	0xbfa29d0e	-1.2704179
148	0xbcdee6fb	-0.02720975
149	0x3e4292b2	0.19001272
150	0xbf2d7318	-0.67753744
151	0xbd097c29	-0.033565674
152	0xbf1115b6	-0.56673753
153	0xbd989a15	-0.07451264
154	0x3e19dabd	0.15024848
155	0xbe49c003	-0.19702153
156	0x3cc26d1c	0.023733668
157	0xbc7d3f3d	-0.015456972
158	0xbf63f6a8	-0.8904824
159	0xbd654f11	-0.055983607
160	0xbf31f117	-0.695085
161	0x3da13a3c	0.078724355
162	0xbfa4d7f7	-1.2878407
163	0x3c71ccd5	0.014758308
164	0x3d2271d4	0.039659336
165	0xbf0497db	-0.51794213
166	0x3b60cbc2	0.0034301137
167	0x3e18b60b	0.14913194
168	0x3c818537	0.015810592
169	0x3f0571f6	0.52127016
170	0xbdc9d80e	-0.09855662
171	0xbdb1740e	-0.08664714
172	0x3ea44dcd	0.32090607
173	0x3c98bedc	0.018645696
174	0x3e7108b2	0.23538473
175	0x3f4becf3	0.7965843
176	0x3ddd0c5d	0.10793374
177	0x3c2804f2	0.010255085
178	0xbc7d6b8d	-0.015467537
179	0x3d90462d	0.07044635
180	0x3bf527f8	0.0074815713
181	0xbcb3d8a1	-0.021953883
182	0x3cf938a8	0.030422524
183	0x3ddc7a40	0.10765505
184	0x3d84f0e1	0.064912565
185	0xbf2356e1	-0.6380444
186	0x3dd0a260	0.101872206
187	0xbd99a701	-0.075025566
188	0x3e118843	0.14212136
189	0x3f865389	1.0494243
190	0xbd44a039	-0.048004363
191	0x3cf6acdb	0.03011172
192	0x3e1bcd05	0.15214927
193	0x3d1e216a	0.038606085
194	0xbc82c56b	-0.015963277
195	0xbcbe2877	-0.023212655
196	0xbdba902a	-0.09109528
197	0xbccce7b2	-0.025012825
198	0xbd9a0369	-0.07520182
199	0x3e192b7b	0.14957993
200	0x3cce7d2f	0.025206177
201	0x3d768056	0.060180984
202	0x3f312772	0.69200814
203	0x3e17ed3d	0.14836593
204	0xbf00ce05	-0.5031436
205	0x3d26e5a0	0.04074633
206	0x3ecadb06	0.39620227
207	0xbf07f5fe	-0.5310973
208	0x3f6307d4	0.8868382
209	0xbe7c227e	-0.24622533
210	0x3b15f038	0.0022878777
211	0xbf0d9ac7	-0.55314296
212	0x3bb72591	0.005589195
213	0xbf939b8f	-1.1531848
214	0x3eea09bc	0.45710552
215	0xbb2463e2	-0.002508395
216	0xbf8d9d1f	-1.1063575
217	0x3e233d7c	0.15941423
218	0x3d0aca4f	0.033884343
219	0xbc27b4cf	-0.010235979
220	0x3d94b080	0.07260227
221	0xbc8e776e	-0.017390933
222	0x3d0b5a99	0.034021948
223	0x3cc9ff92	0.024657998
224	0x3fbb5169	1.463422
225	0x3e2cfd37	0.16893469
226	0x3e278a52	0.16361359
227	0xbb49d531	-0.0030797238
228	0xbf211c19	-0.629335
229	0xbc8560ee	-0.016281571
230	0x3eb5cb38	0.35506606
231	0xbf9198ee	-1.1374795
232	0xbbe89dc2	-0.0070988843
233	0x3d243aa3	0.040094983
234	0xbdbf3a12	-0.09337248
235	0xbd928e28	-0.071560204
236	0x3e27d99e	0.16391608
237	0x3f1a2d8f	0.60225767
238	0x3f63de92	0.8901149
239	0xbd92df15	-0.07171456
240	0xbef2082d	-0.47271863
241	0x3d59f6fe	0.053214066
242	0x3e3c28c2	0.18374923
243	0x3d31694a	0.043313302
244	0xbdd663ec	-0.10468277
245	0xbf1f5d2e	-0.62251556
246	0x3e3f3069	0.18670811
247	0x3f370e92	0.7150661
248	0xbc4f5061	-0.012653441
249	0x3ea21ce0	0.31662655
250	0x3f6a7943	0.9159128
251	0x3c8b6998	0.017018124
252	0x3d3a5edf	0.045500632
253	0x3f211381	0.62920386
254	0x3d97817c	0.07397744
255	0x3cfa72c6	0.030572306

l3.bias f4 [4]
0	0xbf34035e	-0.7031764
1	0xbcfede8c	-0.031111978
2	0x3f174892	0.5909511
3	0x3ec9ec5e	0.39438146
