src/BipedalWalkerTD3/dir_chk/chpnt_88seed_300-5sc_9h44m_actor_t.pth (torch, 528559 bytes, 6 tensors)

l1.weight f4 [400, 24]
0	0xbd2d99d6	-0.042383038
1	0x3e2c62e7	0.16834603
2	0xbeb46038	-0.3522966
3	0xbeead66a	-0.4586671
4	0xbf1029e5	-0.56313926
5	0xbe5efcd1	-0.2177613
6	0x3e56753a	0.20943156
7	0xbf17ebd5	-0.59344226
8	0xbf1c4775	-0.61046535
9	0xbe1dea35	-0.15421374
10	0x3f098e7c	0.5373304
11	0xbf801806	-1.0007331
12	0x3e88bc54	0.26706183
13	0xbfd6c422	-1.6778605
14	0xbe7b44ac	-0.24537915
15	0xbe995336	-0.29946297
16	0xbe7f4804	-0.24929816
17	0xbe9b8cbe	-0.30380815
18	0xbe700ccc	-0.23442382
19	0xbef5c8c4	-0.48004735
20	0xbed2c4b2	-0.41165692
21	0xbea23ae7	-0.31685564
22	0xbe91d21e	-0.2848062
23	0xbee5d2d3	-0.4488741
24	0xbf5a1ad1	-0.8519717
25	0x40380a80	2.8756409
26	0xc0e0361b	-7.0066047
27	0xc08b313c	-4.34976
28	0xbf5f1c11	-0.871522
29	0xbf1533bd	-0.5828207
30	0x3a958115	0.0011406267
31	0xbdc89419	-0.097938724
32	0x3eceb410	0.40371752
33	0xbe6645ab	-0.22487514
34	0x3d8cd0dd	0.06875775
35	0x3f836e84	1.0268102
36	0xbd981156	-0.074251816
37	0xbee6f18b	-0.45106158
38	0xbf00b66d	-0.5027836
39	0xbf045e5d	-0.51706487
40	0xbf238df7	-0.63888496
41	0xbededc02	-0.43527228
42	0xbf0c443d	-0.54791623
43	0xbeb5f290	-0.35536623
44	0xbef8b78c	-0.48577535
45	0xbefef3a4	-0.49795258
46	0xbed8a562	-0.42313677
47	0xbf272a2f	-0.6529874
48	0x3d8c56ed	0.06852517
49	0xc006476d	-2.0981095
50	0x3fdebd8a	1.7401593
51	0xbece7eeb	-0.40331206
52	0xbdb41187	-0.087924056
53	0xbf6d5a2a	-0.92715704
54	0xbf06f284	-0.527138
55	0x3f5a7712	0.85337937
56	0xbfd50ea1	-1.6645089
57	0x3e58d817	0.21176182
58	0x3f008401	0.5020142
59	0x3f9c71a6	1.2222183
60	0x3e496a28	0.19669402
61	0xc004fdbd	-2.077987
62	0xbf494318	-0.78618
63	0xbf39849f	-0.7246799
64	0xbf2ed3e6	-0.6829208
65	0xbf4e7c98	-0.80658865
66	0xbf4dd7c0	-0.80407333
67	0xbf2ccc5e	-0.6749934
68	0xbf10cf85	-0.5656665
69	0xbf4eec50	-0.80829334
70	0xbf3aa357	-0.72905487
71	0xbf19a2e5	-0.6001418
72	0x3eda547e	0.42642587
73	0xc12b6df4	-10.714344
74	0x408c65b6	4.387416
75	0x3f0a901e	0.54126155
76	0xc01f84c4	-2.4924784
77	0xbe013a71	-0.1261995
78	0xbf0b95e4	-0.5452559
79	0xbc88a3f1	-0.016679736
80	0xbe76facf	-0.24119113
81	0x3e22020f	0.15821098
82	0xbe474ac0	-0.19462109
83	0xbeac37a2	-0.33636194
84	0x3edb6fa6	0.42858618
85	0xbece4933	-0.40290222
86	0x3d846a73	0.06465616
87	0xbd2db6fd	-0.04241084
88	0x3d757574	0.059926465
89	0x3d082956	0.033242546
90	0xbead2311	-0.33815816
91	0xbedf1908	-0.43573785
92	0xbeef6704	-0.46758282
93	0xbee7ae4d	-0.45250168
94	0xbc466e23	-0.01211122
95	0x3e9f0516	0.31058568
96	0xbfef72b5	-1.8706881
97	0x4037d1c2	2.8721776
98	0x3e9d8660	0.30766582
99	0x3f511ea0	0.81687355
100	0xbe18a918	-0.14908254
101	0xbf9e11ad	-1.2349144
102	0xbfa6f95a	-1.3044846
103	0x3f8e9373	1.1138748
104	0x3ef8b26b	0.48573622
105	0x3f25a201	0.64700323
106	0xbf4043c7	-0.7510342
107	0x3f6e4e4e	0.93088233
108	0xbf0fe02d	-0.5620144
109	0x3f27c9f1	0.65542513
110	0x3d105f52	0.035247155
111	0xbe793413	-0.24336271
112	0xbe41de8c	-0.18932551
113	0xbc5cee1e	-0.013484506
114	0xbe9e211b	-0.30884632
115	0xbe5053de	-0.20344493
116	0xbea47a56	-0.32124585
117	0xbe83a54a	-0.25712043
118	0xbd8ac687	-0.06776147
119	0xbf06c60f	-0.52645963
120	0xbf8391ac	-1.027883
121	0x3fc3e419	1.5303985
122	0x3f9a4d35	1.2054812
123	0xbe9d8503	-0.30765542
124	0xbed26950	-0.41095972
125	0xbf73c293	-0.9521877
126	0x3f559bcf	0.8344087
127	0xbf8e6e1b	-1.1127352
128	0x3f533f59	0.82518536
129	0xbd598ef9	-0.053114865
130	0xbf1ccf37	-0.61253685
131	0x3f320267	0.69534916
132	0xbe11a46b	-0.14222877
133	0x3edf0f92	0.43566567
134	0xbf3e1090	-0.7424402
135	0xbf05da03	-0.52285784
136	0xbf4c0b8c	-0.7970512
137	0xbf4c310e	-0.7976235
138	0xbefde0d7	-0.49585602
139	0xbf0ef09d	-0.55835897
140	0xbf355330	-0.7083006
141	0xbf1d0616	-0.6133741
142	0xbf5caefa	-0.86204493
143	0xbf71e254	-0.94485974
144	0xbf8e53d1	-1.1119329
145	0xbfc06aaf	-1.5032557
146	0x3d1dac32	0.038494296
147	0xbfc0417f	-1.5019988
148	0x3fa5cbb6	1.2952793
149	0xbf1a8aeb	-0.6036822
150	0x400ce95f	2.2017438
151	0x3d23ebcb	0.04001979
152	0xc033d3a4	-2.8097925
153	0xc019f68a	-2.4056726
154	0xbf96871e	-1.1759984
155	0x3eb5fb55	0.35543314
156	0xbfaf8ec6	-1.3715446
157	0xbf72fade	-0.9491404
158	0xbf14bf42	-0.58104336
159	0xbf092515	-0.5357221
160	0xbeb0dff9	-0.34545878
161	0xbf07f933	-0.5311462
162	0xbf010137	-0.5039248
163	0xbec373d2	-0.381743
164	0xbef1c919	-0.47223738
165	0xbecc2ee7	-0.39879534
166	0xbf2352bb	-0.6379811
167	0xbea70dde	-0.32627767
168	0x3d859b8d	0.065238096
169	0x3fc7bed1	1.5605108
170	0xbfd5047a	-1.6641991
171	0xc016691d	-2.3501656
172	0x3f26ac66	0.6510681
173	0xbf687e6a	-0.9081789
174	0xbe383257	-0.17987953
175	0x3f93eb9d	1.1556278
176	0xbfcdf890	-1.609148
177	0x3e6abe33	0.22924118
178	0xbf023dd4	-0.5087559
179	0x3ea141ae	0.31495422
180	0xbf0ae63c	-0.5425756
181	0x3dc07dc8	0.09398991
182	0xbf410e51	-0.7541247
183	0xbf5b7a62	-0.85733616
184	0xbf1e1466	-0.61749876
185	0xbf46a019	-0.7758804
186	0xbf5e8b8a	-0.8693167
187	0xbf4eac41	-0.8073159
188	0xbf090435	-0.53522044
189	0xbf12cb56	-0.57341516
190	0xbf2678d7	-0.65028137
191	0xbf25e5f7	-0.64804024
192	0xbe8d6af4	-0.2762066
193	0x400161be	2.0215907
194	0xc036b184	-2.8545847
195	0x4056e94c	3.3579893
196	0xbfff4a7c	-1.9944606
197	0x3ec26d50	0.37974024
198	0x401e8e1c	2.4774237
199	0xbef935f2	-0.4867397
200	0xbe91a064	-0.2844268
201	0x3f01b629	0.5066858
202	0xbd6d8da1	-0.057996396
203	0xc003c1c6	-2.058702
204	0x3de6b778	0.11265463
205	0xbe6fe719	-0.23428
206	0x3f2784db	0.65437096
207	0x3f04828c	0.517617
208	0x3f353679	0.70786244
209	0x3f349014	0.70532346
210	0x3f0ce3c3	0.55035037
211	0x3f14515f	0.5793666
212	0x3f2b0059	0.66797405
213	0x3ed7e84d	0.4216942
214	0x3ea37cbe	0.31931108
215	0xbe0df4b2	-0.13862875
216	0xbefc85b2	-0.4932075
217	0x3f25d513	0.6477825
218	0x3f5c5319	0.86064297
219	0xc00cab88	-2.1979694
220	0xbe843e02	-0.25828558
221	0x3f640eb4	0.89084935
222	0xbd85155c	-0.064982146
223	0x3eef3430	0.46719503
224	0xc008000d	-2.125003
225	0xbfaa5500	-1.330719
226	0xbf71527a	-0.94266474
227	0xbf53f225	-0.8279136
228	0xbe9d69a9	-0.30744675
229	0xbecc8ed8	-0.3995273
230	0xbf4bb1b4	-0.7956803
231	0xbf45710b	-0.77125615
232	0xbf634c0b	-0.8878791
233	0xbf368657	-0.71298736
234	0xbf3e6c0f	-0.74383634
235	0xbf8e2be2	-1.1107142
236	0xbf7ab198	-0.97927237
237	0xbf88d939	-1.0691291
238	0xbf290560	-0.66023827
239	0xbe3e1ca8	-0.18565619
240	0x3fa3323c	1.2749705
241	0x40a531c9	5.1623273
242	0xbe94577b	-0.28972992
243	0xbffba50a	-1.9659741
244	0xbf809504	-1.0045476
245	0xbe73729f	-0.23774193
246	0x3f93102a	1.1489308
247	0xbf87c4fe	-1.0606992
248	0xbf55b8f8	-0.83485365
249	0xbf33658c	-0.70076823
250	0xbecc1e0d	-0.39866677
251	0xc0103798	-2.2533932
252	0x3fa27fde	1.2695272
253	0xbfda146c	-1.7037482
254	0xbe20d5db	-0.1570658
255	0xbe03b3ef	-0.12861608

l1.bias f4 [400]
0	0xbf23f1f7	-0.64041084
1	0xbf0e7f55	-0.55663043
2	0xbeff563e	-0.49870485
3	0x3e9530cd	0.29138795
4	0xbedda748	-0.43291688
5	0xbf92a05e	-1.145519
6	0xbc9212e5	-0.017831275
7	0xbf4b2e81	-0.79367834
8	0xbe4f4e45	-0.20244701
9	0xbe07f515	-0.13277085
10	0x3d9e1b7e	0.077200875
11	0x3e894b5e	0.26815313
12	0x3e0d2dc0	0.13786983
13	0xbf086985	-0.5328601
14	0xbde7d8b2	-0.11320628
15	0x3ec6e5a0	0.38847065
16	0xbfa829a1	-1.3137704
17	0x3eb208ff	0.34772488
18	0xbcc24194	-0.02371291
19	0x3e71aa2e	0.23600075
20	0xbe664803	-0.22488408
21	0xbf95994e	-1.168741
22	0xbea6df37	-0.32592174
23	0x3e829225	0.25502124
24	0xbf820594	-1.0157952
25	0xbf1152c6	-0.5676693
26	0xbe252a77	-0.1612948
27	0xbe403db9	-0.18773545
28	0x3e952613	0.2913061
29	0xbf230817	-0.6368422
30	0xbf338ac6	-0.70133626
31	0x3e9fb3b4	0.3119179
32	0x3ecdc89c	0.40192115
33	0x3f5f3225	0.8718589
34	0xbd9e5aac	-0.07732138
35	0xbe2fdc98	-0.17173994
36	0xbe3f94c0	-0.18709087
37	0xbf2cc35b	-0.6748559
38	0xbf167346	-0.58769643
39	0xbe33e567	-0.17567979
40	0xbf026354	-0.5093281
41	0xbf857420	-1.0426064
42	0xbeb00f56	-0.343867
43	0xbed50235	-0.41603246
44	0xbf38f4e0	-0.7224865
45	0x3dd89507	0.105753
46	0xbd1b1bfc	-0.037868485
47	0xbf3ccfe9	-0.73754746
48	0x3c9ce574	0.01915238
49	0xbebc34e8	-0.36759114
50	0xbd4f0c7f	-0.050549027
51	0xbec558c1	-0.38544276
52	0xbf1581de	-0.58401287
53	0xbef9f232	-0.48817593
54	0x3e6b8401	0.22999574
55	0xbea6cfaa	-0.3258031
56	0xbf6ab343	-0.9167978
57	0xbe815695	-0.2526137
58	0xbed1082a	-0.4082654
59	0xbf24d277	-0.64383644
60	0xbf8c2feb	-1.0952123
61	0xbe8308ea	-0.25592738
62	0xbea10743	-0.31450853
63	0xbe00c83c	-0.12576383
64	0xbf37d637	-0.7181124
65	0xbf705180	-0.9387436
66	0x3da642f6	0.081182405
67	0x3f1f0f6d	0.6213291
68	0xbd845e3f	-0.064632885
69	0xbeb1078f	-0.3457608
70	0xbe36dfc7	-0.17858802
71	0xbf80bedf	-1.0058249
72	0xbf4a8281	-0.79105383
73	0x3e66292a	0.2247664
74	0x3e02ccff	0.12773512
75	0xbf12f0d6	-0.57398736
76	0xbf94f53e	-1.1637342
77	0xbe9dbf56	-0.3081004
78	0xbed06fa1	-0.40710166
79	0xbe1905dd	-0.14943643
80	0xbedf3eec	-0.43602693
81	0xbec42ad4	-0.38313925
82	0xbee64beb	-0.44979796
83	0xbf31ef76	-0.69506013
84	0xbe77ca36	-0.24198231
85	0x3ea54986	0.32282656
86	0xbf4ac378	-0.7920451
87	0x3dc90055	0.098145165
88	0x3f35648f	0.70856565
89	0xbf94da26	-1.1629074
90	0x3e825fd9	0.2546375
91	0xbf83c1f4	-1.0293565
92	0xbebd8fc8	-0.3702376
93	0xbd44b29a	-0.04802189
94	0xbd76615b	-0.06015144
95	0x3f5b1c28	0.8558984
96	0xbf2e0642	-0.679783
97	0xbe4cfc14	-0.20018035
98	0xbe786a34	-0.24259263
99	0x3e1938e0	0.14963102
100	0x3f2b6615	0.6695264
101	0xbf4ecdd9	-0.8078285
102	0xbf1ab4ed	-0.6043232
103	0xbec9a3f9	-0.39382914
104	0xbf2274eb	-0.6345965
105	0xbe6544cd	-0.22389527
106	0xbf28562f	-0.65756506
107	0xbdd8bc5e	-0.10582803
108	0x3d654a1b	0.055978876
109	0xbf1f796e	-0.6229466
110	0xbf4db561	-0.8035489
111	0xbeec4a4b	-0.4615043
112	0xbc3921af	-0.011299535
113	0x3e8aad42	0.2708531
114	0xbd9db9c6	-0.07701449
115	0xbe75f343	-0.24018578
116	0x3dde774c	0.10862598
117	0xbe86fcad	-0.2636465
118	0x3def8508	0.116952956
119	0xbdaf4454	-0.085579544
120	0xbee279ea	-0.44233638
121	0x3e14ec96	0.14543375
122	0xbe61fc21	-0.22068836
123	0x3f6d8316	0.92778146
124	0xbe94ae99	-0.29039457
125	0xbbd1b3d8	-0.006399613
126	0xbea9e9d2	-0.33186203
127	0xbdfca637	-0.123363905
128	0xbd12ee9d	-0.03587209
129	0xbef09288	-0.46986794
130	0xbec92eb0	-0.39293432
131	0xbbf097ec	-0.0073423292
132	0xbf8c05b0	-1.0939236
133	0xbc906457	-0.01762597
134	0xbde8ae81	-0.11361409
135	0xbd7c8a74	-0.061655477
136	0x3c0b609d	0.008506921
137	0xbed4cdcb	-0.41563258
138	0x3f1bf3d3	0.6091892
139	0xbf2e5def	-0.6811208
140	0xbf7b88f5	-0.98255855
141	0xbed8d049	-0.4234641
142	0xbf71ed04	-0.9450228
143	0xbf5bb5c2	-0.85824215
144	0x3f1c09ac	0.6095226
145	0xbfa907d3	-1.3205513
146	0xbc17083d	-0.009218273
147	0xbd1c4f1a	-0.038161375
148	0x3bfd66f5	0.0077332207
149	0x3e3f4313	0.1867793
150	0xbe80c819	-0.25152662
151	0xbf5f392d	-0.8719662
152	0xbf2f014e	-0.68361366
153	0xbe37fadf	-0.17966793
154	0xbd367e68	-0.044554144
155	0xbf1ac324	-0.6045401
156	0xbef16ac5	-0.4715177
157	0xbe33f545	-0.17574032
158	0x3ef88336	0.48537606
159	0xbf2a3ba6	-0.66497266
160	0xbececd56	-0.40391034
161	0x3f337b06	0.70109594
162	0xbea6c62f	-0.32573077
163	0xbeef4f07	-0.4673998
164	0x3f1162fb	0.5679166
165	0xbf4bd385	-0.7961963
166	0xbf136689	-0.5757833
167	0xbef03bac	-0.46920526
168	0xbf119671	-0.5687018
169	0xbf843742	-1.0329363
170	0xbe536fca	-0.20648113
171	0xbefd5643	-0.49479875
172	0xbf887925	-1.066197
173	0xbe2b107d	-0.16705509
174	0xbf390df6	-0.7228693
175	0xbea14f71	-0.3150592
176	0xbf6a98b3	-0.9163925
177	0x3eb3721d	0.35048
178	0x3f4b25aa	0.79354346
179	0x3efaea81	0.49007037
180	0xbcc23a51	-0.023709448
181	0x3e736d2f	0.23772119
182	0xbf857c42	-1.0428545
183	0xbef303a8	-0.47463727
184	0xbe01186c	-0.12606972
185	0xbf1ea8d6	-0.61976373
186	0xbe0cf425	-0.13765009
187	0xbf90f9a9	-1.132619
188	0x3e9d0d7a	0.30674344
189	0x3ddca526	0.10773687
190	0x3d54406c	0.05181925
191	0xbe642da5	-0.22283037
192	0x3e2954df	0.16536282
193	0xbe504fca	-0.20342937
194	0xbec2b74c	-0.3803047
195	0xbf3f6050	-0.74756336
196	0x3d4ac91b	0.049508195
197	0x3dc386e9	0.095472164
198	0x3f0b63be	0.5444907
199	0xbf7ba3fc	-0.98297095
200	0x3ef31fb2	0.4748512
201	0xbe621057	-0.22076546
202	0x3f575d0a	0.8412634
203	0xbde1edf3	-0.11031713
204	0xbe93f8e6	-0.28900832
205	0x3e7c3c54	0.24632388
206	0xbedaae7a	-0.4271124
207	0xbd02092f	-0.03174704
208	0xbf129637	-0.5726046
209	0xbe3219e6	-0.17392692
210	0xbf53ddf2	-0.82760537
211	0xbe3aeb38	-0.18253791
212	0xbf1e2bd6	-0.6178564
213	0xbee68bfb	-0.45028672
214	0xbec9fa63	-0.39448842
215	0xbf54d378	-0.83135176
216	0xbe0f6e09	-0.14006819
217	0x3f12d057	0.5734915
218	0x3f0302fa	0.51176417
219	0xbe9b3b7e	-0.30318826
220	0x3f481846	0.7816204
221	0xbec5f051	-0.3865991
222	0x3e15ba3e	0.14621827
223	0xbf452e5b	-0.7702386
224	0x3e42af5c	0.19012207
225	0x3e4700c2	0.19433883
226	0xbf75ca9a	-0.9601227
227	0xbf33de88	-0.7026143
228	0xbea64abf	-0.32478902
229	0xbf250d8f	-0.64473814
230	0xbf838cf5	-1.0277392
231	0x3f011878	0.5042796
232	0xbef321b5	-0.47486654
233	0xbe06e1fb	-0.13172142
234	0x3c96a013	0.018386876
235	0xbe3116d0	-0.17293859
236	0x3ec111ba	0.37708837
237	0xbeea195d	-0.45722476
238	0x3c54d72a	0.012990752
239	0x3ca804ee	0.020510163
240	0xbf4c43ba	-0.7979084
241	0xbdf065e4	-0.11738184
242	0xbe83e6d5	-0.25762048
243	0x3ee16da5	0.44028965
244	0xbe0ce194	-0.13757926
245	0x3f22bae1	0.63566405
246	0xbec8d8e9	-0.3922799
247	0xbf164b6d	-0.5870884
248	0xbf3f9d24	-0.7484915
249	0xbf340d41	-0.70332724
250	0xbf23ab3d	-0.63933164
251	0x3e815290	0.25258303
252	0x3da03301	0.07822228
253	0xbeae8435	-0.3408524
254	0xbebb0500	-0.36527252
255	0xbf2aa66d	-0.66660196

l2.weight f4 [300, 400]
0	0xbf151abe	-0.5824393
1	0x3f47d579	0.7806011
2	0xbebe3888	-0.37152505
3	0xbfccf9e1	-1.6013757
4	0x3d76a2bb	0.060213786
5	0xbfe67c5a	-1.8006699
6	0xbf8e464d	-1.1115204
7	0x3f48d361	0.7844754
8	0x3f7fae5b	0.9987542
9	0xbedfdb79	-0.43722132
10	0xbf50bb99	-0.8153625
11	0xbf6ff3cb	-0.93731374
12	0xbffdbbec	-1.9822974
13	0xbea6302e	-0.32458633
14	0xbf0397ed	-0.51403695
15	0x3cc5c620	0.024142325
16	0xbbac928f	-0.0052664946
17	0xbf99e486	-1.2022865
18	0xbf35c3b0	-0.7100172
19	0xbf82c2a5	-1.0215651
20	0xbd8f2cc5	-0.06990961
21	0x3ed42ff9	0.4144285
22	0xbf504f02	-0.81370556
23	0xbe136c45	-0.1439677
24	0x3e5967e9	0.21231045
25	0x3ebbc148	0.366709
26	0x3a88a354	0.0010424652
27	0x3cc186a0	0.023623765
28	0xbf3506a0	-0.70713234
29	0xbf4c8af0	-0.798995
30	0x3d73268c	0.059362933
31	0xbf371788	-0.7152028
32	0xbff53b5c	-1.915874
33	0xbf8dd5cd	-1.1080872
34	0xbe59bf6a	-0.21264425
35	0x3f9d6885	1.2297522
36	0xbeda2f21	-0.42614082
37	0xbfa694f7	-1.301421
38	0xc022644f	-2.5373724
39	0xbe6226fb	-0.22085182
40	0x3ec4dd50	0.38450098
41	0x3f955c5d	1.1668812
42	0xbe051cfd	-0.1299934
43	0xbf5ceb22	-0.86296284
44	0x3efbe024	0.49194443
45	0xbe1d5436	-0.15364155
46	0xbf79ea94	-0.9762356
47	0xbce93dd3	-0.028471863
48	0xbe89dd65	-0.26926723
49	0x3e6de3aa	0.23231378
50	0xbde600eb	-0.11230644
51	0x3e0a053d	0.13478561
52	0x3e7bd213	0.24591856
53	0xbe85c9a5	-0.26130405
54	0x3f393427	0.72345203
55	0xbf85b16d	-1.0444771
56	0xbf6c59ea	-0.923247
57	0x3c0565a5	0.00814191
58	0xbf2cac57	-0.6745047
59	0x3dc7a440	0.09748125
60	0xbee77ef2	-0.4521404
61	0xbe059935	-0.13046725
62	0x3e9351b5	0.28773275
63	0xbfda0fe2	-1.7036097
64	0xbf140dfd	-0.57833844
65	0x3cd8cf92	0.026466165
66	0xbf20ba87	-0.6278462
67	0xbea0bf37	-0.31395885
68	0xbf83ba4c	-1.0291228
69	0xbf71ec7c	-0.9450147
70	0xbdf20004	-0.11816409
71	0xbf034775	-0.5128091
72	0xbf51cc42	-0.819523
73	0xbfac1976	-1.344527
74	0x3f3bb26f	0.73319143
75	0xbeff8a6b	-0.49910292
76	0xbf541e02	-0.8285829
77	0x3e5c5459	0.21516551
78	0xbf5f95f2	-0.87338173
79	0xbf05c814	-0.5225842
80	0xbf7eefbc	-0.99584556
81	0xbe75db83	-0.24009518
82	0xbf3071f8	-0.689239
83	0x3dc91439	0.0981831
84	0x3ebdbabf	0.37056538
85	0xbf76fe24	-0.9648154
86	0xbf2d5ce7	-0.6771988
87	0x3e39943f	0.18122958
88	0x3f8998a4	1.0749707
89	0x3fc43d28	1.5331163
90	0xbf7c516c	-0.9856174
91	0xbe8c6f34	-0.2742859
92	0xbb539869	-0.0032286888
93	0xc007b125	-2.120187
94	0xbe8272f4	-0.25478327
95	0xc021721f	-2.5225904
96	0xbf1bfa1e	-0.60928524
97	0xbf1e3086	-0.6179279
98	0xbd24dd1f	-0.04024994
99	0xbf1f5965	-0.6224578
100	0xc04adf99	-3.1698973
101	0x3f4a7558	0.790853
102	0xbe9ac586	-0.30228823
103	0xbd76f8ac	-0.060295746
104	0xbf82cd95	-1.0218989
105	0xbf0e2965	-0.55531913
106	0xbf18af26	-0.59642255
107	0xbf610f4b	-0.8791396
108	0x3f1e6b1e	0.618822
109	0x3e8879ec	0.2665552
110	0x3f03adcc	0.5143707
111	0xbea4138e	-0.3204617
112	0xbf15f25e	-0.5857295
113	0xbeeaaf5b	-0.4583691
114	0x3cc2b818	0.023769423
115	0xbf444b39	-0.7667728
116	0xbf6c53aa	-0.9231516
117	0x3c11a4cd	0.008889389
118	0xbf4dcf29	-0.80394226
119	0xbeb63cc8	-0.35593247
120	0x3f508b29	0.8146234
121	0x3ec1fbd0	0.3788743
122	0x3fbe2e5f	1.4857901
123	0xbfc6e349	-1.5538112
124	0xbef59534	-0.47965395
125	0xbf71d1ec	-0.9446094
126	0xbf620243	-0.882847
127	0xbf308328	-0.6895013
128	0x3f8dac65	1.1068236
129	0xbfb11798	-1.3835325
130	0xbf90660d	-1.1281143
131	0xc003f805	-2.062013
132	0x3f14fc45	0.5819743
133	0x3dcb1c88	0.09917551
134	0xbf539f72	-0.8266517
135	0xbcd1a14a	-0.025589604
136	0xbfb2b66f	-1.3961924
137	0xbfeda6bb	-1.8566507
138	0xbf5668ba	-0.8375355
139	0x3ea32228	0.31861997
140	0xbf7b3a83	-0.98136157
141	0xbfb96ba0	-1.448597
142	0xbec72420	-0.3889475
143	0x3e2fa226	0.17151698
144	0xbf4a1ab9	-0.78947026
145	0xbf019dad	-0.5063122
146	0xbfa7e5ae	-1.3116968
147	0xbee78853	-0.45221195
148	0xbf378038	-0.7168002
149	0xbfc7dfa1	-1.5615121
150	0xbf96f42e	-1.1793268
151	0x3f485981	0.7826157
152	0xbe8b9475	-0.272617
153	0xbf15147e	-0.58234394
154	0x3d4f2878	0.050575703
155	0xbea3134e	-0.31850666
156	0x3f2f2dbf	0.6842918
157	0x3e4e86c0	0.2016859
158	0x3f254f2e	0.64573944
159	0xbf5fd539	-0.87434727
160	0xbeae7176	-0.3407094
161	0xbf99e09d	-1.2021672
162	0x3cd064e2	0.02543873
163	0x3ed8c632	0.4233871
164	0x3d212656	0.0393432
165	0xbf2de0ef	-0.67921346
166	0xbf20cbb7	-0.62810844
167	0x3eab5307	0.33461782
168	0x3e9799ce	0.2960953
169	0xbe449188	-0.19196141
170	0xba897c85	-0.001048938
171	0xbf559b42	-0.8344003
172	0x3f212b06	0.62956274
173	0x3e571949	0.2100574
174	0xbf02c435	-0.5108064
175	0xbf30f470	-0.6912298
176	0xbed22f7a	-0.41051847
177	0xbf1b272d	-0.6060665
178	0xbefdf29c	-0.4959916
179	0x3f7ece23	0.9953329
180	0xbca1384f	-0.01968017
181	0x3eaf759e	0.34269422
182	0xbf9e5475	-1.2369524
183	0xbf416e69	-0.755591
184	0xbfd66fc2	-1.6752856
185	0xbf7c3c54	-0.98529553
186	0xbe94e4d6	-0.29080838
187	0xbddca40a	-0.107734755
188	0xbf0179bc	-0.50576377
189	0xbf41dbc9	-0.7572599
190	0xbf84180d	-1.031984
191	0xbf8147bc	-1.0100017
192	0xbf406271	-0.7515021
193	0xbc12cb55	-0.008959611
194	0x3ea5e466	0.32400817
195	0x3f007a12	0.50186265
196	0xbfad52bf	-1.3540877
197	0xbe5d1232	-0.21588972
198	0x3f0ddb44	0.554127
199	0x3f6c8672	0.9239265
200	0xbec2ca11	-0.3804479
201	0xbef069c4	-0.46955693
202	0xbf408729	-0.7520624
203	0xbeaddd07	-0.33957693
204	0x3cf32f24	0.029685564
205	0xbfa27968	-1.26933
206	0xbd422219	-0.0473958
207	0x3e091564	0.13387066
208	0xbf2748a7	-0.65345234
209	0xc059633a	-3.3966813
210	0xbcbe4697	-0.02322702
211	0xbf1ce865	-0.61292106
212	0x3e9e4346	0.309107
213	0x3db4f188	0.08835131
214	0xbdf93d24	-0.12169865
215	0xbfa10e1f	-1.2582434
216	0xbcbbd407	-0.022928251
217	0xbf83d5a5	-1.0299574
218	0xbf84261d	-1.0324131
219	0xbdcb3331	-0.09921873
220	0xbf4cee29	-0.80050904
221	0x3e9ff1be	0.31239122
222	0xbf999b16	-1.2000453
223	0xbeed3893	-0.46332225
224	0x3f3e88ff	0.7442779
225	0xbdb66ba8	-0.089072526
226	0xbe220b3f	-0.15824603
227	0xbf81b904	-1.0134587
228	0x3d84af9d	0.06478808
229	0xc00244dc	-2.0354528
230	0x3d1bf88d	0.038078833
231	0xbf019e75	-0.5063241
232	0x3e84a18c	0.259045
233	0xbffaf9ac	-1.9607444
234	0xbf9014cd	-1.1256348
235	0xbd361810	-0.04445654
236	0xc0394c60	-2.8952866
237	0xbe9a6636	-0.30156106
238	0xc0adbb6f	-5.42913
239	0xbf53c74a	-0.82725966
240	0xbee11d5b	-0.4396771
241	0xbeeadd73	-0.45872077
242	0xbd2c3596	-0.04204329
243	0xbf041b2d	-0.51603967
244	0xbe3c7a70	-0.18406081
245	0xbe4db629	-0.2008902
246	0x3f8d5034	1.1040101
247	0x3f72183b	0.9456822
248	0xbeb20518	-0.3476951
249	0x3eb90ea7	0.3614399
250	0x3fa095ce	1.2545717
251	0xbe4768e1	-0.19473602
252	0xbfbcaa18	-1.4739408
253	0x3ef48f7b	0.47765717
254	0xbf77af7c	-0.9675214
255	0xbee3e513	-0.44510707

l2.bias f4 [300]
0	0x3f8a2abc	1.0794291
1	0x3ed4f1ea	0.41590816
2	0x3e8e2d74	0.27769053
3	0xbe937f06	-0.2880785
4	0x3f69a304	0.9126437
5	0xbee6a9ab	-0.4505132
6	0xbf0cc77d	-0.54991895
7	0xbd9889a6	-0.07448129
8	0xbef41024	-0.47668564
9	0xbe424dd9	-0.18975009
10	0xbf0e3db5	-0.5556291
11	0xbd328600	-0.043584824
12	0xbf3fd058	-0.7492728
13	0xbda6d697	-0.081463985
14	0xbdfdad14	-0.12386528
15	0xbbea118b	-0.0071432046
16	0xbf4ea089	-0.8071371
17	0xbdb33500	-0.08750343
18	0x37fe4096	3.0309235e-05
19	0xbea428a7	-0.32062265
20	0x3f8e810f	1.1133136
21	0xbd7f3864	-0.062309638
22	0xbd4c0ad1	-0.049815003
23	0xbd24313f	-0.040086027
24	0x3f152f5e	0.582754
25	0xbf4a1609	-0.7893987
26	0xbdb8a080	-0.09014988
27	0xbd1c5e1e	-0.038175695
28	0xbf061fdd	-0.5239237
29	0x3feb8adc	1.8401752
30	0xbdba1c30	-0.090874076
31	0xbdda0362	-0.106451765
32	0xbdbf75b8	-0.09348625
33	0xbf848bac	-1.0355124
34	0xbd0e63fd	-0.034763325
35	0xbd395368	-0.045245558
36	0xbb89b335	-0.0042022713
37	0xbf3740ef	-0.71583456
38	0xbd917c2e	-0.071037635
39	0xbf35dfd0	-0.71044636
40	0x3f55e9de	0.8355998
41	0xbf230d0f	-0.636918
42	0xbd28e207	-0.04123118
43	0xbdaf83af	-0.085700385
44	0xbed18b6a	-0.40926677
45	0xbd2dc8b7	-0.042427745
46	0xbf44fbc9	-0.76946694
47	0xbe8053cb	-0.2506393
48	0xbe119916	-0.14218554
49	0xbd209d9f	-0.03921282
50	0x3f717cc3	0.94330996
51	0xbd10d1de	-0.035356395
52	0xbd9f90de	-0.07791303
53	0xbf060055	-0.52344257
54	0xbdd18142	-0.10229732
55	0xbca4d54f	-0.020121245
56	0xbf8767b5	-1.0578524
57	0xbcbeb8a8	-0.02328141
58	0x3f0fe9d4	0.5621617
59	0xbda763ff	-0.081733696
60	0xbee2bf53	-0.44286594
61	0xbf17de05	-0.5932315
62	0x3cadf6ce	0.02123585
63	0xbef45b24	-0.47725785
64	0xbd1f011e	-0.038819425
65	0xbf00a05b	-0.50244683
66	0x3d1a1046	0.037613176
67	0xbd40a7f9	-0.04703519
68	0xbf12e5e6	-0.5738205
69	0xbe96f1d6	-0.2948138
70	0xbe26a23f	-0.1627283
71	0xbbcb13f1	-0.0061974456
72	0xbde75332	-0.11295165
73	0xbe10e49e	-0.1414971
74	0xbd101ef6	-0.035185777
75	0xbd432001	-0.047637943
76	0xbd203e4f	-0.039121922
77	0xbd397118	-0.04527387
78	0x3fef6e0b	1.8705457
79	0xbd18f706	-0.037344955
80	0x3f05fe89	0.52341515
81	0xbcbcd830	-0.023052305
82	0xbfbc9115	-1.4731776
83	0xbdaaa8b7	-0.08332961
84	0xbe5158a2	-0.20443967
85	0xbdd8fc1a	-0.105949596
86	0x3f21a13c	0.6313665
87	0xbd7bf794	-0.061515406
88	0xbc7d9a54	-0.015478689
89	0xbe87d76d	-0.26531544
90	0xbfc69687	-1.5514687
91	0xbf108616	-0.564546
92	0xbe2bef47	-0.16790496
93	0xbd0f1a05	-0.034936924
94	0xbe829875	-0.2550694
95	0xbeedf02b	-0.46472296
96	0xbd83e60d	-0.06440363
97	0xbdfa1bcc	-0.12212333
98	0xbec3e399	-0.3825958
99	0x3d292b76	0.041301213
100	0xbf430c79	-0.76190907
101	0xbe881e85	-0.26585785
102	0xbf1e922e	-0.619418
103	0xbf049ffd	-0.5180662
104	0xbda4b867	-0.080429845
105	0xbdb05060	-0.0860908
106	0xbce036ef	-0.027369944
107	0xbf292d07	-0.6608433
108	0xbec46ff1	-0.38366655
109	0xbf0118dd	-0.50428563
110	0xbf772dcc	-0.96554255
111	0xbc721db4	-0.01477759
112	0xbda3887f	-0.07985019
113	0xbd3f2860	-0.046669364
114	0x3f94c8b5	1.1623751
115	0xbde55cdb	-0.111993514
116	0xbf9c65ee	-1.2218606
117	0xbe838f55	-0.2569529
118	0xbd031aed	-0.0320081
119	0x3fb177ab	1.3864645
120	0xbed5209a	-0.41626436
121	0x3f102a03	0.56314105
122	0xbcda187a	-0.026623
123	0xbda06307	-0.07831388
124	0xbe0592f5	-0.13044341
125	0xbd890115	-0.066896595
126	0x3e88992d	0.26679364
127	0xbe1ccb7e	-0.15312001
128	0xbd56339a	-0.052295305
129	0xbd44f331	-0.048083488
130	0xbdec21ab	-0.11529859
131	0x3eb271af	0.3485236
132	0xbeb748c0	-0.3579769
133	0xbd3226b0	-0.043493927
134	0xbef1b528	-0.47208524
135	0xbe01b135	-0.12665255
136	0xbf5cc569	-0.86238724
137	0x3ec657d0	0.3873887
138	0x3f05ec63	0.5231382
139	0xbf1034d6	-0.5633062
140	0x3e7208c3	0.23636155
141	0xbd53df82	-0.051726826
142	0xbb4d0ca1	-0.0031288045
143	0xbf9a4dfe	-1.2055051
144	0x3c373217	0.011181376
145	0xbe1adb66	-0.15122756
146	0xbe17dcfe	-0.14830396
147	0xbf116bc6	-0.56805074
148	0xbd3351e8	-0.043779284
149	0xbf2e002f	-0.6796903
150	0x3e8b6fbc	0.27233684
151	0xbc7f748c	-0.015591752
152	0x3d253c6e	0.040340833
153	0xbe22d623	-0.15901999
154	0x3f4c19b2	0.7972671
155	0xbee6a4fb	-0.45047745
156	0xbda1beaf	-0.07897698
157	0xbdc1b4b9	-0.09458298
158	0x3ea87316	0.32900304
159	0xbf70528e	-0.9387597
160	0xbf17f216	-0.5935377
161	0xbd04694d	-0.032326985
162	0x3db93959	0.09044141
163	0xbd94fe9e	-0.07275127
164	0xbd9caf5e	-0.07650636
165	0xbdc9c1a9	-0.09851391
166	0xbebedef0	-0.37279463
167	0xbe9ee632	-0.31035
168	0xbca3409f	-0.019928275
169	0xbf5abc8a	-0.8544394
170	0xbcd0592a	-0.025433142
171	0x3ef6b804	0.48187268
172	0xbf1d2dee	-0.6139821
173	0xbc2ff9a7	-0.010740674
174	0xbf620031	-0.8828154
175	0xbeb34ec7	-0.3502104
176	0x3f3b505f	0.7316951
177	0x3b63a372	0.0034734872
178	0xbc068dbd	-0.008212504
179	0xbe247857	-0.16061531
180	0xbd4ec799	-0.05048332
181	0xbe5af01a	-0.21380654
182	0xbd99396e	-0.07481657
183	0xbe0ba415	-0.13636811
184	0xbd514902	-0.051095016
185	0xbeba9868	-0.36444402
186	0xbe1691be	-0.14704034
187	0xbd0a2ddd	-0.033735145
188	0x3de6e80b	0.112747274
189	0x3eb97b2c	0.36226785
190	0xbd7d727c	-0.06187676
191	0xbd699deb	-0.057035368
192	0xbe9241d6	-0.28565854
193	0xbc245b6f	-0.010031565
194	0xbda4c28f	-0.080449216
195	0x3f1af4f1	0.6053
196	0xbe49de91	-0.19713809
197	0xbddf9e8a	-0.10918911
198	0xbdebcfa3	-0.11514213
199	0xbe42bfe9	-0.1901852
200	0x3da27ae1	0.079335935
201	0xbd0bbb85	-0.03411438
202	0xbe4ccbc9	-0.19999613
203	0xbe6928bb	-0.22769444
204	0xbd9ea426	-0.077461526
205	0xbc33d5f0	-0.0109763
206	0xbecfc199	-0.4057739
207	0x3eb94eb7	0.36192867
208	0xbe97c0de	-0.29639333
209	0x3eca77b0	0.3954444
210	0xbeede21b	-0.46461567
211	0xbde5d783	-0.11222746
212	0xbd86c9e5	-0.06581477
213	0xbf0b12c5	-0.54325515
214	0x3ddf44b1	0.10901774
215	0xbdab9f97	-0.08380049
216	0xbead5f3f	-0.3386173
217	0xbe725f54	-0.23669177
218	0xbc9f61fe	-0.019455906
219	0xbd9723d6	-0.07379882
220	0xbd0b633d	-0.034030188
221	0xbd9909c6	-0.07472567
222	0xbcc79ec9	-0.024367707
223	0xbc324f50	-0.010883167
224	0x3f237687	0.63852733
225	0xbdf3876c	-0.11891064
226	0xbd9df7f1	-0.07713307
227	0xbd88b165	-0.0667446
228	0xbdc31129	-0.095247574
229	0xbd26b757	-0.04070219
230	0xbdcebac6	-0.10094218
231	0x3f52f40f	0.82403654
232	0xbd4c6189	-0.049897704
233	0xbcc5ec69	-0.02416058
234	0xbe045435	-0.12922747
235	0xbd97a266	-0.07404022
236	0xbf0ff137	-0.5622744
237	0xbe0cb19d	-0.13739629
238	0xbbafc86f	-0.0053644697
239	0xbcbf7428	-0.023370817
240	0x3e2b64ce	0.16737673
241	0xbd9fcdce	-0.07802926
242	0xbe0d82fd	-0.138195
243	0xbfbc0dd8	-1.4691725
244	0xbdfbf123	-0.123018526
245	0xbe943e6e	-0.2895388
246	0x3ee5c0ea	0.44873744
247	0xbf0eeb24	-0.55827546
248	0xbd4061a9	-0.046968136
249	0xbe9297c6	-0.2863142
250	0xbe010f7d	-0.12603565
251	0xbdc07d01	-0.093988426
252	0xbce9f0bb	-0.028557172
253	0xbf10e1c4	-0.5659449
254	0xbda47d07	-0.080316596
255	0xbdbeb588	-0.09311968

l3.weight f4 [4, 300]
0	0xbf7fbd33	-0.9989807
1	0xbe27474e	-0.16335794
2	0xbfadfe55	-1.3593241
3	0xbf682492	-0.906808
4	0x3f28dba9	0.65960175
5	0x3eb08197	0.3447387
6	0xbed6abea	-0.41928035
7	0x3cd2b382	0.025720362
8	0x3ee52ada	0.44759256
9	0x3db776d8	0.089582145
10	0xbe86e605	-0.26347366
11	0xbc9937dd	-0.018703396
12	0x3f2119d6	0.6293005
13	0x3d0f9bb4	0.0350606
14	0xbc16f816	-0.009214422
15	0x3d5eea12	0.054422446
16	0x3ece2131	0.40259698
17	0xbd006c02	-0.031353004
18	0xbd790ead	-0.06080501
19	0x3eead4db	0.4586552
20	0x3f5a8d73	0.85372084
21	0xbd36d9cf	-0.044641312
22	0x3d800abf	0.0625205
23	0xbf07830c	-0.52934337
24	0xbd8781a7	-0.06616526
25	0xbf025c4c	-0.50922084
26	0x3ce3d3e2	0.027810995
27	0xbc420210	-0.011841312
28	0x3f2eaf3a	0.68236125
29	0x3eaad539	0.333658
30	0x3bcb4848	0.006203685
31	0x3d63066b	0.055426043
32	0x3d26a7b6	0.040687285
33	0x3ec67908	0.38764215
34	0xbd8ed79d	-0.06974719
35	0xba0af44c	-0.00053006853
36	0x3cf22bc4	0.029561885
37	0xbe0b24bd	-0.13588233
38	0xbba7eb26	-0.0051244674
39	0x3e4717a0	0.19442606
40	0xbcd4590e	-0.02592137
41	0x3e060cd5	0.13090833
42	0x3db9f2c8	0.0907951
43	0x3d1784b5	0.036991794
44	0xbf429e51	-0.7602282
45	0xbeade7f7	-0.33966038
46	0xbdf749eb	-0.120746456
47	0x3e8dcdfc	0.27696216
48	0x3d9c5265	0.07632903
49	0x3c8609b4	0.016362049
50	0xbf1a863d	-0.6036108
51	0x3c4756e9	0.012166717
52	0xbcbcefa0	-0.02306348
53	0xbff50f9b	-1.9145387
54	0x3d1630de	0.036667697
55	0x3ea0943e	0.313631
56	0xbf6d3ed2	-0.9267398
57	0xbd2ae5a7	-0.04172292
58	0xbe9dca2d	-0.3081831
59	0xbbe1a54a	-0.006886159
60	0x3e224767	0.1584755
61	0x3ecf8890	0.40533876
62	0x3e5e9422	0.21736196
63	0x3e9406f5	0.28911558
64	0xbce18093	-0.02752713
65	0x3ea9aace	0.33138126
66	0xbe87817c	-0.26465976
67	0xbd23008f	-0.039795455
68	0x3f2c0397	0.6719298
69	0xbedcb3a9	-0.4310582
70	0xbf0e64c4	-0.55622506
71	0x3d837e25	0.064205445
72	0x3c5368c1	0.012903393
73	0x3e5db642	0.21651557
74	0xbcbca17f	-0.023026226
75	0x3d4ca198	0.049958795
76	0x3d054ca4	0.032543793
77	0xbbb1e448	-0.0054288246
78	0x3e81fd51	0.25388578
79	0x3d8b584c	0.06803951
80	0xbf81806f	-1.011732
81	0x3d505862	0.05086554
82	0xbc0ccd75	-0.008593907
83	0xbd681fe3	-0.056671035
84	0x3d0cae7c	0.03434609
85	0xbd265b26	-0.04061427
86	0x3f3d490b	0.7393958
87	0x3b37058f	0.0027926897
88	0x3b9a1cc5	0.0047031366
89	0xbf2e7ebe	-0.68162143
90	0x3c85fe42	0.016356591
91	0xbf036394	-0.5132382
92	0xbd9bce5e	-0.07607721
93	0xbca0b446	-0.019617211
94	0x3d86cdcd	0.06582222
95	0xbf4c0878	-0.7970042
96	0x3bd0afe1	0.0063686226
97	0xbd77615c	-0.060395584
98	0xbde06145	-0.10956053
99	0x3e08d6e5	0.13363226
100	0xbecb1af9	-0.39669016
101	0x3ec2d1e0	0.38050747
102	0x3dbb964f	0.091595285
103	0xbe0114f5	-0.1260565
104	0x3d16ad16	0.03678616
105	0x3a21190e	0.0006145396
106	0xbf8ba3c2	-1.090935
107	0xbe1ea35d	-0.15492006
108	0xbe39be70	-0.18139052
109	0xbf4361a1	-0.76320845
110	0xbf9c0125	-1.2187849
111	0x3cc39468	0.023874477
112	0x3d07d2bd	0.03315996
113	0x3c39da8f	0.011343612
114	0xbbd01f93	-0.00635142
115	0x3dd37ea1	0.10326887
116	0x3f460ba9	0.7736154
117	0x3ef7372b	0.48284277
118	0xbca75077	-0.02042411
119	0x3e977ddd	0.29588214
120	0x3e39b05f	0.18133686
121	0x3ec9a73e	0.39385408
122	0x3d1290bd	0.035782564
123	0xbd0badc1	-0.03410125
124	0xbd12f00d	-0.03587346
125	0x3db7ca70	0.08974159
126	0xbe091dfe	-0.13390347
127	0xbff03f94	-1.8769403
128	0xbd04f845	-0.03246333
129	0x3b29bcc6	0.0025899871
130	0x3c75e41b	0.015007998
131	0xbf715d83	-0.9428331
132	0x3e739003	0.23785405
133	0x3cd45c81	0.025923016
134	0xbf929029	-1.1450244
135	0x3f08a8cd	0.5338257
136	0xbfee0bcf	-1.8597354
137	0x3d2ae0ae	0.041718177
138	0xbd555e0e	-0.05209165
139	0x3f912255	1.1338602
140	0x3db7294f	0.08943426
141	0x3d1ae71d	0.037818063
142	0x3c3ad3c7	0.011403031
143	0x3db0b398	0.08628005
144	0x3ec34fa9	0.38146713
145	0xbc38ba47	-0.011274881
146	0x3e913f3d	0.2836856
147	0xbfa29d56	-1.2704265
148	0xbcdee7b9	-0.027210103
149	0x3e429360	0.19001532
150	0xbf2d72c7	-0.6775326
151	0xbd097bbd	-0.03356527
152	0xbf1115d5	-0.5667394
153	0xbd9d8603	-0.07691576
154	0x3e19da5e	0.15024707
155	0xbe49c018	-0.19702184
156	0x3cc26de0	0.023734033
157	0xbc7d3fb3	-0.015457082
158	0xbf63f70a	-0.89048827
159	0xbd5bcc6c	-0.05366175
160	0xbf31f18f	-0.69509214
161	0x3da139df	0.07872366
162	0xbfa34cb1	-1.2757779
163	0x3c71cc74	0.014758218
164	0x3d227197	0.03965911
165	0xbf04982c	-0.51794696
166	0x3b60cb53	0.0034300878
167	0x3e231f48	0.15929902
168	0x3c818574	0.015810706
169	0x3f05715d	0.52126104
170	0xbdc9d789	-0.09855563
171	0xbdbce466	-0.09223251
172	0x3ea44d5f	0.3209028
173	0x3c98bf8d	0.018646026
174	0x3e70d21f	0.23517655
175	0x3f4bec59	0.7965751
176	0x3ddd1454	0.10794893
177	0x3c2805b6	0.010255268
178	0xbc7d6b74	-0.015467513
179	0x3d9046cd	0.07044754
180	0x3bf527d4	0.0074815545
181	0xbcb3d848	-0.021953717
182	0x3cf9393b	0.030422797
183	0x3ddc7aa1	0.10765577
184	0x3d84f13c	0.06491324
185	0xbf235746	-0.63805044
186	0x3dd0a1d2	0.10187115
187	0xbd99a6ce	-0.075025186
188	0x3e12cb84	0.14335448
189	0x3f8665e1	1.0499841
190	0xbd449f99	-0.048003767
191	0x3cf6ace4	0.030111738
192	0x3e1bcd95	0.15215142
193	0x3d1e21ad	0.038606334
194	0xbc82c4fd	-0.015963072
195	0xbcb6a3b7	-0.022294862
196	0xbdba8fd0	-0.09109461
197	0xbccce721	-0.025012555
198	0xbd9a02fe	-0.07520102
199	0x3e192c25	0.14958246
200	0x3cb16590	0.021654874
201	0x3d768123	0.060181748
202	0x3f3127ff	0.69201654
203	0x3e17ed65	0.14836653
204	0xbf00cea4	-0.5031531
205	0x3d26e636	0.04074689
206	0x3ecadae9	0.3962014
207	0xbf07f6ac	-0.53110766
208	0x3f6307fa	0.88684046
209	0xbe7c2353	-0.2462285
210	0x3b15f006	0.002287866
211	0xbf0d9b34	-0.55314946
212	0x3bb7265f	0.005589291
213	0xbf939b26	-1.1531723
214	0x3eea09bb	0.4571055
215	0xbb24633f	-0.002508357
216	0xbf8d9d8c	-1.1063704
217	0x3e233d7f	0.15941428
218	0x3d0aca1d	0.033884156
219	0xbc27b477	-0.010235897
220	0x3d94b07e	0.07260226
221	0xbc8e76bd	-0.017390603
222	0x3d0b59dd	0.034021247
223	0x3cca0028	0.024658278
224	0x3fbb50c8	1.4634027
225	0x3e2cfd96	0.1689361
226	0x3e2a7ec0	0.16649914
227	0xbb49d531	-0.0030797238
228	0xbf211b67	-0.6293244
229	0xbc8560f5	-0.016281584
230	0x3eb57157	0.35438034
231	0xbf914c61	-1.1351434
232	0xbbe89dab	-0.0070988736
233	0x3d243a9f	0.040094968
234	0xbdbf3990	-0.09337151
235	0xbd928d9e	-0.071559176
236	0x3e27599e	0.1634278
237	0x3f1a2df5	0.60226375
238	0x3f63ded2	0.8901187
239	0xbd92dede	-0.07171415
240	0xbef4ead6	-0.47835416
241	0x3d59f6e2	0.05321396
242	0x3e3c2868	0.18374789
243	0x3d3168d8	0.043312877
244	0xbddea4e1	-0.10871292
245	0xbf1f5c86	-0.62250555
246	0x3e480726	0.19533977
247	0x3f370e28	0.71505976
248	0xbc4f5051	-0.012653426
249	0x3ea21d36	0.3166291
250	0x3f6a7972	0.9159156
251	0x3c8b697d	0.017018074
252	0x3d3a5e98	0.045500368
253	0x3f21a6f9	0.63145405
254	0x3d9780ce	0.073976144
255	0x3cfa7284	0.030572183

l3.bias f4 [4]
0	0xbf31b413	-0.69415396
1	0xbd307f6a	-0.04309026
2	0x3f18b2ec	0.59648013
3	0x3ec48a86	0.38386935
