src/BipedalWalkerTD3/dir_chk_hard/checkpnt_seed_88_actor.pth (torch, 528335 bytes, 6 tensors)

l1.weight f4 [400, 24]
-0.1172159 0.038891938 0.11469093 0.0036813477 0.13191877 0.08667496 0.08059275 -0.017288335
-0.13936846 -0.0306807 -0.03948758 -0.1933406 -0.048666656 -0.05595421 -0.036020853 -0.12376242
-0.21799563 -0.30130303 -0.29585046 0.033231117 -0.043399893 -0.2217016 -0.076159604 -0.007114074
-0.03827439 1.6030345 1.0036029 -1.521748 1.1093003 -0.8742953 -4.7486415 0.2626179
0.7207086 1.0221105 -0.04757841 -1.534827 0.059888154 0.5987051 0.5054302 0.52852607
-0.1877541 -1.1351013 -0.9142436 -0.5043088 -0.15379421 -0.27982458 0.3919506 0.3273753
0.94987345 -0.9150054 0.9151915 -0.4474965 1.4133203 -0.13807274 -1.1428626 0.27536726
-0.3273029 -0.17015207 -0.051204666 0.17455658 -0.7497165 -1.3007257 -0.88960695 -0.9326524
-1.3042852 -1.3248724 -1.3149134 -1.1682148 -1.175213 -0.81729037 -0.5638451 -0.21695669
0.24361913 -0.13285333 0.3510522 -0.36660805 -0.38733062 -0.33455062 -0.16421378 0.31262523
-1.5412365 -0.8898322 -0.17700595 0.19165191 0.544787 -1.2276021 -0.89481634 -1.1520919
-1.151664 -1.0764416 -0.9633372 -1.156158 -0.8266139 -0.5369265 -0.61844075 -0.4806227
-3.1894503 -2.7757626 2.557562 -1.6558019 0.90687376 -0.7832211 -0.0694528 0.66281915
-0.7195591 -0.82380676 1.1770381 -0.6124284 -0.7872381 -1.4377949 -0.12532768 -0.35951236
-0.011301352 -0.073647976 0.43658856 0.11999473 -0.30661163 -0.8337103 -1.119174 -0.3120024
-0.19028296 -1.5403706 1.7006356 -0.060764164 0.089552075 0.82307196 -0.31090602 0.29597044
0.47081262 -1.3666185 -0.4762159 0.3527028 0.0699212 -1.7943387 -0.6416808 -0.36615515
-0.26553822 -0.5373541 -0.58543324 -0.67804545 -0.51501846 -0.58832645 -0.54330486 -0.7789945
-3.0493653 -3.1696754 2.9386666 -0.86075 -0.28723842 0.12096711 -0.6839758 0.3268753
-1.6883838 -2.2921677 -0.008558511 0.7207956 0.03224401 -0.18981254 -0.9103964 -1.1231976
-0.39910668 -0.43294442 -0.23467281 -0.31457928 -0.446172 -0.5760382 -0.6567494 -0.14312735
0.15742607 4.25649 3.5718608 1.9090197 -1.0001934 -0.14814173 -1.967704 0.18479972
-0.7366975 -1.6004659 -0.21321498 -0.77555555 0.08010447 -0.24378432 -0.62210214 -0.08301005
0.51074815 -0.36457464 -1.010266 -1.7941029 -0.36105496 0.32800385 -0.043917537 -1.0256146
-0.6493719 -0.5614523 1.2875311 1.8238479 0.26876172 -0.20936881 0.35200924 0.39290476
0.5496072 -0.90164316 0.91265774 0.90782005 0.8703599 -1.0646988 -0.81393427 -0.8130414
-0.29495382 -0.25528547 -0.3427852 -0.5809281 -1.050649 -1.3681563 -1.3245553 -1.0425869
0.508445 4.710387 1.1596053 5.9211903 0.22380547 0.53451574 -1.7402583 0.1437142
-1.8015838 0.047339212 1.5195835 1.2921507 -0.7490293 -2.0328062 0.14099701 -0.09144999
-0.24510828 0.38698483 0.16049513 0.24693227 -0.12077402 -0.1769376 -0.8821065 -1.1775938
-0.53670096 -1.8842726 -0.698758 0.2739577 0.42330185 -0.29312167 -1.3927888 0.09207618
-0.31338927 0.008453032 0.24513376 -0.8659432 -0.05660321 -1.0422189 0.034337945 -0.22883277
00000000: e40e f0bd 274d 1f3d 14e3 ea3d c442 713b
00000010: b715 073e a482 b13d d00d a53d 44a0 8dbc
00000020: 9bb6 0ebe 1756 fbbc bbbd 21bd 14fb 45be
00000030: b056 47bd 3e30 65bd 9a8a 13bd 2777 fdbd
00000040: 3f3a 5fbe 6444 9abe b679 97be 5a1d 083d
00000050: 16c4 31bd bf05 63be 91f9 9bbd 2e1d e9bb
00000060: 9bc5 1cbd 3c30 cd3f 0f76 803f a3c8 c2bf
00000070: 8dfd 8d3f d1d1 5fbf dff4 97c0 da75 863e
00000080: 5c80 383f 84d4 823f 94e1 42bd 3675 c4bf
00000090: 484d 753d bd44 193f e063 013f 7c4d 073f
000000a0: 9c42 40be 004b 91bf de0b 6abf 621a 01bf
000000b0: 3b7c 1dbe 2b45 8fbe c0ad c83e bc9d a73e
000000c0: e82a 733f cb3d 6abf fd49 6a3f 431e e5be
000000d0: aee7 b43f f162 0dbe 5249 92bf f0fc 8c3e
000000e0: 3f94 a7be 583c 2ebe fcbb 51bd f6be 323e
000000f0: 6ced 3fbf 2e7e a6bf 48bd 63bf 4fc2 6ebf
00000100: d1f2 a6bf 6b95 a9bf 154f a8bf 1088 95bf
00000110: 616d 96bf f139 51bf 2758 10bf e529 5ebe
00000120: 4b77 793e b40a 08be 1dbd b33e 0db4 bbbe
00000130: 3350 c6be 384a abbe a827 28be 6a10 a03e
00000140: 3d47 c5bf 0bcc 63bf 0c41 35be 6640 443e
00000150: 2977 0b3f 1122 9dbf af12 65bf bf77 93bf
00000160: ba69 93bf d7c8 89bf 449d 76bf fcfc 93bf
00000170: f89c 53bf 0474 09bf 2252 1ebf 2e14 f6be
00000180: f41f 4cc0 18a6 31c0 19af 2340 51f1 d3bf
00000190: e128 683f 2e81 48bf 453d 8ebd 84ae 293f
000001a0: 0635 38bf 00e5 52bf 2fa9 963f 1cc8 1cbf
000001b0: 7088 49bf aa09 b8bf e655 00be 0112 b8be
000001c0: 4e29 39bc c0d4 96bd 8988 df3e ccbf f53d
000001d0: 33fc 9cbe 0a6e 55bf 1841 8fbf c7be 9fbe
000001e0: 89d9 42be dd2a c5bf 6dae d93f d8e3 78bd
000001f0: 1467 b73d d8b4 523f 132f 9fbe 7089 973e
00000200: 5a0e f13e 5bed aebf 92d2 f3be 7695 b43e
00000210: d932 8f3d e4ac e5bf 3145 24bf b078 bbbe
00000220: a0f4 87be 0a90 09bf f4de 15bf 6394 2dbf
00000230: 40d8 03bf 909c 16bf 0716 0bbf 2f6c 47bf
00000240: cd28 43c0 f6db 4ac0 1d13 3c40 1d5a 5cbf
00000250: ea10 93be 9bbd f73d 0a19 2fbf 335c a73e
00000260: f61c d8bf e0b2 12c0 ff38 0cbc 0f86 383f
00000270: 4c12 043d 385e 42be bd0f 69bf f0c4 8fbf
00000280: b657 ccbe e4aa ddbe 124e 70be 8910 a1be
00000290: a870 e4be 3d77 13bf bb20 28bf fa8f 12be
000002a0: 4d34 213e 2b35 8840 5e99 6440 c25a f43f
000002b0: 5606 80bf 77b2 17be badd fbbf 233c 3d3e
000002c0: 3598 3cbf 11dc ccbf 0755 5abe cf8a 46bf
000002d0: d00d a43d 99a2 79be 1642 1fbf 2c01 aabd
000002e0: 64c0 023f 87a9 babe 6550 81bf 2aa5 e5bf
000002f0: 32dc b8be 1ff0 a73e e0e2 33bd 5747 83bf
00000300: 3d3d 26bf 57bb 0fbf d2cd a43f d973 e93f
00000310: 239b 893e c764 56be 8e3a b43e d02a c93e
00000320: 0fb3 0c3f 16d2 66bf f0a3 693f e566 683f
00000330: e8cf 5e3f 0d48 88bf ff5d 50bf 7b23 50bf
00000340: 3004 97be c7b4 82be 8b81 afbe b4b7 14bf
00000350: ab7b 86bf bf1f afbf 078b a9bf 7d73 85bf
00000360: 7429 023f 7ebb 9640 f26d 943f 647a bd40
00000370: 432d 653e 06d6 083f c9c0 debf d129 133e
00000380: 4c9a e6bf c3e6 413d b681 c23f 3265 a53f
00000390: 62c0 3fbf 7f19 02c0 8561 103e 224a bbbd
000003a0: aafd 7abe e022 c63e d658 243e d0db 7c3e
000003b0: 5f58 f7bd 212f 35be bbd1 61bf 65bb 96bf
000003c0: 3c65 09bf d82f f1bf cee1 32bf 2f44 8c3e
000003d0: 05bb d83e 0b14 96be e746 b2bf 7092 bc3d
000003e0: 8f74 a0be 967e 0a3c 5804 7b3e 74ae 5dbf
000003f0: c4d8 67bd 6e67 85bf f2a5 0c3d 2353 6abe

l1.bias f4 [400]
-0.34427536 0.07990595 -0.32711 -0.15912962 0.034341652 -0.42586958 0.085919105 -0.7419751
-0.26513857 -0.959335 -0.93883955 -0.98261684 -0.30578703 -0.78605956 0.22090362 -0.2741435
-0.37003714 -0.500536 -0.109444626 0.030486332 0.5340869 0.21726052 -0.53013986 -0.10810268
-0.5727878 -0.41282058 0.5403062 -0.22619332 -0.5005481 -0.722567 0.110727265 -0.5768508
1.2517847 -0.2442392 0.5840263 -0.27769837 -0.08170322 -0.43433717 0.6042729 -0.05607671
-0.36155376 -0.06233615 0.6491991 -0.007690924 -0.67970157 -0.37092042 -1.1602131 -0.21391459
-0.4152024 -0.8037296 -0.14392549 -0.19562985 -0.14603737 -0.5858561 -0.31056082 0.2565283
0.6707204 -1.0048717 -0.75940794 -0.30885231 -0.44326138 -1.0398158 -0.3313608 -0.17291379
1.5961828 -0.5748997 -0.5405578 0.50642526 0.0732136 0.26542246 -0.6879393 -1.3725101
-0.85679555 0.17858334 -0.27592683 -0.7543241 0.32654926 0.19915773 -0.11821296 -0.52386093
-1.3562475 -0.8817793 0.34946647 0.14085805 -0.32356337 -0.328642 0.47523442 0.31494728
-0.22547564 0.62222046 -0.16838223 0.07011723 0.12114673 -0.61802787 -0.3385205 0.16543466
-0.26320904 -0.13754585 -0.30434808 -0.41983408 0.1264956 0.48891932 -0.32372087 -0.8220763
-0.62184566 -0.17735758 -0.20552355 0.2503066 -0.6641046 -0.49681893 0.37634805 -0.18859333
-0.4392865 1.0379447 0.32155544 0.05705296 -1.0228201 -0.34673747 -0.5783385 -1.0031521
0.35351822 0.01707176 -0.47511905 -0.66549754 -0.11116091 -0.30999303 -0.37875673 0.07573153
-0.25527173 -0.9252734 -0.58061635 -1.173466 1.075151 1.4991246 -0.4992538 -0.059059583
0.10783788 -0.7378087 -0.94574994 -0.26416162 -0.6611743 -0.68396914 -0.4305168 -0.90417016
0.518068 -0.82476485 -0.2896049 0.054902155 -0.23713785 -0.61472756 1.0711482 -0.13002032
0.571417 -0.33223772 0.8617605 -0.24050784 0.5070268 0.013494995 -0.6593029 -0.17095123
-0.3633154 -0.42765152 -0.1781057 0.4627965 -0.51114845 -0.22923176 -0.062302325 -0.23333311
0.07179941 0.7185521 -0.6314115 -0.1574998 -0.8275582 -0.16269541 0.6360074 -0.35021085
-0.2265724 -0.97392607 0.31129754 -0.31373137 0.018482432 0.3963706 0.3579529 -0.6661939
-0.7911702 -0.36405963 -0.5678403 -1.1018591 -0.49505693 -0.75740033 0.07026395 -0.1554956
-1.1560376 -0.76535493 -0.6871717 0.20500001 -0.8075649 0.105021715 -0.43316004 -0.3057634
-0.4251796 -0.0954362 -0.38030294 0.39739713 -0.16868223 0.63457066 -0.15440066 -0.3755948
-0.4034304 -0.14745823 0.67198706 -0.50291526 -0.52965826 -1.5401939 0.27161828 1.3411056
-0.5867714 -0.35532513 -0.0867115 -0.8856925 -0.09718127 -0.24634402 -0.59721094 -0.302481
-0.6275316 -0.006207098 -0.19528991 -0.7470608 -0.57870823 0.1785181 0.064780794 -0.22986582
-0.2899665 -0.4386998 1.2924156 -0.39048147 -0.4039151 -0.04651332 -0.16477631 -0.7470398
-0.43992224 -0.43851447 0.3129034 -0.4882878 -0.64729834 -0.04693369 -0.4674144 0.3871972
-0.30736732 -0.7186356 0.35505182 0.13756171 -0.5536651 -0.15083088 -0.21196295 -0.84553576
00000000: dc44 b0be bba5 a33d f67a a7be e0f2 22be
00000010: d5a9 0c3d 940b dabe 5bf6 af3d 15f2 3dbf
00000020: 3ec0 87be fb96 75bf ca57 70bf c78c 7bbf
00000030: 1e90 9cbe 333b 49bf 8f34 623e 895c 8cbe
00000040: 8275 bdbe 2123 00bf 8124 e0bd 79be f93c
00000050: ebb9 083f 8b79 5e3e 3fb7 07bf f064 ddbd
00000060: 39a2 12bf 385d d3be 8251 0a3f 399f 67be
00000070: ec23 00bf 27fa 38bf fac4 e23d 7eac 13bf
00000080: 7b3a a03f d719 7abe bf82 153f 7b2e 8ebe
00000090: 0554 a7bd 7161 debe a1b1 1a3f b1b0 65bd
000000a0: 931d b9be 3154 7fbd ea31 263f 2604 fcbb
000000b0: ec00 2ebf 48e9 bdbe dd81 94bf 6d0c 5bbe
000000c0: 6995 d4be 39c1 4dbf 3461 13be 3153 48be
000000d0: d28a 15be aafa 15bf d401 9fbe ad57 833e
000000e0: 55b4 2b3f a39f 80bf 8f68 42bf e421 9ebe
000000f0: 28f3 e2be af18 85bf 1fa8 a9be 5010 31be
00000100: b84f cc3f a02c 13bf ff61 0abf 16a5 013f
00000110: 03f1 953d 74e5 873e ca1c 30bf 69ae afbf
00000120: f456 5bbf 8dde 363e 4846 8dbe 621b 41bf
00000130: 7731 a73e 01f0 4b3e a319 f2bd c01b 06bf
00000140: 8599 adbf 4abc 61bf 45ed b23e 183d 103e
00000150: 19aa a5be c443 a8be ed51 f33e c540 a13e
00000160: 16e3 66be d749 1f3f 646c 2cbe 9f99 8f3d
00000170: c71b f83d 1337 1ebf 8f52 adbe b467 293e
00000180: 56c3 86be d2d8 0cbe 83d3 9bbe 7ef4 d6be
00000190: 1088 013e a253 fa3e bebe a5be 9873 52bf
000001a0: 4731 1fbf 3a9d 35be c474 52be 3028 803e
000001b0: c202 2abf 0d5f febe b1b0 c03e 9c1e 41be
000001c0: 29ea e0be 5fdb 843f eaa2 a43e 5db0 693d
000001d0: c5eb 82bf 9387 b1be fe0d 14bf 4a67 80bf
000001e0: 5700 b53e 13da 8b3c ce42 f3be 0c5e 2abf
000001f0: 55a8 e3bd 68b7 9ebe 67ec c1be 2219 9b3d
00000200: fab2 82be b8de 6cbf 46a3 14bf 2234 96bf
00000210: 8c9e 893f 51e3 bf3f 329e ffbe 76e8 71bd
00000220: 1bda dc3d 08e1 3cbf ab1c 72bf 3140 87be
00000230: b842 29bf 9a18 2fbf b36c dcbe b277 67bf
00000240: 1ba0 043f ca23 53bf 1847 94be 15e1 603d
00000250: 44d4 72be c95e 1dbf 621b 893f 0c24 05be
00000260: 6248 123f 101b aabe 569c 5c3f b047 76be
00000270: 82cc 013f 1d1a 5d3c 13c8 28bf d70d 2fbe
00000280: 7a04 babe 24f5 dabe 5761 36be aaf3 ec3e
00000290: a0da 02bf bbbb 6abe b930 7fbd e0ee 6ebe
000002a0: 920b 933d 08f3 373f 2fa4 21bf a147 21be
000002b0: dbda 53bf a099 26be 62d1 223f d64e b3be
000002c0: 9802 68be 3853 79bf 6462 9f3e 66a1 a0be
000002d0: 7868 973c 16f1 ca3e 9a45 b73e af8b 2abf
000002e0: 218a 4abf 0666 babe fb5d 11bf b809 8dbf
000002f0: 1a78 fdbe fde4 41bf 8ce6 8f3d 3d3a 1fbe
00000300: 0af9 93bf 4dee 43bf 7cea 2fbf 86eb 513e
00000310: 93bc 4ebf a015 d73d 27c7 ddbe 058d 9cbe
00000320: 24b1 d9be 0e74 c3bd 11b7 c2be a377 cb3e
00000330: 09bb 2cbe 3973 223f 351b 1ebe f64d c0be
00000340: 6e8e cebe 4aff 16be 5807 2c3f 0ebf 00bf
00000350: af97 07bf 1325 c5bf 8d11 8b3e 59a9 ab3f
00000360: a736 16bf 2ded b5be cd95 b1bd bebc 62bf
00000370: f906 c7bd 9b41 7cbe d1e2 18bf cade 9abe
00000380: e9a5 20bf e964 cbbb 14fa 47be 603f 3fbf
00000390: 3926 14bf 73cd 363e cbab 843d f261 6bbe
000003a0: 7d76 94be 439d e0be e06d a53f 30ed c7be
000003b0: f6cd cebe c084 3ebd 1fbb 28be 003e 3fbf
000003c0: 7d3d e1be f884 e0be e034 a03e dc00 fabe
000003d0: 58b5 25bf 8a3d 40bd f150 efbe b63e c63e
000003e0: 405f 9dbe 81f8 37bf 5ac9 b53e fadc 0c3e
000003f0: ffbc 0dbf 6973 1abe d10c 59be 0875 58bf

l2.weight f4 [300, 400]
0.00788428 0.3129274 2.3644729 -0.18388109 -3.1321473 -0.07404361 -0.96706146 -1.3742936
0.3773556 -0.8840626 0.06084397 -0.06909242 0.057046156 -0.19003718 1.2920734 0.4424072
1.0174575 0.6307474 0.0036980002 -0.014894926 -0.5550187 0.3327179 -0.2975502 -0.03316999
-0.53004193 -0.16003583 0.18548393 -0.045821596 0.0054768943 0.1801396 -0.9399994 0.8599137
1.6329067 -1.5962453 1.1506468 -0.040279362 -0.06580073 -0.22497702 2.6779068 0.005391719
-0.7702414 0.2706142 -1.6041307 -0.002737197 0.48832235 0.9632552 1.087921 0.031039989
1.1590551 -0.7746392 0.077956 1.0033889 -0.033766206 0.08115532 0.012383947 1.3634498
-1.5423818 -0.2892927 0.027093573 1.1947836 0.3822712 0.14060806 0.42854545 1.9696441
-1.9986789 0.3567436 0.35734838 -0.27827597 -0.36873397 1.715535 0.7186656 -0.9209768
-0.47268453 0.7525909 0.97928226 0.4091027 0.22454442 0.26265866 -0.28208303 0.7303908
0.7097981 -0.035974108 -1.9124904 -0.142382 0.2551549 -0.15310057 0.14766309 1.4321487
-0.04858419 -1.0473026 -0.12118984 -1.8449507 -0.45624834 -1.4884827 0.06614058 1.2172391
1.0794201 -0.34379956 1.1812046 -0.33852074 -1.1933047 -0.29345024 0.07264908 -0.8819359
-0.4981031 -0.9665004 1.1324356 1.3311747 -0.84524435 0.80340993 2.5009453 0.073107794
0.46294075 -1.5876545 -0.74875104 -0.83085084 0.028747708 -0.17074491 1.1492277 2.1913235
0.23350082 0.67081535 1.3556362 -0.17607461 0.40168688 -0.023177497 -1.028497 -0.44605228
0.10655688 1.5677874 0.024470042 0.29892394 -0.018681787 -1.0806146 -0.44993716 0.44136015
-0.5220449 1.3898058 -0.16210876 -0.14359154 0.28686985 -0.5091523 0.5871338 1.2420207
-0.09351181 -0.20241404 0.47611365 2.392638 0.06418589 0.3046959 2.3236938 -0.01643377
0.4806419 1.2560529 -0.7378779 -0.41349098 0.16496162 -1.8632201 0.3308456 0.25115308
0.7626067 0.08733023 0.018817883 1.243021 1.0821235 0.05314452 0.14355919 0.7261698
-0.335226 -0.32640716 -0.5156867 0.071463645 1.0725175 0.100993656 1.2372684 -0.17193152
0.1872929 -0.9483683 -0.6762855 0.17600866 0.1474784 1.7617514 0.15697622 0.022460911
-1.5836864 -0.40880498 -0.34553918 1.5233248 -0.17801043 -1.9585758 0.20174022 2.5244546
-1.0743421 -0.0381925 -1.5883259 0.431859 -0.7250352 -1.2802995 0.13196337 -0.517305
0.8174559 -1.7343398 -0.00056414685 0.36645404 0.561135 -1.2317508 1.7342259 0.28685308
-0.014815501 -0.7870636 0.99733526 -0.385063 -0.3686325 -0.2137752 0.7539834 -0.9293446
0.5895333 -0.17041488 0.16489702 0.5422621 -1.4973494 0.7575547 -0.54278696 -0.8897009
1.2991321 -0.027732294 0.06521641 -0.10200742 -0.58874506 1.3237635 -0.26200834 0.048214372
0.24677712 -0.7278229 -0.23926301 -0.60630536 0.03913474 -2.05796 0.005402344 -1.0543002
-0.79899704 -0.2250543 -0.93442816 0.89692986 -1.1565374 0.076333046 -0.047863133 -0.68131334
-0.027695479 -0.79813695 -2.3413668 0.58386713 0.063451946 0.08108688 0.022402586 -0.09906276
00000000: 112d 013c 0538 a03e 8653 1740 534b 3cbe
00000010: 1a75 48c0 2da4 97bd 5791 77bf dae8 afbf
00000020: c134 c13e ed51 62bf 8737 793d 5480 8dbd
00000030: 3ba9 693d 1b99 42be a962 a53f 3283 e23e
00000040: 0c3c 823f a978 213f 265a 723b d909 74bc
00000050: b515 0ebf 005a aa3e 8058 98be 41dd 07bd
00000060: d4b0 07bf 6fe0 23be 80ef 3d3e 6daf 3bbd
00000070: 8577 b33b 8476 383e cda3 70bf 4e23 5c3f
00000080: 1603 d13f c451 ccbf 6548 933f f9fb 24bd
00000090: 88c2 86bd 6060 66be d362 2b40 04ad b03b
000000a0: 8a2e 45bf f28d 8a3e 2854 cdbf 8c62 33bb
000000b0: 6305 fa3e e597 763f ff40 8b3f 9347 fe3c
000000c0: eb5b 943f c14e 46bf 65a7 9f3d 0c6f 803f
000000d0: 6f4e 0abd c334 a63d 0ae6 4a3c 8685 ae3f
000000e0: c46c c5bf 2c1e 94be 57f3 dd3c abee 983f
000000f0: 0db9 c33e 8ffb 0f3e 4f6a db3e 4c1d fc3f
00000100: b6d4 ffbf 19a7 b63e 5ef6 b63e 307a 8ebe
00000110: b3ca bcbe a796 db3f 78fa 373f 23c5 6bbf
00000120: b503 f2be cca9 403f 3eb2 7a3f e975 d13e
00000130: f9ee 653e 327b 863e 306d 90be e4fa 3a3f
00000140: 54b5 353f 9659 13bd 7ccc f4bf 96cc 11be
00000150: aaa3 823e 65c6 1cbe fe34 173e a650 b73f
00000160: 3700 47bd 030e 86bf 6132 f8bd 5827 ecbf
00000170: 6299 e9be 9a86 bebf b674 873d 7ece 9b3f
00000180: 702a 8a3f 7f06 b0be b631 973f 9752 adbe
00000190: 35be 98bf 1c3f 96be 0ac9 943d 8dc6 61bf
000001a0: 5f07 ffbe 926c 77bf a6f3 903f ef63 aa3f
000001b0: ef61 58bf 46ac 4d3f 7d0f 2040 8ab9 953d
000001c0: 9206 ed3e 4338 cbbf 26ae 3fbf a4b2 54bf
000001d0: 5080 eb3c c1d7 2ebe e519 933f a53e 0c40
000001e0: d71a 6f3e 8eba 2b3f 7d85 ad3f e74c 34be
000001f0: e7a9 cd3e bcde bdbc caa5 83bf f760 e4be
00000200: 7e3a da3d 42ad c83f 6675 c83c 8f0c 993e
00000210: 8c0a 99bc 9451 8abf 2a5e e6be f5f9 e13e
00000220: bca4 05bf 28e5 b13f d7ff 25be a909 13be
00000230: 9be0 923e ce57 02bf 674e 163f 89fa 9e3f
00000240: 1f83 bfbd a045 4fbe 2bc5 f33e fb20 1940
00000250: e473 833d 1a01 9c3e 66b7 1440 1da0 86bc
00000260: b216 f63e 57c6 a03f 91e5 3cbf 17b5 d3be
00000270: b3eb 283e ff7d eebf 9864 a93e 2397 803e
00000280: 313a 433f 31da b23d f627 9a3c 501b 9f3f
00000290: 0683 8a3f 11ae 593d 2e01 133e 44e6 393f
000002a0: bea2 abbe d71e a7be 0b04 04bf 885b 923d
000002b0: 4148 893f c3d5 ce3d d05e 9e3f d10e 30be
000002c0: b6c9 3f3e 44c8 72bf 0c21 2dbf 9d3b 343e
000002d0: 9404 173e 1281 e13f 60be 203e f2ff b73c
000002e0: 3cb6 cabf e34e d1be 83ea b0be 4ffc c23f
000002f0: 5e48 36be 9db2 fabf fd94 4e3e aa90 2140
00000300: 0b84 89bf bd6f 1cbd 434e cbbf 9f1c dd3e
00000310: e89b 39bf dbe0 a3bf 6821 073e 1a6e 04bf
00000320: ca44 513f d9fe ddbf 41e3 13ba dd9f bb3e
00000330: 8ba6 0f3f 03aa 9dbf 1dfb dd3f 68de 923e
00000340: b7bc 72bc 007d 49bf 5d51 7f3f fa26 c5be
00000350: 66bd bcbe e3e7 5abe 0e05 413f 87e9 6dbf
00000360: a8eb 163f 3d81 2ebe c4da 283e b0d1 0a3f
00000370: 25a9 bfbf 1bef 413f 16f4 0abf 70c3 63bf
00000380: f649 a63f d62e e3bc 2e90 853d 44e9 d0bd
00000390: ffb7 16bf 1571 a93f f525 86be 6f7c 453d
000003a0: 24b3 7c3e 9a52 3abf 5d01 75be d436 1bbf
000003b0: c04b 203d 9eb5 03c0 2506 b13b 4ff3 86bf
000003c0: 128b 4cbf a274 66be af36 6fbf 329d 653f
000003d0: 6b09 94bf 8054 9c3d 220c 44bd 8d6a 2ebf
000003e0: a1e1 e2bc b452 4cbf f4d8 15c0 5178 153f
000003f0: 18f3 813d e110 a63d a185 b73c 6be1 cabd

l2.bias f4 [300]
-1.4735695 -0.7276656 -0.043595422 -0.083847776 0.04321885 1.0635185 -0.069508374 0.072964855
-0.06248506 -0.07182821 -0.031687558 -0.04911618 -0.019226976 -0.08323621 -0.07807231 -0.031799264
-0.323391 -0.29616812 -1.0601938 0.4853641 0.32537618 0.44849166 -0.085412815 -0.13080159
-0.7603414 -0.5697165 -0.1045753 -0.0072406046 -0.07764744 0.25365862 -0.46782568 -0.46391717
0.27047795 -0.11316214 -0.011081916 -0.41277996 -0.866372 -0.070043705 -1.4172057 -0.07229371
1.5806848 -0.40568316 -0.47908658 -0.08312112 -0.09222098 -0.7706167 -0.06418047 -0.97031945
0.75006425 0.0060584093 -0.12061327 -0.09461157 -0.15955484 0.071243934 -0.106971115 -0.5985957
-0.23264427 -0.092640966 0.03685518 -0.08394101 -0.1854192 -0.03918555 -0.046964593 -0.95582825
-0.95952195 -1.1682975 -0.8711074 -0.0064823534 -0.04856104 -0.25770786 0.6040301 -0.1631082
-0.65616614 -0.5788855 0.22724077 0.0011378378 -0.093576096 -0.07360857 0.38335413 -0.026269507
-0.024400406 -0.10211517 -0.054628145 -0.01814533 -0.08384107 -1.432618 1.3580532 -0.688686
-0.055563685 -0.033425495 0.16958922 -1.4404962 -0.06394362 0.49332145 -0.12899663 0.09649966
-0.1933149 -1.855103 -0.016827641 -0.006046614 -0.4913916 -0.75441813 0.06899561 0.018551745
-0.49701852 -0.113310374 -0.090499714 -0.052627698 -0.048872806 -0.101902515 -0.08035477 -0.09027502
-0.08614745 1.5536138 -0.06139112 -0.024423288 -0.053710915 -0.70661485 -0.47960034 0.45669934
-0.024082944 -0.018353472 0.42064685 -0.3963143 0.8575997 -1.3309537 -0.32431555 -0.046942297
-0.34354353 -0.35536164 -0.11494855 -0.29868117 -0.2921029 0.5585232 -0.05323783 -0.11114549
0.0018507483 -0.089012206 -0.09714601 -0.06833587 -0.039830573 -0.03176176 -0.6973554 -0.7514547
-0.061222214 -0.3539692 -0.1046334 -0.12717037 -0.027273554 -0.07164155 0.22878978 -0.16307184
-0.20417146 -0.6084989 0.09279556 -0.03292169 -0.16946125 0.091170244 0.014600184 -0.4548156
-0.07766184 -0.08224655 0.63842535 -0.20107938 -0.089508004 -0.7304846 -0.059312783 0.8627372
0.49645662 -0.49325812 -0.6809796 -0.056572575 -0.6519814 -0.15497243 -0.28078535 -1.5307261
-0.031654608 -0.49204338 0.43405372 -0.158308 0.0013899179 -0.5534992 -0.07930022 -0.012684643
-0.08016208 0.66427356 -0.09646347 -0.090369605 0.12601085 -0.09061389 -0.09957424 -0.0762489
-0.3081777 -0.6668606 0.2883373 -0.016635422 -0.8305788 -0.038833506 -0.18763776 -0.10920508
-0.031064179 -0.054415353 -0.06851974 -0.041712616 -0.279911 -0.10905492 -0.10733227 -0.2543479
-0.055308998 -0.064549595 -0.118264824 0.60500765 -0.07410871 -0.46538457 -1.2321103 -1.0714182
-0.097795874 -0.6473207 -0.09304767 0.05984603 -0.10409254 1.2017827 0.9655377 -1.1863607
-0.7537596 -0.65691173 -0.10167273 -0.76332504 -0.04653708 -0.04124139 0.0117043285 -0.4653303
0.17067474 -0.7681187 -0.28808326 -0.53056246 1.0144578 -0.058017462 -0.06553899 -0.10862774
-0.070755914 -0.84139746 -0.03212641 0.70074546 -0.0517977 0.03617587 -0.0889002 -1.3611186
0.021860639 -0.04975046 -0.27338555 1.3568163 -0.8254204 -0.6713438 -0.8371614 -0.12043944
00000000: ed9d bcbf 4b48 3abf 1d91 32bd 62b8 abbd
00000010: 4006 313d 6021 883f 685a 8ebd 996e 953d
00000020: 56f0 7fbd ab1a 93bd d0ca 01bd 0c2e 49bd
00000030: e481 9dbc bf77 aabd 60e4 9fbd f23f 02bd
00000040: 8193 a5be 59a3 97be 6eb4 87bf a581 f83e
00000050: b597 a63e b3a0 e53e eaec aebd daf0 05be
00000060: bca5 42bf f1d8 11bf 932b d6bd 9842 edbb
00000070: 9f05 9fbd 8bdf 813e d986 efbe 8d86 edbe
00000080: 167c 8a3e 8dc1 e7bd ed90 35bc e557 d3be
00000090: 8eca 5dbf 1373 8fbd ff66 b5bf ba0e 94bd
000000a0: e153 ca3f b4b5 cfbe d64a f5be 683b aabd
000000b0: 5ade bcbd 2347 45bf 0d71 83bd db66 78bf
000000c0: 3604 403f 9f85 c63b 1704 f7bd b6c3 c1bd
000000d0: 5862 23be 57e8 913d ac13 dbbd 913d 19bf
000000e0: 4d3a 6ebe 8cba bdbd 75f5 163d 44e9 abbd
000000f0: 88de 3dbe 0781 20bd f25d 40bd 29b1 74bf
00000100: 3ba3 75bf c68a 95bf e500 5fbf ec69 d4bb
00000110: f1e7 46bd 49f2 83be b7a1 1a3f d605 27be
00000120: 81fa 27bf d731 14bf ceb1 683e 8023 953a
00000130: d3a4 bfbd 17c0 96bd fe46 c43e 2633 d7bc
00000140: 5ce3 c7bc c221 d1bd c3c1 5fbd 84a5 94bc
00000150: deb4 abbd 0760 b7bf b0d4 ad3f ba4d 30bf
00000160: bf96 63bd 2ce9 08bd cca8 2d3e 2e62 b8bf
00000170: dff4 82bd a194 fc3e b117 04be 9da1 c53d
00000180: 57f4 45be 0474 edbf 1fda 89bc ad22 c6bb
00000190: ae97 fbbe 8c21 41bf 924d 8d3d d4f9 973c
000001a0: 3679 febe 450f e8bd ea57 b9bd 2490 57bd
000001b0: da2e 48bd 44b2 d0bd 0b91 a4bd 1ce2 b8bd
000001c0: 136e b0bd d1dc c63f 4175 7bbd 5913 c8bc
000001d0: faff 5bbd b6e4 34bf 2d8e f5be 7fd4 e93e
000001e0: 9849 c5bc 055a 96bc 065f d73e b5e9 cabe
000001f0: a78b 5b3f b15c aabf b00c a6be 9146 40bd
00000200: f0e4 afbe f6f1 b5be 256a ebbd bdec 98be
00000210: 838e 95be 60fb 0e3f e90f 5abd 3fa0 e3bd
00000220: cf94 f23a 084c b6bd 7df4 c6bd adf3 8bbd
00000230: 6225 23bd 9f18 02bd e285 32bf 565f 40bf
00000240: 25c4 7abd 733b b5be 094a d6bd f338 02be
00000250: ca6c dfbc ceb8 92bd de47 6a3e 4efc 26be
00000260: 5312 51be 95c6 1bbf 990b be3d e5d8 06bd
00000270: 4087 2dbe 77b7 ba3d 9c35 6f3c 97dd e8be
00000280: 2c0d 9fbd e170 a8bd d86f 233f c1e7 4dbe
00000290: f94f b7bd 0a01 3bbf f6f1 72bd 58dc 5c3f
000002a0: 902f fe3e 548c fcbe ae54 2ebf a5b8 67bd
000002b0: 41e8 26bf 18b1 1ebe 19c3 8fbe d5ee c3bf
000002c0: 43a8 01bd 1ced fbbe 4a3c de3e 7e1b 22be
000002d0: e82d b63a 20b2 0dbf 2768 a2bd 40d3 4fbc
000002e0: 042c a4bd d50d 2a3f a48e c5bd b313 b9bd
000002f0: fd08 013e c693 b9bd 94ed cbbd 6228 9cbd
00000300: 78c9 9dbe 60b7 2abf f2a0 933e 0247 88bc
00000310: d0a0 54bf e20f 1fbd 1d24 40be eaa6 dfbd
00000320: 4e7a febc a2e2 5ebd 1454 8cbd d9da 2abd
00000330: 7f50 8fbe 3058 dfbd 05d1 dbbd e339 82be
00000340: b08b 62bd 9432 84bd d434 f2bd c8e1 1a3f
00000350: 4fc6 97bd e346 eebe cab5 9dbf 3b24 89bf
00000360: 3449 c8bd cfb6 25bf c78f bebd 1c21 753d
00000370: 782e d5bd 04d4 993f 7b2d 773f abda 97bf
00000380: 64f6 40bf 5e2b 28bf cb39 d0bd 4569 43bf
00000390: aa9d 3ebd bbec 28bd 83c3 3f3c c63f eebe
000003a0: 5cc5 2e3e 6da3 44bf a67f 93be f1d2 07bf
000003b0: c1d9 813f b8a3 6dbd 4e39 86bd 3878 debd
000003c0: 7ae8 90bd d365 57bf fc96 03bd 0e64 333f
000003d0: d329 54bd 262d 143d 4f11 b6bd 2239 aebf
000003e0: 1515 b33c 23c7 4bbd 31f9 8bbe 28ac ad3f
000003f0: c04e 53bf 30dd 2bbf 3650 56bf f4a8 f6bd

l3.weight f4 [4, 300]
-0.52849793 1.1848348 0.05618266 -1.0718825 0.641065 -0.14395694 -0.096695706 0.60668004
0.012405342 -0.9822208 -0.01123571 0.030531371 -0.8001772 -0.06904052 0.16461764 -0.022355992
0.31130284 0.5349893 -0.043814633 0.5546091 -0.23450457 0.098367125 -0.054750998 -0.04106735
0.67527044 -0.57476413 -0.038236145 0.022433752 -0.10619429 -1.3513875 -1.0708607 -0.37185842
1.0036026 1.011387 0.0015012879 0.7980451 0.14186946 -0.0011466643 0.70814794 -0.025405588
0.4537813 0.13232188 0.004853647 -0.032104034 -0.05723176 -0.23468278 0.012853011 -1.1348044
-0.008067155 -0.01609016 -0.049098767 -0.040106293 -0.052298024 0.38010824 -0.6206754 0.16459417
0.89695066 -0.005048059 0.41222242 0.03338794 -1.2278477 -0.014614155 -0.1414872 -0.123292945
-0.11389213 0.034194008 1.603862 -0.028966356 0.013385418 0.16086178 -0.40791005 0.10793669
0.48924068 -0.15302956 -0.05462677 -0.58503115 -0.05329469 -0.0034157685 -0.93080413 -0.002311227
-0.07419701 -0.06612051 0.02743261 -0.02534613 -0.032875184 0.27192485 0.993206 0.33133075
-0.011346261 0.05086226 -1.1397194 0.39359617 -0.04098708 -0.128148 1.1597835 -1.0112501
-0.058897782 0.42666247 0.046508312 -0.037045296 -0.6872653 1.2308457 -0.8783787 -0.59578073
0.21200195 -0.07716504 0.059473526 -0.052814517 -0.0028966966 -0.4807762 0.008162748 -0.0019034347
0.018789547 0.2910496 0.3392856 -0.03695377 -0.031423066 -0.54072803 0.41611147 0.10382772
0.0223184 -0.015669731 0.8206306 0.5280546 -0.3789656 0.46256712 0.3936532 0.010648174
0.43663618 -1.3983426 -0.11802146 0.33854237 -0.4798725 -0.25296992 -0.088166416 -0.024776457
-0.042086974 0.064518474 -0.07659243 -0.03534935 -0.04748285 0.0048159715 0.12631993 0.6628698
-0.037416197 1.0339786 -0.025613353 0.05663189 1.0866646 0.049148906 -0.6729602 -0.42406702
-0.49632916 -0.55352926 0.90495795 -0.0031912308 -0.9917561 -0.57236093 0.00071888807 -0.06017067
-0.057160154 -0.05679118 -0.08945618 0.49313283 -0.00039829148 0.9342199 -0.03780447 1.3771753
-0.0029538656 -0.75870645 -0.08917267 0.015631985 -1.5670133 0.2658097 0.057988632 -2.3494363
0.010184448 -0.30660227 -0.7983352 1.7246989 0.012342815 0.4461368 -0.0059197615 0.019487308
0.007258621 0.553858 -0.03974813 0.008929851 0.36199182 -0.07934955 0.011049484 -0.06907071
-0.41069922 0.9318323 -0.647498 -0.05249616 -1.4527763 0.03629238 0.9527836 0.009881203
0.02410073 -0.1059 -0.011222469 -0.034495287 -0.4020314 0.06274608 0.0056276396 0.02819205
-0.08851043 -0.047614366 -0.3070817 -0.123266324 0.040378965 -0.7941148 -0.38414297 0.4199564
-0.016805915 -0.14658968 -0.047029063 -0.29601476 0.0070470404 0.42679912 -0.14969142 0.9664569
-0.7265355 -0.5870136 0.016633552 0.12921776 0.5264447 -0.010365558 0.21503162 0.65795356
-1.9978311 0.36420432 -0.049261145 0.6263654 -0.24344018 -0.005156436 -0.10418323 -1.8885204
0.021122292 -0.50571835 0.011009798 1.1064922 -0.034039468 -1.6680291 0.066300765 -1.071596
-0.41002867 -0.010180922 0.26400962 0.35558707 0.34948432 -0.8095844 -0.870345 0.11217843
00000000: a44b 07bf aba8 973f ca1f 663d 7233 89bf
00000010: d61c 243f 7369 13be 6608 c6bd 624f 1b3f
00000020: c73f 4b3c d372 7bbf fc15 38bc ed1c fa3c
00000030: 6ad8 4cbf 1e65 8dbd 8791 283e ea23 b7bc
00000040: 1663 9f3e 0ff5 083f f976 33bd ddfa 0d3f
00000050: f721 70be b474 c93d 9542 60bd 3d36 28bd
00000060: 86de 2c3f be23 13bf 819d 1cbd fdc6 b73c
00000070: 647c d9bd 44fa acbf f711 89bf 3a64 bebe
00000080: 0d76 803f 2175 813f ddc6 c43a af4c 4c3f
00000090: 3a46 113e ab4b 96ba 2f49 353f 611f d0bc
000000a0: 0656 e83e 637f 073e 580b 9f3b 857f 03bd
000000b0: da6b 6abd af50 70be 6f95 523c 4541 91bf
000000c0: 1a2c 04bc 83cf 83bc ca1b 49bd 7f46 24bd
000000d0: 7436 56bd 8c9d c23e 95e4 1ebf 608b 283e
000000e0: 8f9e 653f 306a a5bb d10e d33e cbc1 083d
000000f0: 1d2a 9dbf 3570 6fbc 05e2 10be 0381 fcbd
00000100: 4740 e9bd 040f 0c3d 5a4b cd3f da4a edbc
00000110: 834e 5b3c f3b8 243e 96d9 d0be e90d dd3d
00000120: c17d fa3e c8b3 1cbe 52c0 5fbd 9ac4 15bf
00000130: 884b 5abd 16db 5fbb 2e49 6ebf f477 17bb
00000140: 9af4 97bd 316a 87bd 5aba e03c b0a2 cfbc
00000150: 21a8 06bd bc39 8b3e c042 7e3f 2fa4 a93e
00000160: abe5 39bc f254 503d 53e2 91bf 7085 c93e
00000170: 12e2 27bd 3b39 03be c973 943f a570 81bf
00000180: cd3e 71bd 8173 da3e 807f 3e3d cfbc 17bd
00000190: 9ef0 2fbf 5a8c 9d3f 6ddd 60bf 1685 18bf
000001a0: 0a17 593e b408 9ebd 839a 733d 0954 58bd
000001b0: 81d6 3dbb 4c28 f6be 0cbd 053c ac7c f9ba
000001c0: 89ec 993c 7404 953e d8b6 ad3e d65c 17bd
000001d0: 79b5 00bd 276d 0abf 900c d53e a1a3 d43d
000001e0: 14d5 b63c cf5d 80bc d914 523f 962e 073f
000001f0: c707 c2be 99d5 ec3e ea8c c93e ae75 2e3c
00000200: c78e df3e e4fc b2bf 3cb5 f1bd 6d55 ad3e
00000210: d9b1 f5be 4685 81be 9890 b4bd fff7 cabc
00000220: 6463 2cbd 4322 843d 7edc 9cbd 7bca 10bd
00000230: 607d 42bd 4ccf 9d3b 035a 013e d6b1 293f
00000240: ba41 19bd 6959 843f 18d3 d1bc d7f6 673d
00000250: d317 8b3f 5d50 493d 1f47 2cbf 501f d9be
00000260: db1e febe 18b4 0dbf 53ab 673f f823 51bb
00000270: bae3 7dbf 3f86 12bf c373 3c3a 8575 76bd
00000280: c420 6abd de9d 68bd cd34 b7bd e87b fc3e
00000290: c7d1 d0b9 0929 6f3f dcd8 1abd 4847 b03f
000002a0: a495 41bb 963a 42bf 29a0 b6bd a60e 803c
000002b0: e493 c8bf 3618 883e 7d85 6d3d 2a5d 16c0
000002c0: acdc 263c f9fa 9cbe b25f 4cbf efc2 dc3f
000002d0: 8539 4a3c 0b6c e43e 8ffa c1bb d9a3 9f3c
000002e0: bad9 ed3b a3c9 0d3f efce 22bd 834e 123c
000002f0: fe56 b93e 0482 a2bd e508 353c f274 8dbd
00000300: 2b47 d2be 908c 6e3f 6ec2 25bf 3706 57bd
00000310: 93f4 b9bf 52a7 143d a0e9 733f c5e4 213c
00000320: e56e c53c 19e2 d8bd 72de 37bc ee4a 0dbd
00000330: 0fd7 cdbe 0481 803d 1068 b83b 04f3 e63c
00000340: f544 b5bd 4807 43bd d039 9dbe 0e73 fcbd
00000350: 6a64 253d 1c4b 4bbf 63ae c4be 8604 d73e
00000360: 8fac 89bc 9b1b 16be 8ca1 40bd 3f8f 97be
00000370: dcea e63b 6a85 da3e b548 19be b869 773f
00000380: 3bfe 39bf 8646 16bf 1643 883c a951 043e
00000390: 14c5 063f 4dd4 29bc 4031 5c3e a56f 283f
000003a0: eeb8 ffbf fd78 ba3e 0ec6 49bd 7c59 203f
000003b0: 6248 79be 52f7 a8bb 045e d5bd 09bb f1bf
000003c0: a808 ad3c c276 01bf 7162 343c 89a1 8d3f
000003d0: f86c 0bbd fa81 d5bf b2c8 873d 0f2a 89bf
000003e0: 47ef d1be e2cd 26bc 452c 873e 820f b63e
000003f0: 9cef b23e ec40 4fbf eece 5ebf cebd e53d

l3.bias f4 [4]
-0.7328024 -1.44461 -0.25468466 0.13557447
00000000: f098 3bbf fbe8 b8bf 0766 82be 09d4 0a3e
