src/BipedalWalkerTD3/dir_chk_hard/chpnt_88seed_300-5sc_9h44m_actor.pth (torch, 528543 bytes, 6 tensors)

l1.weight f4 [400, 24]
000000 cc 66 f9 3f 99 29 2a 41 1d 38 45 c0 8a d6 ac ba
       1.9484496 10.635156 -3.08155 -0.0013186496
000010 b3 9a c0 be 2e 0c 81 be af f8 2a c0 82 f8 bf 3e
       -0.37618026 -0.25204605 -2.6714284 0.37494284
000020 bc a8 75 c0 2b a7 aa 3c 95 7d e0 be 46 3a 96 3f
       -3.8384237 0.020831665 -0.4384581 1.1736534
000030 31 e2 3a bf e6 90 34 c0 36 98 db 3e 04 7c a8 3e
       -0.7300139 -2.821344 0.42889565 0.32907116
000040 31 43 ec be ff ee 6c bd 04 e7 34 bf e5 6f e0 be
       -0.46145013 -0.057845112 -0.70665 -0.4383537
000050 3d 8c 13 3e 4b 46 cd be 94 a2 ba bf f6 4e d9 bd
       0.14408965 -0.40092692 -1.4580865 -0.10610764
000060 a7 14 4e be a1 0e 10 40 42 e5 dc bf d8 35 d6 c0
       -0.20125066 2.2508929 -1.7257464 -6.6940727
000070 f1 ec fd 3f 81 4c e5 be f6 3b 23 c0 12 8c c7 be
       1.9837934 -0.4478493 -2.5505347 -0.38974053
000080 28 0b 80 c0 a4 43 45 3f fb 7b 24 bf 6d a4 30 bf
       -4.001362 0.77056336 -0.6425168 -0.69000894
000090 95 94 89 3e 04 92 1f 40 5b 04 a3 bf ff 51 bc bf
       0.26871172 2.493287 -1.2735704 -1.4712523
0000a0 a2 a9 d6 bf fc de 2a c0 46 61 2a c0 1b 69 af bf
       -1.6770518 -2.66986 -2.662187 -1.3703951
0000b0 e0 f5 3d bf 87 8e fc be 76 0d b4 be 86 11 92 be
       -0.742033 -0.4932749 -0.3516652 -0.28528994
0000c0 01 b5 92 c0 19 94 dc 3f 82 1c 36 40 3b 50 29 c0
       -4.584595 1.7232696 2.84549 -2.6455219
0000d0 b4 8b a1 3d b6 78 89 3d 55 4e af 3f 37 1b 58 be
       0.078879744 0.06712477 1.369578 -0.21104132
0000e0 f8 42 61 bf 4d b5 b6 bf 3c c5 8d 3e 0f c8 57 bf
       -0.8799281 -1.4274079 0.2768954 -0.8428964
0000f0 85 fb 48 be 6f ef 0b c0 45 f8 44 3e 66 72 3c 3f
       -0.19627197 -2.1864889 0.19235332 0.7361206
000100 e7 ac b1 3f 5b 5d 12 bf 36 d3 03 3e 12 30 0a bf
       1.3880891 -0.571737 0.1287354 -0.539796
000110 ba 1c 99 bf 66 ee 2d c0 03 b1 80 bf 07 49 8b bf
       -1.1961892 -2.7176757 -1.005402 -1.0881661
000120 3b 7b 7e 3f d2 a8 ca be 7e 2f 35 c0 97 17 23 c0
       0.99406785 -0.39581925 -2.8310237 -2.5483148
000130 57 c4 b6 3f 26 4e 12 c0 e5 ca fa 3f 74 9f 15 c0
       1.4278668 -2.2860198 1.9593168 -2.3378572
000140 f8 6a 61 3e 81 9b 32 c0 b0 90 3f 3f e1 c0 29 bc
       0.22013462 -2.7907412 0.7483015 -0.010360927
000150 e0 e3 fd bf b3 da 17 c0 d9 02 91 3e 0c 95 f5 3d
       -1.9835167 -2.3727233 0.28322485 0.11991319
000160 2b c1 b2 3d 4c 50 09 3b ef 0a 42 bf cd ef 5b be
       0.0872825 0.0020952402 -0.75797933 -0.21478195
000170 d3 d4 d1 bd fe 16 65 bd e5 06 48 3e bf 32 ab 3e
       -0.10245671 -0.05593013 0.1953388 0.33437154
000180 fc d7 c0 bf e6 c5 28 c0 6d 83 70 c0 80 0d 64 40
       -1.5065913 -2.6370788 -3.7580216 3.563324
000190 0d 74 04 be 67 a9 ca 3e 07 68 98 bf 55 c7 79 bf
       -0.12934895 0.3958237 -1.1906747 -0.9756978
0001a0 b6 0f 27 40 74 ac 00 c0 60 ab c0 3e f1 61 08 c0
       2.610334 -2.0105257 0.3763075 -2.1309779
0001b0 da 85 94 be 1d ee 8e 3f 86 f6 b3 bf c2 fe ba bf
       -0.2900837 1.1166416 -1.4059608 -1.4608996
0001c0 f0 33 fd bf b2 fc 2e c0 b3 4d 0e c0 4b f9 fe bd
       -1.9781475 -2.7341733 -2.2234924 -0.124498926
0001d0 2e c0 75 bd d6 8e 9c bf 15 7d 46 bf bf a3 63 be
       -0.05999773 -1.223109 -0.7753461 -0.22230433
0001e0 d2 15 c0 3f c6 bc 17 c0 1c 69 bf 40 3e 2d 01 c1
       1.5006659 -2.3708968 5.9815807 -8.073545
0001f0 31 7b 3a 3e 08 0e aa 3f ae 46 b2 3e 20 5e ac bd
       0.18211056 1.3285532 0.3481955 -0.084163904
000200 19 22 28 bf 0d ff df bf 40 87 08 bf 93 2b db 3f
       -0.6567703 -1.749971 -0.53331375 1.7122673
000210 a8 57 a0 be 3f 06 09 c0 47 43 45 3f 91 33 41 3f
       -0.31316876 -2.1410062 0.7705578 0.7546931
000220 16 60 98 3f 71 50 ee 3f e7 2e 8e 3f 97 c8 1a 3e
       1.1904323 1.8618299 1.1108063 0.15115581
000230 a8 b4 91 3e 55 4a 60 3e 97 e5 6f bf 4b 48 d2 bf
       0.28458142 0.21903355 -0.937097 -1.6428312
000240 ae 03 dd be 6e 78 cc bf 30 b2 13 3f 5a 24 32 3d
       -0.4316687 -1.5974252 0.5769377 0.0434917
000250 85 ed 82 be b7 39 84 3d d3 e6 b9 bf 77 91 41 3f
       -0.25571838 0.06456321 -1.4523567 0.75612587
000260 c5 49 42 3f 5a 52 c4 be da 0d 80 be a6 e5 b0 be
       0.75893813 -0.3834408 -0.25010568 -0.34550208
000270 33 23 f9 be f7 e4 69 bf 82 18 82 bf 73 64 39 bf
       -0.48659667 -0.91365 -1.0163729 -0.724189
000280 34 9e 8e bf 6c 2a 81 bf 10 ec a7 bf 89 fe af bf
       -1.114203 -1.0091071 -1.3118916 -1.3749553
000290 11 c9 a9 bf ff c4 90 bf c1 b0 98 bf 00 4e 56 bf
       -1.3264486 -1.1310118 -1.1928941 -0.8371277
0002a0 52 87 75 3e c4 23 37 3f c8 f4 89 bf 68 94 0a 3f
       0.23977402 0.7153895 -1.0777826 0.541327
0002b0 f6 1b ea bd 16 d3 5f bd cf c0 64 3e 5f 3f 45 3e
       -0.114311144 -0.054644667 0.22339176 0.19262455
0002c0 96 a9 d0 3d 18 84 3f bd aa 38 21 3e 75 f3 fa 3d
       0.10188596 -0.046756834 0.15744272 0.12253467
0002d0 84 fd 52 be f2 d0 06 bf 22 b7 1d bf 6d b7 36 bf
       -0.20604521 -0.52662575 -0.61607563 -0.71373636
0002e0 27 bc 1e bf 75 38 f0 be d0 ae e5 be 83 46 39 bf
       -0.6200585 -0.46918073 -0.44859934 -0.7237322
0002f0 f9 df 4b bf 04 9e 05 bf 6d 20 28 bf 91 c6 d8 be
       -0.7963863 -0.5219424 -0.6567448 -0.42338994
000300 74 af 0f c0 b0 1f 50 c0 4d 34 ac c0 25 c5 c0 bf
       -2.2450838 -3.251934 -5.3813844 -1.5060164
000310 5c 89 15 bf 48 91 2f 3f 64 d6 a3 bf 12 c2 d3 3d
       -0.5841272 0.68581057 -1.2799802 0.1033975
000320 b9 7c 2a be f0 d6 0f bf ca bd d1 bd 06 f6 df be
       -0.1664914 -0.56187344 -0.102412775 -0.43742388
000330 58 22 cd bf 0d e2 1d bf 7a 50 4c bf 1e 53 3c bf
       -1.6026106 -0.6167305 -0.798103 -0.73564327
000340 44 6e c3 bf 4e ff 94 be 99 0b 72 c0 14 c2 7e bf
       -1.5268025 -0.29101032 -3.7819579 -0.9951489
000350 d8 45 07 40 69 e1 77 40 e3 8a 6d 3f cf 05 c1 3e
       2.113638 3.873133 0.9279005 0.37699744
000360 71 ef 0b 3e 32 13 1e c0 f4 93 61 bc 69 25 94 3e
       0.13665558 -2.4699216 -0.013768185 0.28934792
000370 ef 5b 80 be f7 33 89 3f 6e 8d 62 c0 b5 da 85 bf
       -0.2507014 1.0718983 -3.5398822 -1.0457369
000380 29 55 0c c0 4d 49 90 3f 76 d6 2e bf d4 2b 32 bf
       -2.1926978 1.127237 -0.6829599 -0.69598126
000390 32 f2 a1 3e 51 13 d0 bf c6 9d 3d c0 5c 05 3a c0
       0.31630093 -1.6255895 -2.9627547 -2.906577
0003a0 2a 9f 18 bf 24 fd 19 3f 58 a9 11 bd da e5 0e c0
       -0.59617865 0.60151887 -0.03556189 -2.232779
0003b0 77 4a 0e c0 47 e6 19 bf 53 8f 33 bf 81 5b d3 be
       -2.223295 -0.60117 -0.7014057 -0.4128075
0003c0 24 35 1d 40 e4 da dc 3f c2 ee e8 bf 7c d6 9a 3f
       2.4563684 1.72543 -1.8197863 1.2096705
0003d0 af f8 0a 40 5f 66 f6 be ea 26 8a 3f f2 0d 4b be
       2.1714284 -0.48124978 1.0793126 -0.19829538
0003e0 ab fe 9e c0 e8 d9 2f be c5 73 f7 3e 66 77 9f bc
       -4.9685874 -0.17172968 0.48330513 -0.019466113
0003f0 3d 81 10 c0 d0 21 84 c0 cb 00 d8 3d 3c 98 97 be
       -2.257888 -4.1291275 0.10547026 -0.29608333

l1.bias f4 [400]
000000 d8 43 11 bf 78 56 c3 bf 2c aa c3 3d f6 c6 d1 3e
       -0.56744146 -1.5260763 0.09553942 0.40972108
000010 b2 30 46 bf e2 77 e9 bf 9f f3 46 bf 03 8c 17 bf
       -0.77418053 -1.823971 -0.77715486 -0.59198016
000020 e3 7e 97 bf fb e1 c3 be 6a 79 9e be 1b b4 2a 3d
       -1.1835598 -0.38258347 -0.30952007 0.04167567
000030 8e e0 ac bf 42 c3 af bf d5 c1 49 bf cc 50 22 be
       -1.3506029 -1.3731463 -0.7881139 -0.15851134
000040 31 65 8b bf 49 eb 10 bf f5 ae 97 bf 75 8e 8d bf
       -1.0890256 -0.56609017 -1.1850268 -1.10591
000050 8f 01 07 bf 3c 38 12 be 7d b9 16 3f d8 13 06 3f
       -0.52736753 -0.14279264 0.5887678 0.5237403
000060 68 8d d3 bf 3f 4e a1 bf 7f 57 ec 3e 08 de b0 bf
       -1.6527529 -1.2602004 0.46160504 -1.3817759
000070 fd a4 ed be fb 45 6f be ec b9 91 bf a4 f9 69 be
       -0.4641494 -0.23366539 -1.1384864 -0.22849137
000080 61 87 89 bf 9b 1f bc be 4f 76 ac bf 21 04 4b bf
       -1.0744439 -0.36742863 -1.3473605 -0.79303175
000090 d1 41 6a bf 1d d4 bd bf aa 22 33 3e 45 19 65 be
       -0.9150668 -1.4830357 0.17493692 -0.22372921
0000a0 8b f0 16 bf 1f b9 ad bf 9b a4 ab bf b5 ed 24 bf
       -0.5896079 -1.357212 -1.3409609 -0.6442521
0000b0 c9 f3 2b bf e1 f2 6c bf 2b 25 80 bf 35 93 25 bf
       -0.6716886 -0.92558104 -1.0011343 -0.64677745
0000c0 19 71 1a bf c8 f4 ac be 40 4e 9f bf 50 d2 08 be
       -0.60328823 -0.33780503 -1.2445755 -0.13361478
0000d0 79 74 aa 3d 2b 09 12 bf 6c 86 55 be 34 db 74 be
       0.08322997 -0.5704524 -0.20852059 -0.23911744
0000e0 86 a8 6f bf 1b 41 ed bf 86 b4 de be e0 d9 59 bf
       -0.9361652 -1.8535494 -0.43497103 -0.85098076
0000f0 57 a7 26 bf 37 91 fd be 35 c2 8c bf 9d df 9b be
       -0.6509909 -0.49524853 -1.0996767 -0.3044404
000100 26 6e 08 bf c3 25 bd 3f 92 7b 3a 3f 1e 32 8c bf
       -0.53293073 1.4777149 0.72844803 -1.0952795
000110 2e 42 fe be 61 f3 09 be 97 a6 56 bd 18 98 80 3e
       -0.49659866 -0.13471748 -0.052404966 0.25116038
000120 e2 91 26 3e 21 82 42 bf 6c 09 a1 bf 6e 47 a6 be
       0.16266587 -0.7597981 -1.2581 -0.32476372
000130 3d 5c 82 bc cd fd d2 bf ff 6d 53 3e 5c bd e2 bf
       -0.015913123 -1.6483704 0.20647429 -1.7714038
000140 16 e9 39 bf 25 97 95 bf b5 df f5 be a9 c3 39 bf
       -0.72621286 -1.1686751 -0.48022237 -0.7256418
000150 ee 07 7a be 1a b7 5b bf 4d da 2c be ef 83 8a bd
       -0.24417087 -0.85826266 -0.1688015 -0.067634456
000160 79 bd e0 be 52 4f c6 bd 2c 90 14 bf 24 96 1e be
       -0.43894556 -0.09683098 -0.5803249 -0.15486962
000170 72 ae 78 bf 00 56 0b bf 50 52 83 bf ed 03 89 bf
       -0.9714118 -0.544281 -1.0259495 -1.0704323
000180 d0 31 48 3e da 67 88 bf e7 d0 7e be 05 0c 5d bf
       0.19550252 -1.0656693 -0.24884377 -0.86346465
000190 bf b0 7a 3f c4 d0 39 bf 3e 5f d5 be 7c 1b 76 be
       0.97925943 -0.72584176 -0.41674227 -0.24033922
0001a0 bc ee 41 3e 13 16 e1 bf fd 92 28 bf 21 77 13 be
       0.18938726 -1.7584862 -0.65849286 -0.14400913
0001b0 00 0d 6d 3f d9 7b 02 3f 68 dc 99 bf 3f 72 a0 bf
       0.9259796 0.50970227 -1.2020388 -1.2534865
0001c0 ab ff 93 bf fa fb 10 3f fd 54 95 bf 42 a2 b0 bf
       -1.1562399 0.56634486 -1.1666561 -1.3799517
0001d0 c7 39 87 bd ef 02 a7 be ae 4d 87 3f 11 f4 57 bf
       -0.06602817 -0.32619426 1.0570581 -0.8435679
0001e0 06 cc e9 bd b4 5b 5f bf f9 03 9c bf a3 ea 36 3f
       -0.114158675 -0.872493 -1.2188712 0.7145178
0001f0 97 38 54 bf a9 0e 2e bf dd 85 cc be e4 53 a4 be
       -0.8289885 -0.6799112 -0.3994588 -0.32095253
000200 dc c5 21 bf d9 1a b7 be 37 bd 5a bf f2 c7 e2 be
       -0.63192534 -0.3576267 -0.8544497 -0.4429317
000210 05 df 84 be f4 31 1b bf bd ea 58 3f 91 47 de bf
       -0.259514 -0.606231 0.8473318 -1.736559
000220 d5 8d 3e bf cf 9d d4 bf 09 13 c9 be 67 73 94 be
       -0.7443517 -1.6610659 -0.39272335 -0.28994295
000230 16 7c 97 bf 40 26 a6 bf 5f 9f d7 3e 6a 74 56 bf
       -1.1834743 -1.2980423 0.42113778 -0.83771384
000240 8d ae 67 3b e3 ca 9b bf 7b c4 d4 bb 5c a7 f5 bf
       0.0035351843 -1.2171291 -0.006493149 -1.9191699
000250 a3 5b 9f be 4d 90 8f 3f 0c 5c 0b bf 0a 22 c7 be
       -0.311246 1.1215912 -0.5443733 -0.38893157
000260 3d 5e 95 bf 68 4c b7 3e 8a 6a cd bb 3b 61 08 bf
       -1.1669384 0.3580048 -0.006268804 -0.5327336
000270 e0 30 14 bf 9e ea 9f bf a7 98 3d be be 61 b8 bd
       -0.5788708 -1.2493474 -0.18515263 -0.09003018
000280 ff 4a 05 c0 bc b5 2d be 03 a2 ba bf 70 7a 12 bf
       -2.0827024 -0.16963857 -1.4580692 -0.57218075
000290 d8 20 c8 be aa 31 37 3f f7 60 02 bf 70 9f 3e be
       -0.39087558 0.71560156 -0.50929207 -0.18615508
0002a0 25 ec 1b 3f 8b 32 ac bf 7d c7 84 bf dc 7f 7f bf
       0.609072 -1.3452924 -1.0373379 -0.9980447
0002b0 7b d3 08 be 25 49 62 bf 7d 72 dd 3e be bf ed 3e
       -0.13361923 -0.8839286 0.4325141 0.4643535
0002c0 2a 74 87 bf e8 71 94 be 9d 86 2c be f8 5a cc be
       -1.0582325 -0.28993154 -0.16848226 -0.39913154
0002d0 fd 91 28 3e 4b 58 37 bf ff 4a 2e bf 8b 9d 6c bf
       0.1646194 -0.716191 -0.68083185 -0.9242789
0002e0 e5 3c 8b bd 56 76 ac 3f 0f 09 9b bf 19 1c 52 bf
       -0.06798724 1.3473613 -1.211214 -0.82074124
0002f0 aa 71 6c bf ca 63 12 3f bc 41 7e bf 63 60 c9 be
       -0.9236094 0.57183516 -0.9931905 -0.3933135
000300 3f 14 53 bf 2e 89 c9 be 62 01 9e be 15 39 82 bf
       -0.8245277 -0.39362472 -0.3086043 -1.017367
000310 d1 09 e5 be fd dc 73 bf 40 7f 94 bf 7a 37 44 bf
       -0.44734052 -0.95259076 -1.1601334 -0.7664715
000320 84 44 94 be 41 ac 79 bf 9e 55 b1 bf f6 ee 8b bf
       -0.28958523 -0.97528464 -1.3854253 -1.09323
000330 d5 c0 4f bf 13 1a e5 bd f1 36 39 bd 02 be a6 bf
       -0.81153613 -0.11186614 -0.04521841 -1.3026736
000340 51 4f 7e bf 26 fa fd be 28 cc d9 be 0f 05 18 bf
       -0.9933978 -0.4960491 -0.4253857 -0.5938272
000350 50 31 80 3e 1c 06 67 bf cd a8 11 bf 73 a6 ae be
       0.25037622 -0.902437 -0.56898195 -0.34111366
000360 8d 86 74 bd 77 be fb be ef b7 03 bf 50 ed 14 3f
       -0.05969863 -0.4916875 -0.51452535 0.5817461
000370 8a 48 a5 be 82 08 a0 bf 2e b1 58 bf f3 29 44 be
       -0.32281905 -1.2502596 -0.84645355 -0.19156627
000380 d4 41 2a bf e4 fa 79 bf 12 de 3f bf 46 df b4 bf
       -0.66506696 -0.97648454 -0.7494823 -1.4130638
000390 35 3f a5 bd d0 86 bb be 5d d7 54 be 08 a6 9a be
       -0.080686964 -0.3662629 -0.2078528 -0.30204797
0003a0 6c 48 a2 be 57 49 3e bf a2 04 bf be 62 39 73 bf
       -0.31695879 -0.7433066 -0.37308222 -0.95009434
0003b0 11 be 9c bf 3b 23 68 bf 5d 74 12 bf 6d 7a 97 bf
       -1.2245504 -0.9067876 -0.57208806 -1.1834236
0003c0 9d f5 03 3e 53 0f 37 be d4 44 1e bf 98 f7 e6 3e
       0.12886663 -0.1787694 -0.61823773 0.45110774
0003d0 b1 0c d4 be 60 6a 3a be 4a 6c 37 bf 84 70 4e bf
       -0.41415933 -0.18204641 -0.7164961 -0.80640435
0003e0 b4 8f 54 bf 1d c3 0a bc 2e 68 0d bf 59 cf 11 bf
       -0.83031774 -0.00846937 -0.5523709 -0.5695701
0003f0 84 10 4b 3e 07 3e 3d be 08 d3 7d bf be 59 16 3c
       0.19830519 -0.18480693 -0.99150133 0.00917667

l2.weight f4 [300, 400]
000000 06 88 b0 bf 31 ee 2d bf 98 2b 9f bf aa dd 4b bf
       -1.3791511 -0.67941576 -1.2435179 -0.7963511
000010 8a ae 94 3e 6c ec b4 be cf 3c 09 bd 65 6f 41 3e
       0.29039413 -0.35336626 -0.033505257 0.1889015
000020 47 5c 5a be de b6 88 be d8 55 32 bf dd 0e 38 3e
       -0.21324264 -0.26702017 -0.6966224 0.1797442
000030 ae a5 18 3e 72 b0 0b 3e d5 9f c5 bd f2 cc 62 bf
       0.14906952 0.13641527 -0.09649626 -0.8859397
000040 d0 52 29 bf 76 bf 0b bf bc 40 c2 3f 62 13 0d bd
       -0.66141987 -0.5458902 1.5176005 -0.034442313
000050 65 d0 8e 3e 0c 53 e4 be a4 d7 0e be 9d 78 ce bf
       0.27893367 -0.4459461 -0.13949448 -1.6130558
000060 56 16 83 be d5 e8 02 bd 1b 4c be be e3 f4 66 3f
       -0.25602978 -0.031960327 -0.3716744 0.9021742
000070 41 89 c0 be e0 29 fb be c4 76 94 bf 42 38 f5 3a
       -0.37604716 -0.49055386 -1.1598744 0.0018708783
000080 03 8f 79 bf 12 46 fa bf 4f 44 e1 3e e9 7c 25 3e
       -0.97483844 -1.9552634 0.43997428 0.1616093
000090 bb 77 d6 3d f5 91 17 3e f4 98 cd be 2b d2 a8 3d
       0.104720555 0.14801772 -0.40155756 0.08243211
0000a0 ce ff e7 be c9 07 08 3f 08 06 36 c0 e2 6a 1d bd
       -0.4531235 0.5313688 -2.844118 -0.03843201
0000b0 85 91 24 3d 6a ce 05 bf d5 c6 3e bf cd 98 69 bf
       0.04017784 -0.5226809 -0.74522144 -0.9124878
0000c0 72 fb 83 be b3 f7 0c bf bb 18 7e 3d 88 fe 28 3e
       -0.25777775 -0.5506546 0.062035304 0.16503346
0000d0 ca 43 1c bf c4 f1 c6 bd 12 34 00 bd 3d 32 cb bf
       -0.6104094 -0.09714082 -0.031299658 -1.5874707
0000e0 8d cd 20 bf 54 84 c2 be f2 9f d2 3c c0 67 af be
       -0.62813646 -0.37991583 0.025711033 -0.34258842
0000f0 a0 4b 53 be dd b2 ac be a4 a6 08 3e 65 88 48 bf
       -0.20634317 -0.33730212 0.13344818 -0.7833312
000100 19 78 1c bf a5 3a 8f be f5 40 df bd e3 32 77 3e
       -0.61120754 -0.2797443 -0.109010614 0.24140505
000110 1c a3 b1 be 1e 30 8e bf bd 02 21 3f 8b 76 43 bf
       -0.34694755 -1.1108434 0.62894803 -0.7635276
000120 da 49 32 bf bf 06 b7 bf 74 b5 d5 be 4d 5e 7c bc
       -0.6964394 -1.4298934 -0.4174 -0.015403342
000130 6f 66 0e bf 56 28 6f be c4 b4 d6 bd 9c 7c 27 bf
       -0.5562505 -0.2335523 -0.10483697 -0.65424514
000140 fe 89 8a bf 28 59 21 bf 7b 6a 0a 3e 37 59 c3 be
       -1.0823362 -0.63026667 0.13517182 -0.38154003
000150 67 0a 6f bf 50 07 b7 3c 1a 1e 1a bf db 75 fb 3d
       -0.9337525 0.022342354 -0.6020218 0.122783385
000160 ba 46 b0 3e de 51 a3 bf 70 47 c1 3e fe c0 37 bf
       0.3442896 -1.2759359 0.37749815 -0.7177886
000170 84 e9 c6 be 50 01 e2 be 5e 16 27 3f 1f bf b2 bf
       -0.38850033 -0.44141626 0.65268505 -1.3964576
000180 06 2b 02 be 9b e4 b8 be a0 5e ab bc 29 f6 01 bf
       -0.12711725 -0.36111912 -0.020919144 -0.50766236
000190 e1 38 09 be a3 7d d6 3d e7 8e bb be 3d 91 a2 bd
       -0.13400604 0.10473182 -0.36632463 -0.07937858
0001a0 75 e2 d6 be 9c 0b bd be 7a 49 da 3e 1b 87 d9 3e
       -0.41969648 -0.3692292 0.42634183 0.4248589
0001b0 e6 6e e4 bf 23 54 a8 bf 85 d2 4f be 58 f8 40 3d
       -1.7846344 -1.3150676 -0.2029515 0.04711184
0001c0 82 87 9b 3e 50 23 bc be 36 90 89 be 01 29 71 3f
       0.30376822 -0.3674569 -0.26867837 0.9420319
0001d0 ae df 9e be fa 1b 2b 3d 95 09 62 be 6b 4b 50 bf
       -0.3103003 0.041774727 -0.22073968 -0.8136508
0001e0 74 06 1c 3f d2 9e d9 3d ad 68 a2 bf 89 54 43 be
       0.60947347 0.10625996 -1.2688195 -0.19075216
0001f0 39 37 2f 3e e3 67 1d 3f a0 36 e9 be e9 94 86 bc
       0.1711091 0.61486644 -0.45549488 -0.016428428
000200 f3 15 0e 3e 8a ff ad bd 77 aa 26 bf d5 19 83 be
       0.1387556 -0.08496006 -0.6510386 -0.25605646
000210 f6 6c 99 bf 49 90 8e bf 54 ab e6 bd 34 86 a0 bf
       -1.1986377 -1.1137782 -0.11263147 -1.2540956
000220 16 2c c3 3e a1 0f e7 be 1d 80 18 be 59 59 db bd
       0.38119572 -0.4512911 -0.14892621 -0.10710401
000230 0a 81 2e 3e d1 46 09 c0 e4 f4 b9 be e8 73 26 bf
       0.17041412 -2.1449473 -0.3631965 -0.6502061
000240 b3 91 6a bd dc 2f 8d bf 6c 02 b2 3f 6b 92 32 be
       -0.057267856 -1.103023 1.3906989 -0.17438667
000250 e3 f5 e6 be 3d 51 eb bf 63 94 b9 3d d3 27 45 3a
       -0.45109472 -1.8384167 0.09061506 0.0007520888
000260 54 91 66 bc af df 78 bf 67 32 02 3d 71 59 f4 be
       -0.014072735 -0.97216314 0.03178635 -0.47724488
000270 90 8c 7e bf e6 4e c0 3e 9d a6 07 bd dd 88 e3 be
       -0.9943323 0.37560195 -0.03311788 -0.44440356
000280 67 b8 05 c0 b1 50 18 3e 4d c2 8d bd 2e ca 27 bf
       -2.08938 0.14874531 -0.069218256 -0.65542877
000290 fe 17 63 bf 15 cb 69 be 0f 62 c2 bf e1 5d 39 3c
       -0.88708484 -0.22831376 -1.5186175 0.011313886
0002a0 7b 86 02 3f bb 5c 56 bf 19 38 bc 3e f8 b5 99 bf
       0.5098645 -0.83735245 0.3676155 -1.2008657
0002b0 a8 0c b9 bd 5a f6 9a bf 67 3b 00 bf bb ad 4e bf
       -0.09035617 -1.210643 -0.5009064 -0.8073384
0002c0 d1 1d 42 c0 45 7c 2b bf fd b1 3c bc f3 70 9f be
       -3.0330698 -0.66986495 -0.011517045 -0.3114086
0002d0 3f cb 9e 3d c1 d0 55 bd f6 d1 08 3f ca e5 09 3f
       0.0775361 -0.052201036 0.53445375 0.53866255
0002e0 be 19 a4 3c dc 4b 1d be 92 bf f1 bd aa 5d fd bd
       0.020031806 -0.1536097 -0.11804117 -0.123713806
0002f0 c4 d9 04 bf 96 32 10 c0 3d 26 20 be a8 29 cc 3e
       -0.51894784 -2.2530875 -0.15639587 0.3987553
000300 6a 2d 43 3e e0 87 c5 bf 87 d0 a6 3d 5d 7c 7d be
       0.19060293 -1.5432091 0.08145242 -0.24754472
000310 f6 5b 06 c0 1a cf cf be 3b 08 6b bf c9 55 5c bf
       -2.0993629 -0.40587693 -0.91809434 -0.860684
000320 a4 75 2c c0 56 48 14 3f 4c 54 6d be 65 e8 05 bf
       -2.6946802 0.57922876 -0.23176688 -0.5230773
000330 d1 93 12 bf 7d 22 0b c0 3b e8 15 bd 93 26 f0 3d
       -0.572568 -2.17398 -0.036598425 0.117261074
000340 4f c8 83 bf cf 35 79 bf 24 df ee be eb ee e1 3e
       -1.0295504 -0.9734773 -0.46654618 0.44127592
000350 fd 08 b2 bf b2 cd bd be fc 54 c0 be 62 a5 5c bf
       -1.3908993 -0.37070996 -0.37564838 -0.86189854
000360 bc a1 61 be 1f 91 1b 3f b6 85 40 3f 0d d0 ec bf
       -0.22034353 0.6076831 0.75204027 -1.8500992
000370 a2 18 b0 be 3d 60 75 bf 00 5a 0b bf bd 9e b4 be
       -0.34393793 -0.9584997 -0.54434204 -0.35277358
000380 5f 24 af be 96 1b d7 be ba 41 14 3c 2b ef 94 bd
       -0.34207436 -0.42013234 0.009048874 -0.0727218
000390 b9 11 b9 be 58 43 99 3b 2f 70 3a 3e eb b3 6e bd
       -0.36146334 0.0046772175 0.18206857 -0.058277052
0003a0 7d 61 ac 3b 69 d0 30 bf cd c0 6f bf 6d 43 85 bf
       0.005260645 -0.6906801 -0.93653566 -1.0411202
0003b0 8f 1e 51 3e 8a f8 a5 be b9 6e 09 3e 69 69 39 be
       0.20421813 -0.32416183 0.13421144 -0.18106617
0003c0 51 e7 8f bf 44 84 d0 3d 76 0b a2 bf 45 98 09 bf
       -1.1242467 0.10181478 -1.2659748 -0.5374797
0003d0 e6 15 64 bf 93 ae 36 3b 9a cc 97 3f 92 f5 b2 bf
       -0.89095914 0.002787505 1.1859314 -1.3981192
0003e0 44 db f0 be 48 93 6d bf 95 74 9e bd 9d ae 64 bf
       -0.47042286 -0.9280286 -0.0773708 -0.8932894
0003f0 c4 0c 45 bf 43 f6 8d 3d 1f 6d 3d bf f1 42 9a be
       -0.76972604 0.06931736 -0.7399463 -0.30129197

l2.bias f4 [300]
000000 99 2e dd be ad c9 09 c0 40 05 70 c0 95 8b e9 be
       -0.43199614 -2.1529343 -3.7503204 -0.45614305
000010 25 56 a5 bd 69 b0 8c bf 8c 14 42 bf 31 a1 0c be
       -0.080730714 -1.0991336 -0.758126 -0.13733365
000020 3f c8 1e bf 17 93 5d be 9f 4d 3e bf ba c6 08 be
       -0.620243 -0.21638142 -0.7433719 -0.13357058
000030 19 d7 79 bd a3 ac 0a be 75 57 ff bf 24 27 64 bf
       -0.06099615 -0.13542418 -1.9948565 -0.89122224
000040 75 13 94 bf ca e8 db bd 96 58 5c bf cb 8a 39 be
       -1.1568438 -0.1073776 -0.8607267 -0.18119352
000050 72 ae 0c be 61 bb 82 bf e7 f2 ba bf 25 40 f5 bd
       -0.1373842 -1.0213434 -1.4605378 -0.11975125
000060 33 1b 4f 3f 82 5c 2b be b4 49 fb bf 7c fa 5e bf
       0.8090088 -0.16734508 -1.9631867 -0.8710096
000070 da 73 1c be 3a 49 13 c0 82 b7 0a be c4 ba d6 bd
       -0.15278569 -2.3013444 -0.13546565 -0.104848415
000080 ad c4 9c bf d7 5b e4 bf 4f b4 e1 be 76 ad 94 be
       -1.2247521 -1.7840527 -0.44082877 -0.2903859
000090 0b cc 12 be 5a fc e9 bd f1 dc fa bd 0d dc 20 c0
       -0.14335649 -0.11425085 -0.122491725 -2.5134308
0000a0 a3 34 39 bd 9a d0 90 bf 33 fc 4a bf 05 11 04 c0
       -0.045216214 -1.131366 -0.79291075 -2.0635388
0000b0 05 fd 0d bf 97 07 09 c0 42 a8 17 bf 56 d9 63 bd
       -0.554642 -2.1410882 -0.59241116 -0.05562719
0000c0 b5 78 01 40 76 bb ab bf 98 61 70 bf 60 27 22 be
       2.0229924 -1.3416584 -0.93898916 -0.15835333
0000d0 b0 82 b4 bd 12 8b 8f bf 6f 70 80 3d 15 83 8c bf
       -0.08813989 -1.1214316 0.06271445 -1.0977503
0000e0 3e 22 6c 3e ad 42 30 bf c5 13 0d 3f 85 7c 3b be
       0.23059937 -0.6885174 0.5510829 -0.18309219
0000f0 65 d6 f7 bf ac 35 14 be 79 43 8c bf 81 a2 0f bf
       -1.9362303 -0.14473599 -1.0958091 -0.56107336
000100 7f ea 7e bf 61 70 87 bf 52 cd f8 bf 55 c1 ad bf
       -0.9957656 -1.058117 -1.9437659 -1.3574625
000110 62 82 b8 bd a7 1e 89 bd 78 f6 f3 be da 53 0c be
       -0.090092435 -0.066952996 -0.47648978 -0.13703862
000120 82 29 22 be 04 dd 5a bf 7c 2f 9f bf 6c d6 c5 be
       -0.15836146 -0.85493493 -1.2436366 -0.38640153
000130 ac dd cb bf 2c 4d 08 be e8 0e 4d c0 79 dc 04 c0
       -1.5927024 -0.13310689 -3.2040348 -2.0759566
000140 2b 5d 9f bf fc d6 d8 bf d6 9a f0 bf 22 67 d2 ba
       -1.2450308 -1.6940608 -1.8797252 -0.0016052464
000150 80 90 d5 bf c7 34 20 be 95 ba e7 bf 20 74 3d be
       -1.6684723 -0.15645133 -1.8103815 -0.1850133
000160 be f1 f6 be 24 7b 47 be 8c 72 2d be e3 12 4e bf
       -0.4823131 -0.19480568 -0.16938227 -0.8049757
000170 14 c0 12 be fd b3 7c bf cc 94 d6 bd 32 01 1b be
       -0.14331084 -0.9871214 -0.104775995 -0.15137175
000180 06 47 0d be 1e 11 16 bf 13 68 b4 bf 2f 2c 00 be
       -0.13796625 -0.5861987 -1.4094261 -0.12516855
000190 e0 bf 0b be 8d b4 0e c0 b7 3a 1b be d9 6e 05 bf
       -0.13647413 -2.22977 -0.15159117 -0.52122265
0001a0 d1 6e c7 bf 01 7a 1a bf 49 6b d3 3d 32 ab d6 bf
       -1.5580693 -0.60342413 0.103231974 -1.6770995
0001b0 d3 8f 02 c0 1f 11 bf bd ff d4 0a be e9 72 70 bf
       -2.0400283 -0.093294375 -0.13557814 -0.9392534
0001c0 1f 5f 93 bf 61 cf 12 bf 94 5b 20 be da d1 c7 bf
       -1.1513404 -0.57347685 -0.15659934 -1.5610917
0001d0 55 8b 2b be f3 f1 50 bf be 15 c2 bd d7 3b 1f bf
       -0.1675237 -0.81619185 -0.09476803 -0.62200683
0001e0 b7 c5 a6 bf fe 28 33 be 7b 15 0d bf 2b 1c 0d c0
       -1.3029088 -0.17496106 -0.551109 -2.2048442
0001f0 b2 46 8c be 60 e8 8e bf fd a5 ab bd d3 ce d6 bf
       -0.27397686 -1.1164665 -0.08381269 -1.6781868
000200 4b aa 8e bf 6e a4 f4 bd 04 b9 31 c0 d6 4e 11 be
       -1.1145719 -0.11945425 -2.7769175 -0.1419023
000210 4f 97 84 bd 7f 33 40 bf 55 e4 c6 bf b7 72 07 be
       -0.06474172 -0.75078577 -1.5538431 -0.13227354
000220 cc 4a 5e bf fe d0 c2 bd 3a 80 cb be 51 6e 3d bf
       -0.8683288 -0.09512518 -0.39746267 -0.73996454
000230 50 18 b6 3c fb 6f ce bf 25 d8 99 bd 39 ef 9f bd
       0.02222839 -1.6127924 -0.075119294 -0.078093
000240 a8 6b da bf 65 37 87 bf c9 b2 7d bd 9e 44 a6 bd
       -1.7064104 -1.056378 -0.06193808 -0.081185564
000250 f9 e4 d6 bf 1d d8 f2 bd 87 2f 00 bf b5 bd d3 bd
       -1.6788627 -0.118576266 -0.5007252 -0.10338918
000260 b7 e6 a1 be 24 6a 20 c0 09 5a 95 bd f9 2a 6a bf
       -0.31621334 -2.5064783 -0.072925635 -0.9147182
000270 11 61 fb be 4d 69 d2 3d 78 01 3f bf 19 8b 0a be
       -0.49097493 0.10273991 -0.74611616 -0.13529624
000280 93 19 47 c0 a5 81 53 bd 35 2b 56 bf 47 4d c4 bd
       -3.110936 -0.05163731 -0.8365968 -0.09585052
000290 6c b7 05 3f ee a8 10 c0 c8 cf a5 be ec 73 8c bf
       0.52233005 -2.2603106 -0.32385087 -1.0972877
0002a0 6e 64 2e 3f 0f 1a 32 be a6 fc 0d be e6 31 9f bd
       0.68121994 -0.17392753 -0.13865909 -0.07773189
0002b0 51 9a a8 bf 51 23 66 bf d2 44 42 bf d3 c4 a0 bf
       -1.3172094 -0.8989764 -0.7588626 -1.2560066
0002c0 16 14 8b be a7 13 84 bf a2 1c 47 be bf ee 3f bf
       -0.27163762 -1.0318497 -0.19444516 -0.7497367
0002d0 bd 51 6c bf b4 78 d6 3d 2f 38 34 bf 15 79 9a bd
       -0.9231222 0.10472241 -0.7039823 -0.07542626
0002e0 b3 90 16 be 30 29 72 bf 29 fa df bd 79 f1 02 be
       -0.14703636 -0.945941 -0.10936386 -0.12787427
0002f0 a1 ce 53 bf df 32 c2 bd 66 90 80 bf 07 35 17 3f
       -0.82737166 -0.09482359 -1.0044067 0.5906529
000300 c5 56 7d bd 5d a5 a3 bf 85 91 13 be 5c 9f 0b be
       -0.061850328 -1.278484 -0.1441098 -0.1363501
000310 d7 a0 8d 3f e0 41 19 be 33 0d 1f bf c5 80 0b be
       1.106471 -0.14966536 -0.62129515 -0.1362334
000320 14 d9 00 c0 d4 c0 25 bf 51 35 06 c0 11 f3 c3 be
       -2.0132494 -0.6474736 -2.0970042 -0.38271382
000330 5c df 4d be a2 34 ed bf 45 90 78 bd c9 82 81 bd
       -0.20104736 -1.8531687 -0.06068446 -0.063237734
000340 08 de 0f c0 21 81 bf 3e 86 06 f0 be 68 b4 ad bd
       -2.2479267 0.37403205 -0.46879977 -0.084816754
000350 50 2b 0e c0 f3 ff 5f be 41 b3 ad bd ff f7 68 bf
       -2.2213936 -0.2187498 -0.084814556 -0.9100341
000360 57 78 09 be 26 fd ad bd fd 14 cb bf 1d 87 0d c0
       -0.13424812 -0.0849555 -1.586578 -2.2113717
000370 40 71 92 bf 1c dd 3c be b5 ea 02 bf 65 57 b4 bf
       -1.1440811 -0.18443722 -0.51139385 -1.4089171
000380 0a bb a3 bd 85 bb ae bf 03 35 8b be 30 59 da be
       -0.07994659 -1.3650976 -0.27188882 -0.4264617
000390 21 cf 05 bf 1e d6 51 bf a6 29 02 be 82 31 98 3e
       -0.5226918 -0.8196734 -0.127112 0.2972527
0003a0 1e 45 4b bf 81 00 7f bd 92 1c 63 3d a3 ee 4c be
       -0.7940234 -0.06225634 0.05544717 -0.20012908
0003b0 65 f7 10 be ba 3c f5 bf 9b 17 2d c0 ce 27 35 be
       -0.14156874 -1.9159157 -2.7045658 -0.17690966
0003c0 74 7b 3a c0 b6 42 b8 bf 1a 51 10 be 4c 5e 01 bf
       -2.913785 -1.4395359 -0.14093438 -0.5053451
0003d0 cb ea a5 bf fb d2 95 bf 31 3f 61 be d3 e7 ea bd
       -1.2962278 -1.1705011 -0.21996762 -0.11469998
0003e0 86 9f 2d c0 06 05 01 be da 6b 8a be 4a 3b 19 be
       -2.7128615 -0.12599573 -0.2703541 -0.14964023
0003f0 d2 13 19 c0 c7 78 de bf e4 f5 0e bf 3d 74 f2 bd
       -2.3918347 -1.7380608 -0.5584395 -0.11838577

l3.weight f4 [4, 300]
000000 ff 66 28 40 8d 2e 0f bf 88 05 ad 3d 6d 2c a2 bf
       2.6312864 -0.55930406 0.084483206 -1.2669808
000010 41 3d 39 3d cf be cd bf 9c 60 21 3e f8 66 bf bc
       0.045224432 -1.6073855 0.1575951 -0.023364529
000020 eb 09 3c bf 0e cd b7 bb 18 5b 1c bf 5e 00 e5 3d
       -0.73452634 -0.005609161 -0.610765 0.11181711
000030 06 59 11 bc 95 93 3a bc ef 10 e9 3e 51 4c 17 bf
       -0.0088713225 -0.011387725 0.45520732 -0.59100825
000040 1a 5e 8e 3b db 67 67 3c c8 30 c4 bf 62 43 8f bf
       0.004344714 0.014123882 -1.5327387 -1.1192439
000050 d6 96 92 bc 76 22 e3 be cf b4 b2 be 88 c6 39 3b
       -0.01789419 -0.4436223 -0.3490357 0.0028347094
000060 3d 79 0e be 6d d8 3a be 02 10 49 c0 8d d8 49 be
       -0.13913436 -0.18246622 -3.141602 -0.19711514
000070 30 18 6e 3b 91 f4 1e bf 2c 34 b6 bd c1 a9 6d 3d
       0.0036330335 -0.6209193 -0.0889667 0.058023218
000080 95 46 46 bf 2c b2 1e 3f 74 44 3b bf e1 ad 93 3e
       -0.7745145 0.6199062 -0.73151326 0.28843597
000090 9f ff 42 bd d7 1f fa 3c 13 24 42 3c 8e 4d 05 be
       -0.04760706 0.03053276 0.011849421 -0.13017866
0000a0 23 96 05 bc 43 64 66 3e a0 c5 b2 bf 34 27 6d c0
       -0.008153471 0.22499184 -1.396656 -3.7055178
0000b0 db d1 52 3e b3 55 1d 3d 79 51 15 bc b4 9e cd 3c
       0.20587866 0.038411807 -0.009113663 0.02510009
0000c0 21 6f 63 bd 19 43 04 be d6 73 0d be 8c e9 35 3d
       -0.055525903 -0.1291622 -0.13813719 0.04441218
0000d0 f6 27 83 3b 05 e8 1f bf 5f 74 be 3e 7a 3e ea 3e
       0.0040025664 -0.6246341 0.3719816 0.4575079
0000e0 ad 98 d2 be 89 5f e1 3e 2e 06 d2 bb 7a 27 59 bd
       -0.41132107 0.440182 -0.006409428 -0.053016163
0000f0 e4 94 9c 3c 2f 9a 51 bc 13 f7 90 3e ed 98 7f bf
       0.019113965 -0.012793108 0.28313503 -0.9984272
000100 fe 41 01 bf fe f6 3d 3f fe e8 dc ba 0c 98 60 be
       -0.5049132 0.74205005 -0.0016854105 -0.21933001
000110 f1 47 5f 3d a5 65 41 bd 4e 83 20 bf cb ef 73 bd
       0.054511968 -0.047216076 -0.62700355 -0.059554856
000120 1b 37 6a bd 00 bb a2 bf 87 d9 c3 bd 10 fe d1 bd
       -0.05718146 -1.2713318 -0.095629744 -0.10253537
000130 18 46 36 bf c2 05 d5 3b c6 7b 6a c0 a8 2d a8 3e
       -0.71200705 0.0065009305 -3.6638045 0.32847333
000140 6b e4 f7 be a0 17 11 c0 c2 38 16 bf f8 13 2c 3f
       -0.48416457 -2.267067 -0.58680356 0.6721797
000150 51 53 6d 3e ae 4f 42 bd 8c 87 67 bd 18 00 9a bb
       0.23176314 -0.04743927 -0.056525752 -0.004699718
000160 9d 0e 48 bd 5c 01 a6 3e d2 c9 42 bb b1 55 a1 bf
       -0.04884206 0.32422912 -0.0029722345 -1.2604276
000170 c0 8d c0 bc 0e 03 1a be 75 8b 9f 3b e8 00 85 3d
       -0.023505092 -0.15040228 0.0048689195 0.064943135
000180 62 34 82 bc 2f 84 92 3e 8c 46 1f 3f d8 b7 fd bc
       -0.015894119 0.28616473 0.6221702 -0.030971453
000190 91 83 85 bc d5 6b 3b c0 52 3e aa bc 17 27 3d bf
       -0.016298087 -2.9284565 -0.02078167 -0.7388777
0001a0 46 02 d0 3e 4d b2 2a 3e 4f 1a bf be 31 b8 20 3f
       0.40626734 0.16669579 -0.3732476 0.62781054
0001b0 db c2 24 be 9a a6 48 bd f2 32 27 3c 79 9a b2 3f
       -0.16089956 -0.04898701 0.010205017 1.3953391
0001c0 7e 6a 23 bf 85 a9 6e bf b8 dc e0 3c d4 09 7a 3f
       -0.6383437 -0.93227416 0.027448997 0.97671247
0001d0 52 e2 8a 3d 76 fe 04 bf dc 3d 7c bd d8 1f f4 be
       0.067814484 -0.51950777 -0.06158243 -0.47680545
0001e0 31 2b 7e bf 82 ab 6b be 10 05 c1 3f ad 42 78 bf
       -0.99284655 -0.23014644 1.507967 -0.9697674
0001f0 d6 57 83 3e 6f d6 d2 3d 73 20 19 bd b0 60 b5 3d
       0.2565295 0.10294806 -0.03738446 0.08856332
000200 09 52 a9 bf 0f 0f 8e 3c 82 87 d9 be 34 08 6c 3c
       -1.322816 0.017341165 -0.42486197 0.014406253
000210 75 84 37 3f 25 26 c1 3f 85 5a 38 bd 48 75 3e bd
       0.7168649 1.5089766 -0.0450082 -0.046498567
000220 31 36 d4 3d d3 84 7a bd f3 18 c6 be 36 0e 96 3c
       0.10361899 -0.061161827 -0.3869091 0.018317323
000230 0d e3 31 3e 6e ac a7 3e d4 b7 5d 3d 3c 21 32 bd
       0.17371769 0.3274874 0.05413039 -0.043488726
000240 42 17 59 bc 56 38 5f 3e 80 f4 cf be 69 46 e7 bc
       -0.013250174 0.21798834 -0.40616226 -0.028231816
000250 90 e8 ac 3d 24 b2 c3 3b 0d 56 af 3e 86 42 ed 3d
       0.08442795 0.0059721638 0.3424534 0.11584954
000260 1e 3f a5 3b 97 1e 90 bf b1 54 45 3d 74 2d 1d bf
       0.0050429245 -1.1259335 0.04817647 -0.6139748
000270 12 e6 84 3f eb a9 9e 3e 62 42 89 be b0 ab ed bd
       1.0382712 0.30989012 -0.2680846 -0.116050124
000280 37 64 9e bf 63 56 3d 3d d5 45 a2 be 19 7f 69 3d
       -1.2374333 0.046224963 -0.31693903 0.057005975
000290 b1 85 74 be cd 8c 27 bf 95 a6 32 3e 99 f8 98 3e
       -0.23879124 -0.6544922 0.17446359 0.29877165
0002a0 e3 92 c4 bc 8a bb d2 bd 1e 12 af 3c e5 b8 b9 3c
       -0.023995822 -0.102896765 0.021370944 0.022671172
0002b0 dd 92 01 3e fd 7b 26 be 5a c8 9a 3d e5 0a 1d bf
       0.1265368 -0.16258235 0.07557745 -0.6134475
0002c0 95 53 03 3d 68 51 4e 3f 44 34 65 3d 7a a3 c5 be
       0.032062132 0.80592966 0.055958048 -0.38601285
0002d0 fe 43 4a bd 8b 3d d9 3e 2f 9e f5 3d c0 ad 9c 3d
       -0.04938125 0.42429766 0.11993062 0.07650328
0002e0 9e b2 93 3b 3c 5a ae be 7e 97 41 bc cc 7a a1 3b
       0.004507377 -0.34053218 -0.011815904 0.0049279686
0002f0 33 b6 33 be a6 31 ab bd 8e 74 71 be 60 de 8b be
       -0.17549972 -0.08359079 -0.23579618 -0.27318096
000300 51 d1 46 3d a0 5e 9e be dd a7 82 bc cc bd 99 3d
       0.048539463 -0.30931568 -0.015949184 0.07506904
000310 2b 78 41 be 5d c9 95 3d 25 4a e1 3e 2f 16 a8 3a
       -0.18893497 0.073137976 0.4400188 0.0012823994
000320 f9 21 27 3d 58 ac 68 bf 56 5e 45 3e c4 ad 1c 3f
       0.040803883 -0.90887976 0.19274268 0.61202645
000330 ac 42 1a c0 79 41 b1 3e 9c 39 2e 3d bd 63 45 3d
       -2.4103193 0.34620264 0.04253541 0.04819082
000340 eb 60 ce 3d d6 84 95 bd 1a 8a 95 3f 72 74 99 bc
       0.100770794 -0.07300727 1.168277 -0.018732283
000350 0f 9e 7b 3e 67 5e 48 be 9f 44 b0 3d cd c7 26 3e
       0.24572013 -0.19567262 0.086068384 0.16287155
000360 d8 50 1c c0 09 69 d3 bb ab 09 9e 3e eb 64 84 be
       -2.4424343 -0.00645173 0.3086675 -0.25858244
000370 dd 2a e9 be 45 01 07 3d f9 e6 ca 3e 09 14 9c be
       -0.45540515 0.032960195 0.39629343 -0.30484036
000380 3e 88 17 bc d2 87 78 3d 4f 6f 6f 40 6c 40 f8 3d
       -0.009248791 0.060676403 3.7411687 0.121216625
000390 35 93 a4 c0 0a 66 12 c0 48 4e cd 3c f7 4d 02 bd
       -5.1429696 -2.287478 0.025061741 -0.031812634
0003a0 cd 29 ff 3e 65 19 11 bb 23 91 ad bd 36 00 35 3a
       0.4983658 -0.002214038 -0.08474948 0.00069046335
0003b0 ae 87 8a bc 25 65 29 40 e9 6c 21 be 9c 50 92 bb
       -0.0169104 2.6467984 -0.15764202 -0.004465176
0003c0 77 01 88 bc 49 0c de be 25 29 01 3d b9 56 2e be
       -0.016602261 -0.43368748 0.03153338 -0.1702527
0003d0 f6 08 2b 3f 88 14 b5 3e 6e 0d ab 3d 21 9d 1a 3d
       0.6681055 0.35367227 0.08352171 0.037747506
0003e0 85 93 5f 3c c5 0f 9a 3c a7 d2 1e 3e e1 5c f1 bc
       0.013646011 0.018806348 0.15510045 -0.029463233
0003f0 bc a9 7d bf 64 3a aa 3e 98 56 44 bf 95 b1 b6 bc
       -0.9908712 0.33247674 -0.7669463 -0.022301475

l3.bias f4 [4]
000000 61 d9 98 3c 82 3a eb bc a1 95 77 be 90 a7 f0 bd
       0.018658342 -0.028714422 -0.24178173 -0.1175071
