src/BipedalWalkerTD3/dir_chk_hard/chpnt_88seed_300-5sc_9h44m_actor_t.pth (torch, 528559 bytes, 6 tensors)

l1.weight f4 [400, 24]
0	0xbdf00f23	-0.11721637
1	0x3d1f4ce6	0.038891695
2	0x3deae3b2	0.11469211
3	0x3b71422c	0.0036813123
4	0x3e0715ad	0.13191862
5	0x3db18367	0.08667641
6	0x3da50e56	0.08059375
7	0xbc8da0ac	-0.017288528
8	0xbe0eb6cc	-0.13936919
9	0xbcfb55dc	-0.03068059
10	0xbd21bd1f	-0.039487
11	0xbe45fa79	-0.19333829
12	0xbd4756e8	-0.048666865
13	0xbd652f8b	-0.055953544
14	0xbd1389f6	-0.03602024
15	0xbdfd772c	-0.12376246
16	0xbe5f39c2	-0.21799377
17	0xbe9a43d6	-0.3012988
18	0xbe9778fe	-0.29584497
19	0x3d081dbc	0.033231482
20	0xbd31c378	-0.043399304
21	0xbe6305a3	-0.22170119
22	0xbd9bf956	-0.076159164
23	0xbbe91d03	-0.007114054
24	0xbd2c1662	-0.042013533
25	0x3fcd566a	1.6041996
26	0x3f8016b1	1.0006925
27	0xbfc37875	-1.5271136
28	0x3f8ebd08	1.1151438
29	0xbf5ebc9e	-0.87006557
30	0xc097fe2a	-4.749776
31	0x3e85923d	0.26088133
32	0x3f378a8a	0.7169577
33	0x3f823f62	1.0175593
34	0xbd478134	-0.048707202
35	0xbfc3eea4	-1.5307202
36	0x3d80645e	0.062691435
37	0x3f181f9d	0.5942324
38	0x3f0064f9	0.5015407
39	0x3f065bd1	0.5248385
40	0xbe43ed3b	-0.19133465
41	0xbf91c370	-1.1387768
42	0xbf6b14c5	-0.91828567
43	0xbf022e67	-0.50852054
44	0xbe21cd31	-0.1580093
45	0xbe915787	-0.2838709
46	0x3ec6b161	0.38807204
47	0x3ea5d6c3	0.32390413
48	0x3f732a74	0.94986653
49	0xbf6a3e12	-0.9150096
50	0x3f6a4a92	0.91520035
51	0xbee51d93	-0.44749126
52	0x3fb4e760	1.413311
53	0xbe0d63bc	-0.13807577
54	0xbf9248de	-1.1428487
55	0x3e8cfd64	0.27537072
56	0xbea793a7	-0.32729837
57	0xbe2e3c57	-0.17015205
58	0xbd51bbda	-0.05120454
59	0x3e32bf07	0.17455684
60	0xbf3fed40	-0.7497139
61	0xbfa67e4e	-1.3007295
62	0xbf63be02	-0.88961804
63	0xbf6ec31a	-0.9326645
64	0xbfa6f37e	-1.3043058
65	0xbfa995b6	-1.3248813
66	0xbfa84f26	-1.3149154
67	0xbf95881d	-1.1682163
68	0xbf966dcd	-1.1752259
69	0xbf513a29	-0.8172937
70	0xbf1058c5	-0.5638545
71	0xbe5e2aa9	-0.21695961
72	0x3e7976f4	0.24361783
73	0xbe080afc	-0.1328544
74	0x3eb3bcf0	0.35105085
75	0xbebbb4c7	-0.3666136
76	0xbec65068	-0.3873322
77	0xbeab4a6e	-0.33455223
78	0xbe282816	-0.16421542
79	0x3ea01037	0.3126237
80	0xbfc546c9	-1.5412227
81	0xbf63ccda	-0.88984454
82	0xbe354070	-0.17700362
83	0x3e444049	0.19165148
84	0x3f0b778c	0.5447929
85	0xbf9d2235	-1.2276064
86	0xbf6512a3	-0.8948156
87	0xbf937736	-1.1520755
88	0xbf936926	-1.1516464
89	0xbf89c84d	-1.0764252
90	0xbf769d44	-0.9633372
91	0xbf93fcce	-1.1561525
92	0xbf539c52	-0.826604
93	0xbf0973ed	-0.53692514
94	0xbf1e521e	-0.6184405
95	0xbef613c4	-0.48061955
96	0xc04cb411	-3.1984904
97	0xc0317363	-2.7726676
98	0x40244715	2.5668385
99	0xbfd443eb	-1.6583227
100	0x3f6700dd	0.9023569
101	0xbf48e7d1	-0.78478724
102	0xbd7c7d4c	-0.06164293
103	0x3f29c3ba	0.6631428
104	0xbf383bd6	-0.719663
105	0xbf506343	-0.8140146
106	0x3f97a79f	1.1848029
107	0xbf1e329c	-0.61795974
108	0xbf49a161	-0.7876187
109	0xbfb808f0	-1.4377728
110	0xbdf4a5b5	-0.119456686
111	0xbeb52373	-0.35378608
112	0xbb9f7164	-0.004865812
113	0xbd891bdd	-0.066947676
114	0x3ee2bfb9	0.44286898
115	0x3e00ef27	0.1259123
116	0xbe9a24ba	-0.30106145
117	0xbf543e2c	-0.82907367
118	0xbf8e7e73	-1.1132339
119	0xbe9cdb67	-0.3063614
120	0xbe42d9b0	-0.19028354
121	0xbfc52b70	-1.5403881
122	0x3fd9af01	1.7006532
123	0xbd78e413	-0.060764384
124	0x3db76670	0.08955085
125	0x3f52b511	0.82307535
126	0xbe9f2e6e	-0.3109011
127	0x3e978966	0.29597014
128	0x3ef10e9b	0.47081456
129	0xbfaeedae	-1.3666284
130	0xbef3d333	-0.4762207
131	0x3eb4961f	0.35270783
132	0x3d8f3304	0.06992152
133	0xbfe5ac8b	-1.7943281
134	0xbf2444c7	-0.64167446
135	0xbebb78a0	-0.36615467
136	0xbe87f455	-0.26553598
137	0xbf09900d	-0.5373543
138	0xbf15ded6	-0.58543146
139	0xbf2d945f	-0.6780452
140	0xbf03d7fd	-0.51501447
141	0xbf169be6	-0.5883163
142	0xbf0b15e5	-0.54330283
143	0xbf476c01	-0.77899176
144	0xc0432c4e	-3.0495791
145	0xc04adeab	-3.1698406
146	0x403c15fe	2.9388423
147	0xbf5c6666	-0.8609375
148	0xbe9329c8	-0.28742814
149	0x3df7be53	0.12096848
150	0xbf2f0cea	-0.6837908
151	0x3ea75c2f	0.32687518
152	0xbfd81caa	-1.6883748
153	0xc012b4c5	-2.2922833
154	0xbc0f8f18	-0.008762144
155	0x3f387a21	0.72061354
156	0x3d041294	0.03224428
157	0xbe425f08	-0.18981564
158	0xbf690346	-0.9102062
159	0xbf8fbe54	-1.1229959
160	0xbecc3e50	-0.3989129
161	0xbedd93bc	-0.43276775
162	0xbe702033	-0.23449783
163	0xbea0fa42	-0.31440932
164	0xbee45a60	-0.446002
165	0xbf136d44	-0.575886
166	0xbf281681	-0.6565934
167	0xbe126569	-0.14296497
168	0x3e21339f	0.15742348
169	0x408835f4	4.256586
170	0x4064998a	3.5718713
171	0x3ff45b23	1.9090313
172	0xbf80060f	-1.0001849
173	0xbe17b2cd	-0.14814301
174	0xbffbddcb	-1.9677061
175	0x3e3d3b68	0.18479693
176	0xbf3c9820	-0.73669624
177	0xbfccdb69	-1.6004459
178	0xbe5a5569	-0.21321644
179	0xbf468b00	-0.7755585
180	0x3da40e16	0.08010499
181	0xbe79a1ec	-0.24378175
182	0xbf1f41f6	-0.62210023
183	0xbdaa00bf	-0.083009236
184	0x3f02c114	0.51075864
185	0xbebaa8d0	-0.3645692
186	0xbf815055	-1.010264
187	0xbfe5a4bb	-1.7940897
188	0xbeb8dbe0	-0.3610525
189	0x3ea7f09e	0.32800764
190	0xbd33e270	-0.04391712
191	0xbf8346ad	-1.0255944
192	0xbf263caf	-0.64936346
193	0xbf0fbaf5	-0.5614465
194	0x3fa4cd7f	1.2875212
195	0x3fe97482	1.823868
196	0x3e899bc4	0.26876652
197	0xbe566599	-0.20937194
198	0x3eb439f0	0.35200453
199	0x3ec92ae0	0.39290524
200	0x3f0cb265	0.5495971
201	0xbf66d183	-0.9016344
202	0x3f69a42a	0.9126612
203	0x3f686633	0.90780944
204	0x3f5ecf82	0.8703538
205	0xbf8847ed	-1.064695
206	0xbf505ea1	-0.8139439
207	0xbf502409	-0.81304985
208	0xbe970495	-0.29495683
209	0xbe82b55c	-0.2552899
210	0xbeaf821e	-0.3427896
211	0xbf14b84d	-0.5809372
212	0xbf867bc4	-1.050652
213	0xbfaf2076	-1.3681781
214	0xbfa98b8e	-1.3245714
215	0xbf8573b4	-1.0425935
216	0x3f022984	0.508446
217	0x4096bb26	4.7103453
218	0x3f946d4e	1.1595857
219	0x40bd79e8	5.921131
220	0x3e652d33	0.22380523
221	0x3f08d61c	0.53451705
222	0xbfdec171	-1.7402784
223	0x3e132916	0.14371142
224	0xbfe69ad2	-1.8015997
225	0x3d41e780	0.047339916
226	0x3fc28230	1.519598
227	0x3fa565d6	1.2921703
228	0xbf3fc0b7	-0.74903435
229	0xc002191d	-2.0327828
230	0x3e106225	0.14099939
231	0xbdbb49c0	-0.09144926
232	0xbe7afd94	-0.24510795
233	0x3ec62318	0.3869865
234	0x3e245916	0.16049609
235	0x3e7cdc7b	0.24693482
236	0xbdf757fc	-0.120773286
237	0xbe352e78	-0.17693508
238	0xbf61d10b	-0.882096
239	0xbf96bb26	-1.1775863
240	0xbf0965dc	-0.5367105
241	0xbff13033	-1.8842834
242	0xbf32e168	-0.6987519
243	0x3e8c4375	0.27395216
244	0x3ed8bb41	0.42330363
245	0xbe9613f6	-0.29312104
246	0xbfb2477f	-1.3928069
247	0x3dbc91e0	0.09207511
248	0xbea07437	-0.31338665
249	0x3c0a7f1c	0.008453157
250	0x3e7b03d4	0.24513179
251	0xbf5daf39	-0.86595494
252	0xbd67d992	-0.056603976
253	0xbf8567fc	-1.0422359
254	0x3d0ca6ac	0.03433864
255	0xbe6a532b	-0.22883289

l1.bias f4 [400]
0	0xbeb044a8	-0.3442738
1	0x3d9b0f00	0.075712204
2	0xbea77b6e	-0.32711357
3	0xbe22f27f	-0.15912817
4	0x3d23a281	0.039949898
5	0xbeda0b32	-0.42586666
6	0x3db057af	0.08610474
7	0xbf3df170	-0.7419653
8	0xbe87c0c4	-0.26514256
9	0xbf7596c4	-0.95933175
10	0xbf7057cc	-0.9388397
11	0xbf7b8c8c	-0.9826133
12	0xbe9c901e	-0.30578703
13	0xbf493a81	-0.78604895
14	0x3e62350a	0.22090545
15	0xbe8c5c75	-0.2741429
16	0xbebd7538	-0.37003493
17	0xbf00182e	-0.50036895
18	0xbde02423	-0.109443925
19	0x3d407ddc	0.04699503
20	0x3f0ae568	0.54256296
21	0x3e57073a	0.2099885
22	0xbf07b69d	-0.5301302
23	0xbddd643a	-0.10810132
24	0xbf12a1ee	-0.57278335
25	0xbed35d0a	-0.4128192
26	0x3f0a5105	0.54029876
27	0xbe679efb	-0.2261924
28	0xbf0023bf	-0.50054544
29	0xbf38f990	-0.722558
30	0x3df02421	0.11725641
31	0xbf13ac56	-0.5768484
32	0x3fa03a67	1.2517823
33	0xbe7a1974	-0.24423772
34	0x3f16536b	0.58721036
35	0xbe8e2e15	-0.27769533
36	0xbda7545e	-0.08170389
37	0xbede615a	-0.43433648
38	0x3f1a170e	0.6019143
39	0xbd65b073	-0.05607648
40	0xbeb91d80	-0.3615532
41	0xbd90556f	-0.07047545
42	0x3f29bab0	0.6630049
43	0xbbfc0414	-0.007690916
44	0xbf2e0030	-0.67969036
45	0xbebe04a6	-0.3711292
46	0xbf94819e	-1.1602056
47	0xbe5b0c3a	-0.21391383
48	0xbed494c2	-0.41519743
49	0xbf4f14f4	-0.80891347
50	0xbe13608e	-0.14392301
51	0xbe485279	-0.19562711
52	0xbe158a76	-0.146036
53	0xbf176a67	-0.5914673
54	0xbe9f011e	-0.3105554
55	0x3e8357dc	0.2565297
56	0x3f2e9ab2	0.68204796
57	0xbf809f2f	-1.0048579
58	0xbf40c8a1	-0.75306135
59	0xbe9e2275	-0.30885664
60	0xbee05e21	-0.43821815
61	0xbf85184d	-1.0398041
62	0xbea9a7af	-0.33135745
63	0xbe2e3e3f	-0.17015933
64	0x3fcd2de9	1.6029636
65	0xbf132c36	-0.57489336
66	0xbf0a616d	-0.5405491
67	0x3f0706e8	0.52744913
68	0x3d96634b	0.073431574
69	0x3e7c3eb0	0.24633288
70	0xbf2fee3a	-0.6872288
71	0xbfafaddf	-1.3724936
72	0xbf5b5739	-0.85679966
73	0x3e36df47	0.17858611
74	0xbe8d46d4	-0.275931
75	0xbf411ad1	-0.75431544
76	0x3eb785bc	0.3584422
77	0x3e4bf040	0.19915867
78	0xbdd0ab44	-0.10188916
79	0xbf061c74	-0.52387166
80	0xbfaac24a	-1.3340542
81	0xbf5c89d3	-0.86147803
82	0x3ebc65a8	0.36796308
83	0x3e103d6d	0.14085932
84	0xbea5a9cf	-0.32356116
85	0xbea8436f	-0.32863948
86	0x3ef5e352	0.48024994
87	0x3ea02d9a	0.3128479
88	0xbe66e2b3	-0.22547416
89	0x3f1fd3fa	0.62432826
90	0xbe2c6d0e	-0.16838476
91	0x3da750b5	0.081696905
92	0x3e0c7e58	0.13720071
93	0xbf1b98d0	-0.6078005
94	0xbead51f7	-0.33851597
95	0x3e2ca6ed	0.16860552
96	0xbe86c2dd	-0.26320544
97	0xbe0cd8ad	-0.1375453
98	0xbe9bd3d5	-0.30435053
99	0xbed6f3ca	-0.4198287
100	0x3de22252	0.11041702
101	0x3ef6c904	0.48200238
102	0xbea5be1f	-0.32371613
103	0xbf527372	-0.82207406
104	0xbf1cc74a	-0.6124159
105	0xbe359ca0	-0.17735529
106	0xbe52743a	-0.2055215
107	0x3e783d5f	0.24242161
108	0xbf2a024f	-0.6640977
109	0xbefe5e6c	-0.49681413
110	0x3ec0b091	0.3763471
111	0xbe411df1	-0.18859078
112	0xbee0e9cb	-0.4392837
113	0x3f83d83b	1.0300363
114	0x3ea025eb	0.3127893
115	0x3d554348	0.052066118
116	0xbf82eb45	-1.0228049
117	0xbeb18750	-0.34673548
118	0xbf140dfe	-0.5783385
119	0xbf81f7da	-1.0153763
120	0x3eb516e5	0.3536903
121	0x3be36c38	0.006940391
122	0xbef342ac	-0.47511804
123	0xbf2a5db7	-0.6654925
124	0xbddfb623	-0.10923412
125	0xbe9eb6e6	-0.30998915
126	0xbebf1c92	-0.37326485
127	0x3d8b628a	0.06805904
128	0xbe82b23d	-0.2552661
129	0xbf6e9f75	-0.9321206
130	0xbf14a3fd	-0.58062726
131	0xbf97b7ab	-1.1852926
132	0x3f893b88	1.0721292
133	0x3fc057b4	1.5026765
134	0xbeff9df4	-0.49925196
135	0xbd637ae6	-0.055537127
136	0x3ddb5a90	0.10710633
137	0xbf3ce18f	-0.73781675
138	0xbf721ceb	-0.94575375
139	0xbe836220	-0.256608
140	0xbf29421f	-0.6611652
141	0xbf2f17df	-0.683958
142	0xbed449d0	-0.41462564
143	0xbf677723	-0.90416163
144	0x3f032c9b	0.5123994
145	0xbf4e9da3	-0.80709285
146	0xbe944706	-0.28960437
147	0x3d60e06b	0.05490152
148	0xbe72d3bc	-0.23713583
149	0xbf1d5e5e	-0.6147212
150	0x3f8a6ea5	1.0815016
151	0xbe052405	-0.13002022
152	0x3f11ab89	0.56902367
153	0xbea8b74d	-0.32952347
154	0x3f5b4b2a	0.85661566
155	0xbe683957	-0.22678123
156	0x3f01cc8c	0.5070274
157	0x3cc2758f	0.023737697
158	0xbf28c83e	-0.65930545
159	0xbe2f0db7	-0.17095076
160	0xbeba03f8	-0.36331153
161	0xbedaf4ca	-0.42764884
162	0xbe3660b8	-0.17810333
163	0x3eebe89c	0.46075904
164	0xbf07db31	-0.53068835
165	0xbe6abb13	-0.22922926
166	0xbd7f3094	-0.062302187
167	0xbe6eefa2	-0.233336
168	0x3d956ba7	0.07295924
169	0x3f380317	0.71879715
170	0xbf21a41f	-0.63141054
171	0xbe0d1349	-0.13776888
172	0xbf547229	-0.82986695
173	0xbe2699a7	-0.16269551
174	0x3f22d1ae	0.63601196
175	0xbeb34ec8	-0.35021043
176	0xbe680233	-0.22657089
177	0xbf795304	-0.97392297
178	0x3e9e68f6	0.30939454
179	0xbea0a0bf	-0.3137264
180	0x3d0aa87d	0.03385209
181	0x3ecf25f7	0.40458652
182	0x3eb4b31d	0.35292903
183	0xbf2a8b07	-0.6661839
184	0xbf49a793	-0.7877132
185	0xbeba65a0	-0.3640566
186	0xbf115e7d	-0.567848
187	0xbf8df099	-1.108905
188	0xbefd77f4	-0.4950558
189	0xbf4460c1	-0.76710135
190	0x3d8ff04d	0.070282556
191	0xbe1f08b7	-0.15530668
192	0xbf93f8e6	-1.1560333
193	0xbf43ee41	-0.7653542
194	0xbf2feace	-0.6871766
195	0x3e53dd7e	0.20689961
196	0xbf4ebbe1	-0.8075543
197	0x3dc9d20c	0.098545164
198	0xbeddc6aa	-0.4331563
199	0xbe9c8dc5	-0.30576912
200	0xbed9b092	-0.42517525
201	0xbdc00113	-0.09375205
202	0xbec2b689	-0.38029888
203	0x3ec9f05a	0.39441186
204	0xbe2cba67	-0.16867982
205	0x3f22dc68	0.63617563
206	0xbe1e1aa6	-0.15439853
207	0xbec04d59	-0.37559012
208	0xbece8dc9	-0.40342548
209	0xbe16ffe5	-0.14746054
210	0x3f2c7c1a	0.67376864
211	0xbefd467b	-0.49467835
212	0xbf07975d	-0.5296534
213	0xbfc52469	-1.5401736
214	0x3e8b11fc	0.27162158
215	0x3fab1c1f	1.3367957
216	0xbf163656	-0.5867666
217	0xbeb6177c	-0.35564792
218	0xbdb19627	-0.086712174
219	0xbf62bc33	-0.8856842
220	0xbdc9374e	-0.09825002
221	0xbe7c3afb	-0.24631874
222	0xbf168a1b	-0.5880448
223	0xbe9ade86	-0.30247897
224	0xbf20a56f	-0.6275243
225	0xbbcb6469	-0.006207038
226	0xbe50cbff	-0.20390318
227	0xbf3f3fcf	-0.7470674
228	0xbf155021	-0.5832539
229	0x3e36901b	0.1782841
230	0x3d55833a	0.0521271
231	0xbe6b617b	-0.22986405
232	0xbe95cced	-0.29257908
233	0xbee09d3b	-0.43869957
234	0x3fa46396	1.2842891
235	0xbec7bf0c	-0.39012945
236	0xbececdd9	-0.40391424
237	0xbd3e8450	-0.0465129
238	0xbe28baf7	-0.16477571
239	0xbf3f3d78	-0.7470317
240	0xbee13d63	-0.43992147
241	0xbee08503	-0.4385148
242	0x3e9cf9d5	0.30659357
243	0xbefa013b	-0.48829064
244	0xbf25b586	-0.6473011
245	0xbd403cf1	-0.04693312
246	0xbeef5083	-0.46741113
247	0x3ec471c9	0.3836806
248	0xbe9d5f26	-0.30736655
249	0xbf37f888	-0.71863604
250	0x3eb8eb7d	0.36117163
251	0x3e13eb03	0.14445119
252	0xbf10e52d	-0.56599694
253	0xbe1a72b6	-0.15082821
254	0xbe590c82	-0.21196178
255	0xbf5874f2	-0.84553444

l2.weight f4 [300, 400]
0	0x3c012c65	0.00788412
1	0x3ea0499a	0.31306154
2	0x4017537e	2.364471
3	0xbe3c4b8f	-0.18388198
4	0xc048646b	-3.131129
5	0xbd97a4bd	-0.07404468
6	0xbf779104	-0.9670565
7	0xbfafe93e	-1.3743055
8	0x3ec13499	0.3773544
9	0xbf6252ba	-0.8840748
10	0x3d7936e4	0.060843363
11	0xbd8d80a4	-0.06909302
12	0x3d69a9a2	0.05704654
13	0xbe4298d9	-0.19003619
14	0x3fa562b6	1.2920749
15	0x3ee283f2	0.4424129
16	0x3f823c44	1.0174642
17	0x3f217926	0.6307548
18	0x3b7259dc	0.003697983
19	0xbc7409e4	-0.014894936
20	0xbf0e15dc	-0.55502105
21	0x3eaa594c	0.33271253
22	0xbe985935	-0.2975556
23	0xbd07ddac	-0.033170387
24	0xbf07b05d	-0.53003484
25	0xbe23dfff	-0.16003416
26	0x3e3defdf	0.18548535
27	0xbd3baf50	-0.045821488
28	0x3bb3782f	0.0054769735
29	0x3e387650	0.18013883
30	0xbf76a6aa	-0.9634806
31	0x3f5c2322	0.8599111
32	0x3fd10379	1.6329185
33	0xbfcc5121	-1.5962259
34	0x3f931e2f	1.1493586
35	0xbd24fc5e	-0.04027974
36	0xbd86c215	-0.06579987
37	0xbe66603b	-0.22497647
38	0x402c2d0b	2.6902492
39	0x3bb0ad57	0.0053917575
40	0xbf452e91	-0.7702418
41	0x3e8e1d32	0.2775665
42	0xbfcd8d9b	-1.605884
43	0xbb336250	-0.0027371831
44	0x3efa0524	0.48832047
45	0x3f769e89	0.96335655
46	0x3f8b41a4	1.0879407
47	0x3cfe47c3	0.031040078
48	0x3f945b56	1.1590374
49	0xbf4302e8	-0.7617631
50	0x3d9fa785	0.07795624
51	0x3f806ebf	1.0033797
52	0xbd0a4de5	-0.033765692
53	0x3dadeeb3	0.08492794
54	0x3c4ae6a0	0.012384087
55	0x3fae85c6	1.3634574
56	0xbfc56d6f	-1.5424021
57	0xbe941d9e	-0.28928846
58	0x3ce9f8c5	0.028561005
59	0x3f98ee6e	1.1947763
60	0x3ec3b2d6	0.38222378
61	0x3e0ffb05	0.140606
62	0x3edb69fa	0.4285429
63	0x3ffca822	1.973881
64	0xbffc94ec	-1.9732947
65	0x3eb6a708	0.3567431
66	0x3eb6f6b7	0.35735103
67	0xbe8e9918	-0.27851176
68	0xbebccae7	-0.36873552
69	0x3fdb8d0c	1.7152419
70	0x3f382776	0.7193521
71	0xbf6bc4b3	-0.92097014
72	0xbef20324	-0.4726802
73	0x3f40aa50	0.75259876
74	0x3f7ab1cc	0.97927547
75	0x3ed1758a	0.40909988
76	0x3e65efba	0.2245473
77	0x3e867bc4	0.262663
78	0xbe91247b	-0.28348145
79	0x3f3afb9f	0.73040193
80	0x3f34ebd3	0.7067234
81	0xbd134ff2	-0.035964914
82	0xbff43284	-1.9077916
83	0xbe11cca5	-0.14238222
84	0x3e82a365	0.25515285
85	0xbe1cc6cd	-0.15310211
86	0x3e27af98	0.16375577
87	0x3fb74292	1.4317191
88	0xbd470037	-0.04858419
89	0xbf85eae8	-1.0462313
90	0xbdf832bb	-0.12119051
91	0xbfea193d	-1.8288952
92	0xbeea3a03	-0.45747384
93	0xbfba9eb0	-1.4579678
94	0x3d8774fc	0.0661411
95	0x3f9bcf25	1.217259
96	0x3f8a2abc	1.0794291
97	0xbeb00628	-0.34379697
98	0x3f9731e5	1.1812102
99	0xbead52be	-0.3385219
100	0xbf982ff6	-1.1889637
101	0xbe976ffc	-0.29577625
102	0x3d94c8b6	0.07264845
103	0xbf61c61b	-0.8819291
104	0xbeff2780	-0.49834824
105	0xbf776c4c	-0.9664962
106	0x3f90f43d	1.1324536
107	0x3faaf04f	1.3354586
108	0xbf586231	-0.8452483
109	0x3f4dacc8	0.8034177
110	0x40201036	2.5009894
111	0x3d95b956	0.07310741
112	0x3eed075a	0.4629467
113	0xbfcb3b58	-1.5877485
114	0xbf3e41ee	-0.7431935
115	0xbf5500b8	-0.8320422
116	0x3ceb7ff3	0.028747534
117	0xbe2ed7ce	-0.1707451
118	0x3f931976	1.1492145
119	0x400c93cc	2.1965208
120	0x3e6f1b62	0.2335029
121	0x3f2bb78f	0.67076963
122	0x3fad864e	1.3556612
123	0xbe344d77	-0.17607675
124	0x3ecda77f	0.40166852
125	0xbcbddeb0	-0.023177475
126	0xbf809c07	-1.0047616
127	0xbee4614a	-0.44605476
128	0x3dda3a12	0.10655607
129	0x3fc9da12	1.5769675
130	0x3cc875a0	0.02447015
131	0x3e990c1e	0.29892057
132	0xbc98c2d0	-0.018647581
133	0xbf8a5427	-1.0806931
134	0xbee65eaa	-0.44994098
135	0x3ee1fa72	0.44136387
136	0xbf05a4ec	-0.52204776
137	0x3fb1e5d7	1.3898267
138	0xbe25ffbf	-0.1621084
139	0xbe150fef	-0.1455686
140	0x3e92e135	0.28687444
141	0xbf025864	-0.50916123
142	0x3f164ff9	0.5871578
143	0x3f9efa16	1.242007
144	0xbdbffcd7	-0.09374397
145	0xbe493f50	-0.19653058
146	0x3ef3c524	0.47611344
147	0x40192135	2.3926518
148	0x3d837335	0.06418458
149	0x3e9c005e	0.3046903
150	0x4014a190	2.322361
151	0xbc86a07c	-0.016433947
152	0x3ef6161c	0.48063743
153	0x3fa21a19	1.2664214
154	0xbf3941c3	-0.7236597
155	0xbed4d412	-0.41568047
156	0x3e28ec2e	0.16496345
157	0xbfee7d93	-1.8632072
158	0x3ea96546	0.33085078
159	0x3e80975e	0.25115484
160	0x3f433a90	0.76261234
161	0x3db2da5f	0.08733057
162	0x3c9a27b6	0.018817764
163	0x3f9f1bad	1.2430321
164	0x3f8c2688	1.0949259
165	0x3d59ad72	0.053143926
166	0x3e13013d	0.14355941
167	0x3f39e70f	0.7261819
168	0xbeaba37e	-0.33523172
169	0xbea72942	-0.32648665
170	0xbf040484	-0.5156939
171	0x3d92630a	0.071477965
172	0x3f8b3ec5	1.0878531
173	0x3dced670	0.100994945
174	0x3f9e5f65	1.2372862
175	0xbe300f87	-0.17193423
176	0x3e3fca17	0.18729435
177	0xbf72c804	-0.9483645
178	0xbf2a7b4f	-0.66594404
179	0x3e343b80	0.17600822
180	0x3e1a77bd	0.15084739
181	0x3fe2c68c	1.7716842
182	0x3e20be6e	0.15697643
183	0x3cb80057	0.0224611
184	0xbfcb4d09	-1.5882884
185	0xbed14f41	-0.40880778
186	0xbeb0ea48	-0.34553742
187	0x3fc4a9fb	1.5364374
188	0xbe36487f	-0.17801093
189	0xbff9ca69	-1.9514896
190	0x3e4e9598	0.20174253
191	0x4021915e	2.5244975
192	0xbf89838d	-1.0743271
193	0xbd1c6f4e	-0.038192086
194	0xbfcb4e88	-1.5883341
195	0x3edccad9	0.4312351
196	0xbf399b48	-0.72502565
197	0xbfa27da4	-1.2694592
198	0x3e072165	0.13196333
199	0xbf046dfd	-0.5173033
200	0x3f514452	0.81744874
201	0xbfdc0f52	-1.7192175
202	0xba13e3cd	-0.000564155
203	0x3ebbbd66	0.36667937
204	0x3f0fa6a4	0.5611365
205	0xbf9da95e	-1.2317312
206	0x3fddfbc9	1.7342464
207	0x3e92de16	0.28685063
208	0xbc72bc4c	-0.014815401
209	0xbf497ce9	-0.7870622
210	0x3f7cc2fc	0.9873502
211	0xbebc3d28	-0.3676541
212	0xbebcbcd8	-0.36862826
213	0xbe5ae782	-0.21377376
214	0x3f4104f1	0.75398165
215	0xbf6de9ea	-0.9293505
216	0x3f16ec5d	0.5895441
217	0xbe2e8117	-0.17041431
218	0x3e28dafe	0.16489789
219	0x3f0ad1ec	0.54226565
220	0xbfbfa9c9	-1.4973689
221	0x3f41ef50	0.75755787
222	0xbf0b4170	-0.54396725
223	0xbf63c37b	-0.88970155
224	0x3fa64abe	1.299156
225	0xbce32e43	-0.02773202
226	0x3dbcaca7	0.09212618
227	0xbdd0e8ea	-0.10200675
228	0xbf16b8cd	-0.58875734
229	0x3fa96151	1.3232824
230	0xbe821d71	-0.25413087
231	0x3d457be9	0.048213873
232	0x3e7a3944	0.24435908
233	0xbf3a5218	-0.72781515
234	0xbe75018b	-0.2392637
235	0xbf1b36ce	-0.606305
236	0x3d204c5e	0.03913533
237	0xc003b59d	-2.0579598
238	0x3bb10667	0.0054023745
239	0xbf86f414	-1.0543237
240	0xbf4c8af1	-0.7989951
241	0xbe66748b	-0.22505395
242	0xbf6fcd81	-0.9367295
243	0x3f659db2	0.8969375
244	0xbf94094e	-1.156534
245	0x3d9c53f6	0.07633202
246	0xbd440cb8	-0.047863692
247	0xbf2b51e9	-0.6692186
248	0xbce2e0eb	-0.02769514
249	0xbf4c52b1	-0.7981368
250	0xc015d6c5	-2.3412335
251	0x3f1533ec	0.5828235
252	0x3da0e237	0.07855647
253	0x3da61027	0.081085496
254	0x3cb784e8	0.022402242
255	0xbdcae1f0	-0.099063754

l2.bias f4 [300]
0	0xbfbb0c59	-1.4613143
1	0xbf3a47f0	-0.7276602
2	0xbd3290f0	-0.043595254
3	0xbdab6577	-0.08368962
4	0x3d310667	0.043218996
5	0x3f8745c6	1.0568168
6	0xbd8e59d5	-0.06950728
7	0x3d956f1d	0.07296584
8	0xbd7feffc	-0.062484726
9	0xbd931b05	-0.07182888
10	0xbd01ca35	-0.03168698
11	0xbd492e01	-0.04911614
12	0xbc9d8186	-0.0192268
13	0xbdaa777f	-0.08323573
14	0xbd9fe3ae	-0.07807098
15	0xbd023f65	-0.03179874
16	0xbea59327	-0.3233883
17	0xbe97a32e	-0.29616684
18	0xbf87b445	-1.0601889
19	0x3ef8826b	0.48537
20	0x3ea48457	0.32132217
21	0x3ee5a0d2	0.4484926
22	0xbdaeece7	-0.08541279
23	0xbe05f0b5	-0.13080104
24	0xbf42a559	-0.7603355
25	0xbf11d85e	-0.56970775
26	0xbdd62b02	-0.10457422
27	0xbbed41f3	-0.007240528
28	0xbd9f0506	-0.0776463
29	0x3e81df4d	0.25365677
30	0xbeef866b	-0.4678224
31	0xbeed85eb	-0.46391234
32	0x3e8a7cc4	0.27048314
33	0xbde7c222	-0.11316325
34	0xbc3590e8	-0.011081912
35	0xbed35792	-0.41277748
36	0xbf5dca92	-0.8663722
37	0xbd8f7315	-0.07004372
38	0xbfb566b8	-1.4171972
39	0xbd940dfe	-0.07229231
40	0x3fca5488	1.5807047
41	0xbecfb519	-0.40567854
42	0xbef54a34	-0.47908175
43	0xbdaa3b57	-0.083120994
44	0xbdbcdda8	-0.09221965
45	0xbf4546c9	-0.77061135
46	0xbd8370dd	-0.06418011
47	0xbf78664c	-0.9703109
48	0x3f42e4e0	0.76130486
49	0x3bc68650	0.0060584918
50	0xbdf7039c	-0.12061235
51	0xbdc1c391	-0.094611295
52	0xbe236237	-0.15955435
53	0x3d91e7fe	0.07124327
54	0xbde13b78	-0.10997671
55	0xbf1c113f	-0.60963815
56	0xbe6e399b	-0.23264162
57	0xbdbdb9f8	-0.09263986
58	0x3d16f5bd	0.036855448
59	0xbdabe907	-0.08394056
60	0xbe3ddde8	-0.18541682
61	0xbd2080b7	-0.039185252
62	0xbd405dc1	-0.04696441
63	0xbf74b114	-0.955827
64	0xbf75a344	-0.9595225
65	0xbf958a76	-1.168288
66	0xbf5dcc5d	-0.8663996
67	0xbbd469ca	-0.0064823376
68	0xbd46e7f9	-0.04856107
69	0xbe83f1c5	-0.25770393
70	0x3f1aa25d	0.60403997
71	0xbe270577	-0.16310678
72	0xbf27f9ff	-0.6561584
73	0xbf143126	-0.57887495
74	0x3e68b1fa	0.22724143
75	0x3a95241d	0.001137856
76	0xbdbfa498	-0.09357566
77	0xbd96bfd6	-0.073608086
78	0x3ec43b7d	0.38326636
79	0xbcd73312	-0.02626947
80	0xbcc7e2c1	-0.024400117
81	0xbdd1212a	-0.10211404
82	0xbd5fc1b2	-0.05462808
83	0xbc94a4c6	-0.018144976
84	0xbdabb4af	-0.08384072
85	0xbfb75f68	-1.4325991
86	0x3fadd46f	1.3580455
87	0xbf304d40	-0.68867874
88	0xbd63962b	-0.055563133
89	0xbd08e8dd	-0.0334252
90	0x3e2da8af	0.16958879
91	0xbfb86200	-1.4404907
92	0xbd82f4a5	-0.063943185
93	0x3efc9563	0.49332723
94	0xbe041745	-0.12899502
95	0x3dc5a230	0.096500754
96	0xbe45f439	-0.19331445
97	0xbfed73f3	-1.855101
98	0xbc89d97d	-0.01682734
99	0xbbc62251	-0.0060465713
100	0xbefb977c	-0.4913901
101	0xbf412111	-0.7544108
102	0x3d961160	0.07327533
103	0x3c97f9e5	0.018551776
104	0xbefe78fc	-0.4970168
105	0xbde80eb3	-0.11330929
106	0xbdb95750	-0.09049857
107	0xbd57900a	-0.0526276
108	0xbd482e89	-0.048872504
109	0xbdd0b23a	-0.10190244
110	0xbda4908f	-0.08035385
111	0xbdb8e220	-0.09027505
112	0xbdb06e10	-0.08614743
113	0x3fc54f5b	1.5414842
114	0xbd7b75e3	-0.061391722
115	0xbcc81331	-0.024423214
116	0xbd5bfffa	-0.053710915
117	0xbf34e507	-0.7066197
118	0xbef58e2c	-0.4796003
119	0x3ee9d3d3	0.45669422
120	0xbcc54921	-0.024082722
121	0xbc96597e	-0.01835322
122	0x3edf74b1	0.43643716
123	0xbecaf416	-0.39639348
124	0x3f5b8b92	0.8575984
125	0xbfaa5c1c	-1.330936
126	0xbea60c3f	-0.32431218
127	0xbd404651	-0.04694206
128	0xbeafe48f	-0.34354064
129	0xbeb5f1c8	-0.35536027
130	0xbdeb6a13	-0.114948414
131	0xbe98ec16	-0.2986762
132	0xbe958e5e	-0.2921018
133	0x3f0efb8c	0.5585258
134	0xbd5a0fe2	-0.053237803
135	0xbde39f8b	-0.11114415
136	0x3af2953b	0.0018507609
137	0xbdb64ba0	-0.08901143
138	0xbdc6f479	-0.09714598
139	0xbd8bf2fd	-0.06833456
140	0xbd232547	-0.039830472
141	0xbd021855	-0.031761486
142	0xbf368d0f	-0.7130899
143	0xbf405f51	-0.7514544
144	0xbd7ac3c4	-0.061221853
145	0xbeb53af8	-0.35396552
146	0xbdd6497a	-0.10463233
147	0xbe02385d	-0.12716813
148	0xbcdf6c8a	-0.027273435
149	0xbd92b896	-0.07164113
150	0x3e6a483a	0.22879115
151	0xbe26fc17	-0.16307102
152	0xbe511252	-0.20417145
153	0xbf1bc68e	-0.60849845
154	0x3dbe0bff	0.09279632
155	0xbd06d8bd	-0.03292154
156	0xbe2d8717	-0.16946064
157	0x3dba9eb9	0.09112305
158	0x3c5a7284	0.013332967
159	0xbee8dcf3	-0.4548107
160	0xbd9f0cd6	-0.0776612
161	0xbda870bf	-0.082246296
162	0x3f26b499	0.6511932
163	0xbe4de761	-0.20107795
164	0xbdb74fc8	-0.08950764
165	0xbf3b0117	-0.7304854
166	0xbd72f16c	-0.05931227
167	0x3f5cdc4a	0.86273634
168	0x3f040a29	0.51578003
169	0xbefc8c04	-0.49325573
170	0xbf30590e	-0.68885887
171	0xbd67b7fb	-0.05657194
172	0xbf2493d4	-0.6428807
173	0xbe1eb0a6	-0.15497074
174	0xbe8fc2c5	-0.28078285
175	0xbfc409a2	-1.531544
176	0xbd01a7d5	-0.031654198
177	0xbefbeca4	-0.4920398
178	0x3ede3ca1	0.4340563
179	0xbe221adf	-0.15830563
180	0x3ab62eb7	0.001389942
181	0xbf0ca56b	-0.5493991
182	0xbda2676f	-0.07929885
183	0xbc4fd2c9	-0.012684532
184	0xbda42bc7	-0.08016162
185	0x3f28e379	0.65972096
186	0xbdc58ea9	-0.09646351
187	0xbdb91358	-0.09036893
188	0x3df232cb	0.11826094
189	0xbdb99378	-0.090613306
190	0xbdcbed21	-0.09957338
191	0xbd9c2836	-0.07624857
192	0xbe9dc966	-0.30817717
193	0xbf2aaa78	-0.66666365
194	0x3e93a165	0.28834072
195	0xbc88465d	-0.016635114
196	0xbf54a07a	-0.8305737
197	0xbd1f0f2e	-0.038832836
198	0xbe4023f1	-0.1876371
199	0xbddfa65a	-0.10920401
200	0xbcfe79c4	-0.031063922
201	0xbd5ee242	-0.054414995
202	0xbd8c53dd	-0.06851933
203	0xbd2adab7	-0.04171249
204	0xbe8f50b4	-0.2799126
205	0xbddf583a	-0.109055
206	0xbddbd052	-0.10733093
207	0xbe88ba32	-0.26704556
208	0xbd628afb	-0.055308323
209	0xbd8431d6	-0.06454818
210	0xbdf6cd91	-0.120509274
211	0x3f1d6433	0.61481017
212	0xbd97c656	-0.074108765
213	0xbeee46e3	-0.46538457
214	0xbf9db5dd	-1.2321125
215	0xbf892504	-1.0714421
216	0xbdc84919	-0.09779567
217	0xbf25b64f	-0.64731306
218	0xbdbe8f40	-0.093046665
219	0x3d52ad5c	0.05143486
220	0xbdd52de2	-0.10409142
221	0x3f99accc	1.2005858
222	0x3f774c21	0.9660054
223	0xbf97daa6	-1.1863601
224	0xbf40f619	-0.75375515
225	0xbf282b37	-0.6569094
226	0xbdd03922	-0.10167147
227	0xbf446ce8	-0.7672868
228	0xbd3e9d50	-0.046536744
229	0xbd28ec2f	-0.041240867
230	0x3c3fc3d7	0.011704407
231	0xbeee3fda	-0.4653309
232	0x3e2ec5d6	0.17067656
233	0xbf44a2b9	-0.76810795
234	0xbe9adc0c	-0.30246007
235	0xbf07d2bd	-0.53055936
236	0x3f807eaf	1.0038661
237	0xbd6da39b	-0.058017354
238	0xbd863895	-0.06553761
239	0xbdde75e6	-0.10862331
240	0xbd90e7be	-0.07075451
241	0xbf55bb16	-0.83488595
242	0xbd03965d	-0.03212582
243	0x3f3364a7	0.7007546
244	0xbd5429ba	-0.051797606
245	0x3d142c76	0.036175214
246	0xbdb61108	-0.08889967
247	0xbfae386f	-1.3610972
248	0x3cb315bf	0.021860955
249	0xbd4bc6d9	-0.049750183
250	0xbe8bf875	-0.27337995
251	0x3fadac96	1.3568294
252	0xbf534e32	-0.8254119
253	0xbf2bdc87	-0.67133373
254	0xbf564fba	-0.83715403
255	0xbdf6a8fc	-0.1204395

l3.weight f4 [4, 300]
0	0xbf0751fd	-0.5285948
1	0x3f97a96d	1.184858
2	0x3d661f63	0.056182276
3	0xbf89460d	-1.0724503
4	0x3f241cee	0.64106643
5	0xbe15df84	-0.14636046
6	0xbdc60888	-0.09669596
7	0x3f1b4fcd	0.6066864
8	0x3c4b4078	0.012405507
9	0xbf7b72c4	-0.98221993
10	0xbc381570	-0.01123558
11	0x3cfa1c94	0.030531205
12	0xbf4cd910	-0.8001871
13	0xbd8d654c	-0.069040865
14	0x3e28918f	0.16461776
15	0xbcb72407	-0.022356046
16	0x3e9f638d	0.3113064
17	0x3f08f495	0.534982
18	0xbd337767	-0.043815043
19	0x3f0dfb4c	0.55461574
20	0xbe5973d5	-0.21235593
21	0x3dc97518	0.09836787
22	0xbd60429b	-0.05475102
23	0xbd2836ee	-0.04106801
24	0x3f2cde57	0.67526764
25	0xbf132465	-0.5747741
26	0xbd1c9e2d	-0.038236786
27	0x3cb7c688	0.022433534
28	0xbdd97d01	-0.10619546
29	0xbfacfa76	-1.3513935
30	0xbf891244	-1.0708699
31	0xbebe6447	-0.3718588
32	0x3f80768e	1.003618
33	0x3f8175d4	1.0114083
34	0x3ac4c770	0.001501305
35	0x3f4c4c71	0.7980414
36	0x3e114645	0.14186962
37	0xba964c35	-0.0011466803
38	0x3f3549cf	0.7081575
39	0xbcd01f5a	-0.025405575
40	0x3ee85692	0.45378548
41	0x3e077f25	0.13232096
42	0x3b9f0b46	0.004853639
43	0xbd037fb4	-0.03210421
44	0xbd6a6b63	-0.05723132
45	0xbe704ffc	-0.23468012
46	0x3c5295d1	0.012853102
47	0xbf914195	-1.1348139
48	0xba716fd0	-0.0009210082
49	0xbc83d02c	-0.016090475
50	0xbd491b41	-0.049098257
51	0xbd244657	-0.040106144
52	0xbd5636b9	-0.05229828
53	0x3ec29d89	0.38010815
54	0xbf1e9d22	-0.61958516
55	0x3e2b3d91	0.16722704
56	0x3f659f42	0.89696133
57	0xbba56a86	-0.005048099
58	0x3ed30ee9	0.41222313
59	0x3d08c294	0.03338869
60	0xbf9d2acd	-1.2278687
61	0xbc6f708a	-0.014614234
62	0xbe10e245	-0.14148815
63	0xbdfc8113	-0.123293065
64	0xbde940f2	-0.113893405
65	0x3d0c0f1c	0.034194097
66	0x3fce02ca	1.6094601
67	0xbced4a8b	-0.028966209
68	0x3c5b4ea1	0.013385446
69	0x3e24b92e	0.16086265
70	0xbed0da11	-0.4079137
71	0x3ddd0d82	0.10793592
72	0x3efa7e3b	0.4892443
73	0xbe1cb40d	-0.15303059
74	0xbd5fc022	-0.05462659
75	0xbf15c50d	-0.585038
76	0xbd5a4b42	-0.053294428
77	0xbb5fdab2	-0.0034157452
78	0xbf6e3837	-0.9305453
79	0xbb17776e	-0.0023111957
80	0xbd97f46e	-0.07419668
81	0xbd876ad4	-0.06612173
82	0x3ce0ba23	0.027432507
83	0xbccfa259	-0.025345968
84	0xbd06a84c	-0.032875344
85	0x3e8b39d4	0.27192557
86	0x3f7e4313	0.993211
87	0x3ea9a48e	0.33133358
88	0xbc39e580	-0.011346221
89	0x3d50547a	0.050861813
90	0xbf91e285	-1.1397253
91	0x3ec98580	0.39359665
92	0xbd27e1c7	-0.040986802
93	0xbe033964	-0.12814862
94	0x3f947455	1.1598002
95	0xbf81705d	-1.0112416
96	0xbd713f0b	-0.058898013
97	0x3eda73e1	0.42666534
98	0x3d3e7f9f	0.046508428
99	0xbd17bcf5	-0.037045438
100	0xbf2ff10e	-0.68727195
101	0x3f9d8c75	1.2308489
102	0xbf5f9602	-0.8733827
103	0xbf1885bd	-0.5957907
104	0x3e5916aa	0.21200052
105	0xbd9e08ae	-0.07716499
106	0x3d739a2c	0.0594732
107	0xbd585421	-0.052814607
108	0xbb3dd6df	-0.0028967184
109	0xbef62814	-0.48077452
110	0x3c05bd24	0.00816277
111	0xbaf97d33	-0.0019034505
112	0x3c99ed1d	0.018789822
113	0x3e99e663	0.30058584
114	0x3eadb6bf	0.33928487
115	0xbd175da5	-0.03695454
116	0xbd00b4dd	-0.031422485
117	0xbf0a6dec	-0.5407398
118	0x3ed50c4a	0.41610938
119	0x3dd4a461	0.10382915
120	0x3cb6d458	0.02231805
121	0xbc805d8f	-0.015669612
122	0x3f522536	0.8208803
123	0x3f072d13	0.5280315
124	0xbec20789	-0.37896374
125	0x3eecd622	0.4625712
126	0x3ec98d50	0.39365625
127	0x3c2e7626	0.010648286
128	0x3edf8ee9	0.4366372
129	0xbfb2fcc0	-1.3983383
130	0xbdf1b5cb	-0.118022524
131	0x3ead5517	0.3385398
132	0xbef5b154	-0.47986853
133	0xbe8184ad	-0.25296536
134	0xbdb48fe0	-0.088165045
135	0xbccaf898	-0.024776742
136	0xbd2c63ae	-0.04208725
137	0x3d842235	0.06451837
138	0xbd9cdbe6	-0.0765913
139	0xbd10cad5	-0.035349686
140	0xbd427cb9	-0.047482226
141	0x3b9dcfa5	0.004816013
142	0x3dc0986e	0.09404074
143	0x3f29b1d7	0.6628699
144	0xbd19413e	-0.037415735
145	0x3f8458e5	1.0339628
146	0xbcd1d349	-0.025613444
147	0x3d67f67b	0.056631546
148	0x3f8b1775	1.0866534
149	0x3d495061	0.04914892
150	0xbf2c46c7	-0.672955
151	0xbed92009	-0.42407253
152	0xbefe1f23	-0.4963313
153	0xbf0db36d	-0.55351907
154	0x3f67aab3	0.9049484
155	0xbb512382	-0.0031912033
156	0xbf7de48b	-0.99176854
157	0xbf128695	-0.57236606
158	0xbd3a8b3a	-0.045542933
159	0xbd767633	-0.060171317
160	0xbd6a2063	-0.057159793
161	0xbd689e72	-0.05679173
162	0xbe1ccf9e	-0.15313575
163	0x3efc7b9c	0.49313056
164	0xb9d0d241	-0.00039829503
165	0x3f6f28ab	0.9342143
166	0xbd1ad90d	-0.037804652
167	0x3fb04700	1.3771667
168	0xba174687	-0.0005770702
169	0xbf423b18	-0.7587142
170	0xbdc4d106	-0.096101806
171	0x3c800e43	0.0156318
172	0xbfc87d7b	-1.5663294
173	0x3e88177d	0.2658042
174	0x3d6d8523	0.057988297
175	0xc016389c	-2.3472052
176	0x3c26dcd6	0.010184487
177	0xbe9cfb25	-0.30660358
178	0xbf4c5f31	-0.7983275
179	0x3fdcc349	1.7247096
180	0x3c4a3931	0.012342737
181	0x3ee1f242	0.4413014
182	0xbbc1fa41	-0.005919725
183	0x3c9fa39e	0.019487198
184	0x3bedda4a	0.007258688
185	0x3f0ec337	0.55766624
186	0xbd22ce8f	-0.03974777
187	0x3c124f1d	0.008929995
188	0x3ebff07a	0.37488157
189	0xbda282c6	-0.07935099
190	0x3c3508f7	0.011049501
191	0xbd8d75b4	-0.06907216
192	0xbed246ea	-0.41069728
193	0x3f6e8c6b	0.9318301
194	0xbf25c207	-0.6474919
195	0xbd570689	-0.052496467
196	0xbfb9f51f	-1.452793
197	0x3d14a71e	0.036292188
198	0x3f73e914	0.95277524
199	0x3c21e4f6	0.009881249
200	0x3cc56ea1	0.024100604
201	0xbdd8e18a	-0.10589893
202	0xbc37ddf8	-0.011222355
203	0xbd0d4abd	-0.034495104
204	0xbecdd7c0	-0.40203667
205	0x3d8080b7	0.062745504
206	0x3bb86778	0.005627569
207	0x3c75f085	0.015010958
208	0xbdb5451f	-0.088510744
209	0xbd4307c8	-0.047614843
210	0xbe9d3ce0	-0.30710506
211	0xbdff0db9	-0.12453789
212	0x3d256447	0.040378835
213	0xbf4b4aa1	-0.7941075
214	0xbec4ae70	-0.38414335
215	0x3ed70460	0.41995525
216	0xbc89acf4	-0.016806103
217	0xbe161bc5	-0.1465903
218	0xbd40a0f1	-0.047028486
219	0xbe962e55	-0.29332224
220	0x3be6ea83	0.007046999
221	0x3ee010c4	0.4376279
222	0xbe166dd2	-0.1469033
223	0x3f77692c	0.96644855
224	0xbf39fdb8	-0.7265277
225	0xbf1646bd	-0.5870169
226	0x3c884275	0.016633252
227	0x3de09ccc	0.10967407
228	0x3f06c534	0.5264466
229	0xbc29d4fe	-0.010365723
230	0x3e5c31f9	0.21503438
231	0x3f286f2f	0.6579465
232	0xbfffb94b	-1.9978422
233	0x3eba7927	0.36420557
234	0xbd385f8c	-0.045012996
235	0x3f2058df	0.62635607
236	0xbe5ff218	-0.21869695
237	0xbba8f71f	-0.0051564123
238	0xbdd55d8a	-0.10418232
239	0xbff18bf9	-1.8870841
240	0x3cad0887	0.02112223
241	0xbf01192e	-0.50429046
242	0x3c3461c8	0.011009641
243	0x3f8da23c	1.1065135
244	0xbd0b6d64	-0.03403987
245	0xbfd5817a	-1.6680138
246	0x3d87c895	0.06630055
247	0xbf892a7c	-1.071609
248	0xbed1ef69	-0.41002968
249	0xbc26cd37	-0.010180763
250	0x3e872c54	0.26401007
251	0x3eb6103f	0.3555927
252	0x3eb2f03f	0.34948918
253	0xbf4f4178	-0.8095927
254	0xbf5ecf81	-0.87035376
255	0x3de5be82	0.11217977

l3.bias f4 [4]
0	0xbf3fd8b6	-0.7494005
1	0xbfbb9ff8	-1.4658194
2	0xbe8996bf	-0.26872823
3	0x3e11bf97	0.14233242
