src/BipedalWalkerTD3/dir_chk_hard/chpnt_88seed_300-5sc_9h44m_actor_t.pth (torch, 528559 bytes, 6 tensors)

l1.weight f4 [400, 24]
000000 6e e3 f7 3f 2d 30 2a 41 2b e7 44 c0 bb 99 8c 39
       1.9366281 10.636762 -3.0766094 0.0002681742
000010 46 51 c7 be ad 9f 77 be fc d2 2b c0 15 d3 c3 3e
       -0.38929194 -0.24182005 -2.6847525 0.3824698
000020 83 a9 75 c0 3b 87 06 3d cf 6e f2 be 7a 6c 98 3f
       -3.8384712 0.03284381 -0.47350165 1.1908104
000030 7c 3e 39 bf 6a bc 34 c0 ae 5d e0 3e 28 f0 ac 3e
       -0.7236097 -2.824 0.43821472 0.33776975
000040 2b 1f e8 be a2 b6 21 bd 9f d5 30 bf f6 6b da be
       -0.4533628 -0.039480813 -0.6907596 -0.42660493
000050 c9 d9 1e 3e 12 4e c8 be a9 35 b9 bf 7c 94 c2 bd
       0.15512766 -0.39122063 -1.4469501 -0.095009774
000060 b1 14 4e be 8e 0e 10 40 e2 e4 dc bf f1 35 d6 c0
       -0.2012508 2.2508883 -1.725735 -6.6940846
000070 5c ec fd 3f 73 4c e5 be b6 3c 23 c0 09 8c c7 be
       1.9837756 -0.4478489 -2.5505805 -0.38974026
000080 bf 0a 80 c0 70 44 45 3f 3e 7c 24 bf f8 a3 30 bf
       -4.001312 0.7705755 -0.6425208 -0.69000196
000090 bc 94 89 3e 6d 92 1f 40 af 03 a3 bf d0 51 bc bf
       0.26871288 2.4933121 -1.2735499 -1.4712467
0000a0 92 a9 d6 bf 9f de 2a c0 d7 60 2a c0 1f 69 af bf
       -1.6770499 -2.6698377 -2.6621606 -1.3703955
0000b0 58 f5 3d bf 5c 8e fc be 68 0d b4 be 66 11 92 be
       -0.7420249 -0.49327362 -0.35166478 -0.285289
0000c0 1f 7b 92 c0 18 86 dc 3f c5 7a 36 40 31 41 29 c0
       -4.5775294 1.7228422 2.8512433 -2.644604
0000d0 05 51 af 3d e5 63 93 3d 75 b4 ae 3f 71 fc 50 be
       0.08560375 0.07196788 1.3648821 -0.20408799
0000e0 a2 43 61 bf da 96 b7 bf cb 09 8d 3e 7f 90 59 bf
       -0.87993824 -1.4342911 0.27546534 -0.8498611
0000f0 87 6b 39 be 15 ef 0b c0 9e e5 3d 3e be ad 3a 3f
       -0.18107425 -2.1864674 0.18544623 0.7292136
000100 d0 ca b0 3f b1 35 14 bf 27 de f8 3d 09 09 0c bf
       1.3811893 -0.57894427 0.12151747 -0.54701287
000110 52 09 9a bf b8 64 2e c0 90 8d 81 bf 74 26 8c bf
       -1.2034094 -2.7248974 -1.0121326 -1.0949235
000120 a0 91 7f 3f 15 ec ca be b4 34 35 c0 8f 39 23 c0
       0.9983158 -0.3963324 -2.8313417 -2.550388
000130 90 89 b7 3f 1c 4e 12 c0 e8 6a fa 3f ee df 15 c0
       1.4338856 -2.2860174 1.9563875 -2.3417926
000140 37 99 60 3e e9 87 32 c0 d0 3d 42 3f 65 11 4f bc
       0.21933447 -2.7895453 0.7587557 -0.0126384245
000150 27 01 ff bf 8e ec 17 c0 dc 9e 93 3e 7e 02 00 3e
       -1.9922227 -2.3738132 0.28832138 0.1250095
000160 0f 31 bd 3d 07 ce eb 3b d1 aa 41 bf b6 0e 59 be
       0.09237873 0.007196191 -0.7565127 -0.21197018
000170 2d 9e c9 bd 95 35 52 bd 14 68 4c 3e e4 c4 ac 3e
       -0.09844623 -0.05132063 0.19961578 0.33743966
000180 a1 d7 c0 bf ae c6 28 c0 8b 83 70 c0 eb 0c 64 40
       -1.5065805 -2.6371264 -3.7580287 3.5632885
000190 75 73 04 be b0 a9 ca 3e d5 68 98 bf 6b c7 79 bf
       -0.12934668 0.39582586 -1.1906992 -0.9756991
0001a0 66 10 27 40 45 ac 00 c0 e0 ab c0 3e 7c 62 08 c0
       2.610376 -2.0105145 0.3763113 -2.131011
0001b0 4d 86 94 be 44 ee 8e 3f f8 f5 b3 bf c0 fe ba bf
       -0.29008713 1.1166463 -1.4059439 -1.4608994
0001c0 fc 33 fd bf 87 fc 2e c0 55 4d 0e c0 1c f9 fe bd
       -1.9781489 -2.734163 -2.22347 -0.124498576
0001d0 2c c0 75 bd 8e 8e 9c bf f1 7c 46 bf 73 a3 63 be
       -0.059997723 -1.2231004 -0.77534395 -0.2223032
0001e0 60 36 be 3f 86 a3 18 c0 68 0c bf 40 57 0b 01 c1
       1.4860344 -2.3849807 5.9702644 -8.0652685
0001f0 47 67 47 3e 6f 54 a9 3f 7f f9 aa 3e 37 fc a1 bd
       0.19472991 1.3228892 0.33393475 -0.07909434
000200 3d 62 28 bf 18 c5 e1 bf bf 23 09 bf 2e 69 d9 3f
       -0.657749 -1.7638273 -0.5357017 1.6985223
000210 71 99 a1 be c0 31 0a c0 83 84 41 3f c9 74 3d 3f
       -0.3156238 -2.1592865 0.7559282 0.74006325
000220 b6 80 96 3f 1b 71 ec 3f 74 4f 8c 3f b0 cc 0b 3e
       1.175803 1.8472017 1.0961747 0.13652301
000230 98 36 8a 3e f9 52 51 3e f3 5a 73 bf 48 03 d4 bf
       0.26994777 0.20441808 -0.9506065 -1.6563501
000240 21 04 dd be f8 78 cc bf 95 b2 13 3f 58 24 32 3d
       -0.43167213 -1.5974417 0.5769437 0.04349169
000250 d5 ec 82 be 6c 3a 84 3d 0f e7 b9 bf 90 91 41 3f
       -0.25571314 0.064564556 -1.4523638 0.75612736
000260 f0 49 42 3f 41 52 c4 be 7b 0d 80 be 98 e5 b0 be
       0.7589407 -0.38344005 -0.25010285 -0.34550166
000270 94 22 f9 be 03 e5 69 bf 55 18 82 bf d0 63 39 bf
       -0.48659194 -0.9136507 -1.0163676 -0.72417927
000280 cd 9d 8e bf 0d 2a 81 bf ef eb a7 bf 57 fe af bf
       -1.1141907 -1.0090958 -1.3118876 -1.3749493
000290 7f c8 a9 bf 96 c4 90 bf b6 b0 98 bf 62 4d 56 bf
       -1.3264312 -1.1309993 -1.1928928 -0.83711827
0002a0 eb 87 75 3e 07 24 37 3f d4 f4 89 bf 35 94 0a 3f
       0.2397763 0.7153935 -1.0777841 0.54132396
0002b0 b3 1b ea bd a9 d3 5f bd 62 c1 64 3e c0 3f 45 3e
       -0.114310645 -0.054645214 0.22339395 0.192626
0002c0 a2 a9 d0 3d 8f 84 3f bd 16 39 21 3e 6c f3 fa 3d
       0.10188605 -0.046757277 0.15744433 0.1225346
0002d0 b9 fd 52 be b4 d1 06 bf a6 b6 1d bf 70 b7 36 bf
       -0.206046 -0.5266373 -0.61606824 -0.71373653
0002e0 96 bb 1e bf c4 37 f0 be 1b ae e5 be 20 46 39 bf
       -0.62004983 -0.46917546 -0.44859394 -0.7237263
0002f0 d9 df 4b bf e5 9d 05 bf 47 20 28 bf 32 c6 d8 be
       -0.7963844 -0.5219405 -0.6567425 -0.4233871
000300 33 5c 0f c0 1a be 4f c0 66 3b ac c0 f9 de c0 bf
       -2.2400024 -3.2459779 -5.382251 -1.5068046
000310 ca 00 15 bf 50 06 2d 3f 5e e7 a2 bf 2a a7 d8 3d
       -0.5820433 0.6758776 -1.2726858 0.10578759
000320 13 0e 34 be 92 38 10 bf 17 2d c4 bd 56 cb e1 be
       -0.17583494 -0.5633632 -0.09578913 -0.44100446
000330 97 cd cd bf 54 ea 1e bf 16 37 4c bf 64 44 3c bf
       -1.6078366 -0.62076306 -0.79771554 -0.73541856
000340 8b 67 c3 bf 85 e2 94 be 66 14 72 c0 8d 77 7e bf
       -1.5265974 -0.2907907 -3.782495 -0.9940117
000350 c9 1a 07 40 49 cf 77 40 da b4 6d 3f e9 c2 c0 3e
       2.1110098 3.8720267 0.9285408 0.37648705
000360 63 dc 0c 3e 71 05 1e c0 2f f7 6b bc 20 a1 94 3e
       0.13755946 -2.469082 -0.014402195 0.2902918
000370 46 c3 7f be 9f da 88 3f 28 7e 62 c0 4c bb 85 bf
       -0.24976835 1.0691718 -3.53895 -1.0447783
000380 6c 55 0c c0 2b 2a 90 3f 4d 92 2e bf 7e 70 32 bf
       -2.1927137 1.1262869 -0.6819199 -0.697029
000390 00 73 a1 3e a1 13 d0 bf da ad 3d c0 71 15 3a c0
       0.3153305 -1.625599 -2.963736 -2.9075587
0003a0 62 de 18 bf b4 c1 19 3f 5d 5c 15 bd f8 f4 0e c0
       -0.5971433 0.6006119 -0.036465038 -2.2337017
0003b0 f4 59 0e c0 a9 25 1a bf af cf 33 bf ce d7 d3 be
       -2.2242403 -0.60213715 -0.70238775 -0.41375583
0003c0 f9 44 1c 40 a9 6e db 3f ab f5 ea bf 49 80 9b 3f
       2.4417098 1.7143146 -1.8356222 1.2148525
0003d0 6a f6 0b 40 33 19 fb be 3e c3 87 3f 97 f8 54 be
       2.186915 -0.49042663 1.0606458 -0.20797954
0003e0 fe fd 9e c0 6b 52 3a be d2 6e fe 3e b4 f9 0a bd
       -4.968505 -0.18195502 0.49693924 -0.03392954
0003f0 d3 18 11 c0 34 22 84 c0 34 7a c4 3d f0 79 9c be
       -2.2671402 -4.129175 0.09593621 -0.3056178

l1.bias f4 [400]
000000 78 e3 0d bf e9 55 c3 bf f0 6d b5 3d 62 48 d3 3e
       -0.55425215 -1.5260593 0.088588595 0.4126616
000010 61 30 46 bf d5 35 eb bf e9 f2 46 bf be 8b 17 bf
       -0.7741757 -1.8375803 -0.777144 -0.59197605
000020 f8 9b 97 bf 5b 5e c4 be d0 9b a2 be 85 e7 24 3d
       -1.1844473 -0.38353238 -0.317595 0.040259857
000030 e7 df ac bf f7 c2 af bf a9 c1 49 bf 8e 51 22 be
       -1.350583 -1.3731374 -0.78811127 -0.15851423
000040 3a 7e 8b bf de ea 10 bf e6 ae 97 bf ed 8d 8d bf
       -1.0897896 -0.5660838 -1.185025 -1.1058937
000050 bb c4 06 bf c8 fd 0d be 49 fa 17 3f ad 1a 06 3f
       -0.52643937 -0.13866341 0.5936628 0.52384454
000060 b2 8c d3 bf 4b eb a0 bf 3d 56 ed 3e 8f de b0 bf
       -1.6527312 -1.2571806 0.46354857 -1.381792
000070 63 a4 ed be 8b a8 6b be e6 b9 91 bf 9b 28 5d be
       -0.4641448 -0.23013513 -1.1384857 -0.21597521
000080 ad 86 89 bf 4c b4 ba be 88 04 ad bf b3 12 48 bf
       -1.0744225 -0.3646568 -1.3517008 -0.7815353
000090 33 41 6a bf c0 d3 bd bf f0 a8 35 3e e3 18 65 be
       -0.91505736 -1.4830246 0.17740226 -0.22372775
0000a0 9c e9 16 bf e2 55 ac bf 47 a4 ab bf 87 ed 24 bf
       -0.5895021 -1.3463709 -1.3409508 -0.6442494
0000b0 2f f3 2b bf eb aa 6e bf bc 56 80 bf 27 93 25 bf
       -0.67167944 -0.9322955 -1.0026469 -0.6467766
0000c0 5e 70 1a bf f5 79 ad be ae 4d 9f bf a2 64 16 be
       -0.6032771 -0.33882108 -1.2445581 -0.14686826
0000d0 4b 83 aa 3d ce 08 12 bf 2a 86 55 be 0a dc 74 be
       0.083258234 -0.57044685 -0.20851961 -0.23912063
0000e0 03 a8 6f bf 63 40 ed bf 93 d1 dd be ef a3 55 bf
       -0.9361574 -1.8535274 -0.43323955 -0.8345327
0000f0 ef a6 26 bf 84 99 fd be 05 c2 8c bf 8e df 9b be
       -0.6509847 -0.49531186 -1.099671 -0.30443996
000100 4e 71 09 bf db 13 bd 3f 65 0f 3d 3f 26 30 8c bf
       -0.53688514 1.4771684 0.73851615 -1.0952194
000110 84 41 fe be 67 7d 0a be 8f 4a 52 bd 7b 83 7f 3e
       -0.4965936 -0.135244 -0.051340636 0.249525
000120 3a b8 1b 3e 85 53 44 bf 6f 09 a1 bf f9 59 af be
       0.15206996 -0.7668994 -1.2581004 -0.3424833
000130 e9 28 3e bc 50 3a d3 bf d8 8f 4f 3e c2 bd e2 bf
       -0.011606433 -1.650217 0.20269716 -1.771416
000140 51 f6 39 bf f6 96 95 bf 6c df f5 be 33 6d 3c bf
       -0.72641474 -1.1686695 -0.4802202 -0.73604125
000150 9f 4b 6b be 36 7b 57 bf d3 b2 32 be cd 83 8a bd
       -0.22978066 -0.8417238 -0.17451029 -0.0676342
000160 43 bd e0 be d9 4e c6 bd ae 8f 14 bf fa 3e 37 be
       -0.43894395 -0.09683008 -0.5803174 -0.17895117
000170 2c ae 78 bf f5 55 0b bf 9d 51 83 bf 6d 03 89 bf
       -0.97140765 -0.54428035 -1.0259281 -1.070417
000180 11 36 48 3e 2d 67 88 bf 7c d0 7e be f2 0b 5d bf
       0.19551875 -1.0656487 -0.24884218 -0.8634635
000190 ab 23 7c 3f 1f fb 37 bf 1a 5f d5 be cc 1a 76 be
       0.98491925 -0.71867555 -0.4167412 -0.2403366
0001a0 b9 53 47 3e 8b 15 e1 bf 57 92 28 bf 8d d6 13 be
       0.19465531 -1.7584699 -0.65848297 -0.14437313
0001b0 26 11 6d 3f 5a 06 03 3f ee db 99 bf a6 72 a0 bf
       0.9260429 0.51181567 -1.2020242 -1.2534988
0001c0 53 ac 96 bf b1 45 12 3f 8e 54 95 bf a0 a1 b0 bf
       -1.1771339 0.5713759 -1.1666429 -1.3799324
0001d0 72 6c 62 bd 1e 03 a7 be 28 22 87 3f 0a f4 57 bf
       -0.055279203 -0.32619566 1.0557299 -0.8435675
0001e0 03 cc e9 bd 4e a0 5d bf 97 29 9b bf cc ff 37 3f
       -0.11415865 -0.8657273 -1.2122067 0.7187469
0001f0 59 39 54 bf 3f 0e 2e bf ca 14 c9 be 9f 53 a4 be
       -0.82900006 -0.6799049 -0.39273673 -0.32095048
000200 b7 c5 21 bf 23 fd c0 be f9 a7 5a bf eb c7 e2 be
       -0.63192314 -0.37693128 -0.85412556 -0.4429315
000210 44 df 84 be bc b5 1d bf 68 44 57 3f 92 47 de bf
       -0.25951588 -0.6160543 0.84088755 -1.7365592
000220 b0 8d 3e bf 5a 9d d4 bf a9 12 c9 be c6 72 94 be
       -0.7443495 -1.661052 -0.3927205 -0.28993815
000230 1e 7c 97 bf 07 26 a6 bf bc c8 dd 3e 72 74 56 bf
       -1.1834753 -1.2980355 0.4331721 -0.8377143
000240 ef 8a 2d 3c 76 ca 9b bf 78 77 86 bc 4f f4 f5 bf
       0.010592206 -1.2171161 -0.016414389 -1.9215182
000250 28 bf a3 be 5e d7 8e 3f 8e 7b 0d bf 90 22 c7 be
       -0.31981778 1.1159475 -0.55266654 -0.38893557
000260 ee 5d 95 bf a7 5f b0 3e 61 6a cd bb c3 fe 07 bf
       -1.166929 0.34447977 -0.006268785 -0.5312311
000270 79 4b 14 bf ee e9 9f bf 98 9d 36 be 38 61 b8 bd
       -0.5792766 -1.2493265 -0.17833555 -0.09002918
000280 14 4b 05 c0 2f b5 2d be c8 a1 ba bf 16 7a 12 bf
       -2.0827074 -0.16963647 -1.4580622 -0.5721754
000290 b2 85 c6 be 5f eb 38 3f c4 61 02 bf e0 9e 3e be
       -0.38773876 0.7223415 -0.5093043 -0.18615294
0002a0 01 f9 1d 3f b0 d7 ac bf 0d c7 84 bf 7c 7f 7f bf
       0.61708075 -1.3503323 -1.0373245 -0.998039
0002b0 fd d2 08 be 93 48 62 bf dc 64 e2 3e 74 9f ea 3e
       -0.13361736 -0.8839199 0.44217575 0.45824778
0002c0 9c 98 87 bf 96 80 86 be 0f 86 2c be 81 5a cc be
       -1.0593448 -0.26269978 -0.16848014 -0.399128
0002d0 86 dd 24 3e 98 57 37 bf 2a 66 2e bf 1b 9d 6c bf
       0.1610013 -0.7161803 -0.6812464 -0.92427224
0002e0 2d 3c 8b bd 2a 72 ab 3f 8d 81 9c bf f2 1b 52 bf
       -0.06798587 1.3394215 -1.2227036 -0.8207389
0002f0 22 72 6c bf 35 64 12 3f 84 41 7e bf 01 60 c9 be
       -0.9236165 0.57184154 -0.9931872 -0.39331058
000300 6a 18 4f bf e5 59 c8 be de 00 9e be 2b eb 82 bf
       -0.8089663 -0.39131084 -0.30860037 -1.0228018
000310 c3 6c e1 be dc 15 74 bf 46 7f 94 bf b0 37 44 bf
       -0.4402829 -0.95345855 -1.1601341 -0.7664747
000320 a8 df 93 be 14 ac 79 bf 17 56 b1 bf 4d ee 8b bf
       -0.28881574 -0.97528195 -1.3854398 -1.0932099
000330 d1 c0 4f bf 75 cf f1 bd 80 36 39 bd da f7 a7 bf
       -0.8115359 -0.118071474 -0.04521799 -1.3122513
000340 cc 4e 7e bf a4 f9 fd be ea cb d9 be e9 60 16 bf
       -0.99338984 -0.49604523 -0.42538387 -0.58741623
000350 96 6c 84 3e db 05 67 bf b6 a8 11 bf cf a5 ae be
       0.25864094 -0.9024331 -0.5689806 -0.34110877
000360 56 a6 3f bd c4 bd fb be f5 b7 03 bf f3 e5 14 3f
       -0.04678949 -0.49168217 -0.5145257 0.58163375
000370 38 33 b1 be 67 08 a0 bf f4 0d 5c bf f3 3a 45 be
       -0.3460939 -1.2502564 -0.8595879 -0.19260769
000380 97 41 2a bf 34 fa 79 bf a0 dd 3f bf 1b 29 b5 bf
       -0.6650633 -0.97647405 -0.7494755 -1.4153169
000390 26 8f a5 bd 3b 41 bc be 91 c7 5e be 7e a5 9a be
       -0.08083944 -0.36768517 -0.21755816 -0.30204386
0003a0 2f 48 a2 be f0 48 3e bf c2 78 c0 be 4c 39 73 bf
       -0.31695697 -0.74330044 -0.3759213 -0.95009303
0003b0 80 18 9d bf d1 27 68 bf f0 4c 12 bf c6 79 97 bf
       -1.2273102 -0.90685755 -0.5714865 -1.1834037
0003c0 99 83 f0 3d 21 ff 3b be 9d 45 1e bf 6e b5 e8 3e
       0.1174385 -0.18359043 -0.6182497 0.4545092
0003d0 0a 0c d4 be 50 6a 3a be 0a 1d 39 bf 19 70 4e bf
       -0.41415435 -0.18204618 -0.72309935 -0.806398
0003e0 4a 8f 54 bf b7 cc a5 bc a5 67 0d bf fe ce 11 bf
       -0.8303114 -0.020239217 -0.55236274 -0.5695647
0003f0 34 94 48 3e c0 3d 3d be 18 2d 7d bf 45 5a 16 3c
       0.19587785 -0.18480587 -0.9889693 0.009176795

l2.weight f4 [300, 400]
000000 d8 87 b0 bf fe ee 2d bf 4e 2b 9f bf 81 dd 4b bf
       -1.3791456 -0.679428 -1.243509 -0.79634863
000010 26 ae 94 3e 10 ec b4 be 75 3c 09 bd 31 6f 41 3e
       0.29039115 -0.3533635 -0.033504922 0.18890072
000020 aa 5b 5a be dd b6 88 be 90 55 32 bf 2f 0f 38 3e
       -0.2132403 -0.26702014 -0.6966181 0.17974542
000030 fe a4 18 3e cd af 0b 3e d9 9f c5 bd 9b cc 62 bf
       0.1490669 0.13641281 -0.09649629 -0.88593453
000040 4e 53 29 bf 34 c0 0b bf 58 41 c2 3f 0c 14 0d bd
       -0.6614274 -0.54590154 1.5176191 -0.034442946
000050 cd cf 8e 3e 73 52 e4 be 9d d7 0e be e9 77 ce bf
       0.27892914 -0.44594154 -0.13949437 -1.6130344
000060 3d 16 83 be 25 e8 02 bd 10 4c be be 72 f5 66 3f
       -0.25602904 -0.03195967 -0.37167406 0.9021827
000070 80 89 c0 be 54 29 fb be ae 76 94 bf 3c 38 f5 3a
       -0.37604904 -0.49054968 -1.1598718 0.0018708776
000080 2b 8f 79 bf fc 45 fa bf 6a 44 e1 3e 46 7d 25 3e
       -0.9748408 -1.9552608 0.43997508 0.1616107
000090 92 77 d6 3d c5 92 17 3e 79 98 cd be 9f d1 a8 3d
       0.10472025 0.14802082 -0.4015539 0.08243107
0000a0 db ff e7 be dc 07 08 3f 17 06 36 c0 a5 6b 1d bd
       -0.4531239 0.5313699 -2.8441217 -0.038432736
0000b0 1e 92 24 3d 55 ce 05 bf b8 c6 3e bf 73 98 69 bf
       0.04017841 -0.5226796 -0.7452197 -0.91248244
0000c0 ec fb 83 be 25 f7 0c bf e3 18 7e 3d 27 fe 28 3e
       -0.2577814 -0.5506461 0.062035453 0.16503201
0000d0 8e 43 1c bf 59 f1 c6 bd c3 33 00 bd 68 32 cb bf
       -0.6104058 -0.09714002 -0.031299364 -1.5874758
0000e0 47 cd 20 bf c1 83 c2 be fa 9f d2 3c 56 68 af be
       -0.6281323 -0.37991145 0.025711048 -0.3425929
0000f0 12 4b 53 be 5e b3 ac be 3c a7 08 3e 61 88 48 bf
       -0.20634106 -0.33730596 0.13345045 -0.783331
000100 e6 77 1c bf 0d 3a 8f be 91 41 df bd 7c 32 77 3e
       -0.6112045 -0.27973977 -0.10901178 0.24140352
000110 a8 a2 b1 be a5 2f 8e bf 2e 03 21 3f f1 75 43 bf
       -0.3469441 -1.110829 0.62895477 -0.7635184
000120 9f 4a 32 bf 58 06 b7 bf d1 b5 d5 be b3 5e 7c bc
       -0.6964511 -1.4298811 -0.41740277 -0.015403437
000130 55 66 0e bf e3 27 6f be 82 b4 d6 bd 37 7c 27 bf
       -0.55624896 -0.2335506 -0.10483648 -0.6542391
000140 45 89 8a bf 1f 59 21 bf 05 6a 0a 3e d0 59 c3 be
       -1.0823141 -0.63026613 0.13517006 -0.3815446
000150 33 0a 6f bf e7 07 b7 3c 55 1e 1a bf ab 76 fb 3d
       -0.9337494 0.022342635 -0.60202533 0.122784935
000160 ff 46 b0 3e cf 51 a3 bf 20 48 c1 3e 48 c0 37 bf
       0.34429166 -1.2759341 0.3775034 -0.7177777
000170 50 ea c6 be 7a 01 e2 be a6 16 27 3f 08 bf b2 bf
       -0.3885064 -0.44141752 0.65268934 -1.3964548
000180 4d 2a 02 be 3f e5 b8 be be 5e ab bc f5 f5 01 bf
       -0.12711449 -0.361124 -0.0209192 -0.50765926
000190 54 39 09 be d1 7d d6 3d 80 8e bb be d7 90 a2 bd
       -0.13400775 0.10473216 -0.36632156 -0.07937782
0001a0 d2 e1 d6 be f8 0a bd be ea 48 da 3e 29 87 d9 3e
       -0.41969162 -0.3692243 0.42633754 0.42485932
0001b0 93 6e e4 bf d7 53 a8 bf 01 d2 4f be 70 f8 40 3d
       -1.7846245 -1.3150586 -0.20294954 0.04711193
0001c0 46 87 9b 3e f0 22 bc be 0d 90 89 be 64 28 71 3f
       0.30376643 -0.36745405 -0.26867715 0.94202256
0001d0 86 df 9e be 56 1c 2b 3d 12 0a 62 be 1a 4b 50 bf
       -0.3102991 0.04177507 -0.22074154 -0.81364596
0001e0 9d 06 1c 3f 61 9f d9 3d fe 68 a2 bf 59 54 43 be
       0.6094759 0.10626102 -1.2688291 -0.19075145
0001f0 e6 37 2f 3e 85 68 1d 3f 03 36 e9 be 8c 95 86 bc
       0.17111167 0.6148761 -0.4554902 -0.016428731
000200 a4 16 0e 3e 2e 00 ae bd d6 aa 26 bf 24 1a 83 be
       0.13875824 -0.08496128 -0.65104425 -0.2560588
000210 fe 6c 99 bf bd 8f 8e bf 3b ab e6 bd 2f 86 a0 bf
       -1.1986387 -1.1137615 -0.11263128 -1.254095
000220 80 2c c3 3e 02 10 e7 be 7e 7f 18 be ca 58 db bd
       0.38119888 -0.451294 -0.14892384 -0.107102945
000230 4f 80 2e 3e 64 47 09 c0 1f f5 b9 be 26 74 26 bf
       0.17041133 -2.1449823 -0.36319825 -0.6502098
000240 ab 91 6a bd 2c 30 8d bf bf 02 b2 3f b8 91 32 be
       -0.057267826 -1.1030326 1.3907088 -0.174384
000250 73 f5 e6 be 13 51 eb bf 40 94 b9 3d 50 28 45 3a
       -0.45109138 -1.8384117 0.090614796 0.00075209606
000260 72 91 66 bc 64 df 78 bf 67 32 02 3d cc 58 f4 be
       -0.014072763 -0.9721587 0.03178635 -0.47723997
000270 84 8c 7e bf b0 4f c0 3e fc a6 07 bd aa 89 e3 be
       -0.9943316 0.37560797 -0.033118233 -0.44440967
000280 74 b8 05 c0 65 51 18 3e 0c c3 8d bd 56 ca 27 bf
       -2.0893831 0.148748 -0.06921968 -0.65543115
000290 9b 17 63 bf 73 ca 69 be 61 61 c2 bf 57 5e 39 3c
       -0.88707894 -0.22831134 -1.5185968 0.011313996
0002a0 7d 86 02 3f 3a 5c 56 bf cf 38 bc 3e 6d b6 99 bf
       0.5098646 -0.83734477 0.36762092 -1.2008797
0002b0 50 0c b9 bd bd f6 9a bf 2f 3b 00 bf 09 ad 4e bf
       -0.090355515 -1.2106549 -0.50090307 -0.8073278
0002c0 69 1d 42 c0 a7 7b 2b bf e8 b1 3c bc d6 70 9f be
       -3.033045 -0.66985554 -0.0115170255 -0.31140774
0002d0 fd cb 9e 3d 62 d0 55 bd 6d d1 08 3f 35 e5 09 3f
       0.077537514 -0.052200682 0.5344456 0.5386537
0002e0 07 19 a4 3c 9e 4b 1d be f3 bf f1 bd 64 5d fd bd
       0.020031465 -0.15360877 -0.118041895 -0.123713285
0002f0 94 da 04 bf 45 33 10 c0 17 26 20 be 49 29 cc 3e
       -0.51896024 -2.2531292 -0.1563953 0.39875248
000300 10 2e 43 3e a1 87 c5 bf 1e d1 a6 3d a3 7c 7d be
       0.1906054 -1.5432016 0.08145355 -0.24754576
000310 84 5c 06 c0 a8 cf cf be 6a 08 6b bf e9 55 5c bf
       -2.0993967 -0.40588117 -0.91809714 -0.8606859
000320 6e 76 2c c0 95 48 14 3f b2 54 6d be e4 e8 05 bf
       -2.6947284 0.5792325 -0.2317684 -0.5230849
000330 16 93 12 bf 65 22 0b c0 36 e8 15 bd 5b 27 f0 3d
       -0.57255685 -2.1739743 -0.036598407 0.117262565
000340 5c c8 83 bf 54 35 79 bf 73 de ee be 82 ef e1 3e
       -1.029552 -0.97347 -0.4665409 0.44128042
000350 00 09 b2 bf 47 ce bd be 28 55 c0 be 99 a5 5c bf
       -1.3908997 -0.3707144 -0.3756497 -0.8619018
000360 63 a1 61 be a6 90 1b 3f 60 86 40 3f e3 cf ec bf
       -0.2203422 0.6076759 0.7520504 -1.8500942
000370 20 18 b0 be 14 60 75 bf dd 59 0b bf b8 9e b4 be
       -0.34393406 -0.9584973 -0.54433995 -0.35277343
000380 26 25 af be 69 1c d7 be 55 42 14 3c fe ee 94 bd
       -0.3420803 -0.42013863 0.009049018 -0.07272147
000390 00 11 b9 be ce 42 99 3b 8f 70 3a 3e 7b b3 6e bd
       -0.36145782 0.004677153 0.18207 -0.058276635
0003a0 1e 62 ac 3b 7f d0 30 bf 3b c0 6f bf 45 43 85 bf
       0.00526072 -0.6906814 -0.93652695 -1.0411154
0003b0 d1 1e 51 3e ef f7 a5 be 3c 6f 09 3e 0f 6a 39 be
       0.20421912 -0.3241572 0.13421339 -0.18106864
0003c0 b5 e6 8f bf e9 84 d0 3d 06 0c a2 bf dd 97 09 bf
       -1.1242281 0.101816006 -1.2659919 -0.5374735
0003d0 83 15 64 bf d7 ae 36 3b 5d cd 97 3f b7 f5 b2 bf
       -0.89095324 0.0027875209 1.1859547 -1.3981236
0003e0 0c db f0 be 33 93 6d bf 7e 74 9e bd a3 ae 64 bf
       -0.4704212 -0.92802733 -0.07737063 -0.89328974
0003f0 64 0c 45 bf d5 f5 8d 3d a0 6c 3d bf 0d 43 9a be
       -0.7697203 0.06931654 -0.73993874 -0.3012928

l2.bias f4 [300]
000000 52 2e dd be a9 c3 09 c0 25 09 70 c0 f2 8b e9 be
       -0.43199402 -2.1525671 -3.7505581 -0.45614582
000010 6f 55 a5 bd 0d b0 8c bf dc 0d 46 bf 35 a1 0c be
       -0.08072936 -1.0991226 -0.773649 -0.1373337
000020 dc cb 1e bf 1a 93 5d be a0 4d 3e bf 7d c6 08 be
       -0.62029815 -0.21638146 -0.74337196 -0.13356967
000030 0c d7 79 bd 6d ac 0a be 27 56 ff bf b3 26 64 bf
       -0.0609961 -0.13542338 -1.9948167 -0.8912155
000040 8e ba 91 bf 8a e8 db bd 42 58 5c bf 6a 25 46 be
       -1.1385057 -0.10737713 -0.8607217 -0.1935021
000050 b5 ad 0c be e2 38 82 bf e4 6d ba bf 0c 40 f5 bd
       -0.13738139 -1.0173609 -1.4564786 -0.119751066
000060 ad 2e 52 3f 67 5c 2b be 5c 49 fb bf 69 71 5f bf
       0.8210247 -0.16734467 -1.9631763 -0.87282425
000070 36 73 1c be 1e 49 13 c0 5d b7 0a be c2 ba d6 bd
       -0.15278324 -2.3013377 -0.1354651 -0.1048484
000080 76 c4 9c bf d3 5b e4 bf 23 b4 e1 be fd 94 94 be
       -1.2247455 -1.7840523 -0.44082746 -0.2901992
000090 56 cb 12 be ab fb e9 bd c4 dc fa bd 1e dc 20 c0
       -0.14335379 -0.11424955 -0.12249139 -2.513435
0000a0 28 34 39 bd 15 d1 90 bf b9 fb 4a bf 05 11 04 c0
       -0.045215756 -1.1313807 -0.7929035 -2.0635388
0000b0 1f ba 18 bf 84 84 08 c0 de a7 17 bf 5b d9 63 bd
       -0.59659 -2.133088 -0.5924052 -0.05562721
0000c0 68 07 03 40 74 a2 ac bf f6 0d 72 bf 5f 27 22 be
       2.047327 -1.3487077 -0.9455255 -0.15835331
0000d0 98 82 b4 bd 4c 8b 8f bf 65 19 81 3d bd 82 8c bf
       -0.08813971 -1.1214385 0.06303672 -1.0977398
0000e0 72 22 6c 3e 50 42 30 bf b7 d1 05 3f 88 7c 3b be
       0.23060015 -0.68851185 0.52273124 -0.18309224
0000f0 58 54 f7 bf 0e 35 14 be b6 64 8c bf f5 a1 0f bf
       -1.9322615 -0.14473364 -1.0968235 -0.561065
000100 44 ea 7e bf 4d 70 87 bf a4 cc f8 bf 5b 53 ac bf
       -0.9957621 -1.0581146 -1.9437451 -1.3462938
000110 08 82 b8 bd fd 1d 89 bd 68 83 f1 be 23 b1 1f be
       -0.090091765 -0.06695173 -0.47170568 -0.15594916
000120 ef 28 22 be 92 dc 5a bf ae 44 9d bf 52 cb ba be
       -0.15835927 -0.85492814 -1.2286584 -0.36483246
000130 73 e5 cd bf 9d 4c 08 be f8 0e 4d c0 85 c8 04 c0
       -1.6085647 -0.13310476 -3.2040386 -2.0747387
000140 86 5c 9f bf 9a d6 d8 bf 2a 42 ef bf ea a8 60 ba
       -1.2450111 -1.6940491 -1.8692067 -0.0008570092
000150 52 90 d5 bf 27 34 20 be 53 ba e7 bf a8 73 3d be
       -1.6684668 -0.15644895 -1.8103737 -0.1850115
000160 a4 f1 f6 be 5a 66 48 be ff 71 2d be c9 56 53 bf
       -0.48231232 -0.19570294 -0.16938017 -0.825543
000170 9e bf 12 be 1b 1f 7a bf 7a 94 d6 bd e6 00 1b be
       -0.14330909 -0.97703713 -0.104775384 -0.15137061
000180 d5 46 0d be d6 10 16 bf 05 da b3 bf f3 2b 00 be
       -0.13796552 -0.5861944 -1.4050909 -0.12516765
000190 6d bf 0b be 75 b4 0e c0 b6 3a 1b be 89 ee 07 bf
       -0.13647242 -2.2297642 -0.15159115 -0.5309835
0001a0 03 6d c7 bf be 79 1a bf 90 fc 08 3e 22 ab d6 bf
       -1.5580143 -0.60342014 0.13377595 -1.6770976
0001b0 7b 38 02 c0 f0 10 bf bd 45 d4 0a be 5c 72 70 bf
       -2.0346973 -0.093294024 -0.13557537 -0.939245
0001c0 fe 5e 93 bf 3e cf 12 bf 37 5b 20 be 58 d2 c7 bf
       -1.1513364 -0.57347476 -0.15659796 -1.5611067
0001d0 47 8b 2b be 82 f1 50 bf 99 15 c2 bd b6 3b 1f bf
       -0.16752349 -0.8161851 -0.09476776 -0.62200487
0001e0 67 c5 a6 bf 80 28 33 be d5 14 0d bf dd 1b 0d c0
       -1.3028992 -0.17495918 -0.5510991 -2.2048256
0001f0 5c 47 8c be 8c e7 8d bf 3a cd ad bd 4a ce d6 bf
       -0.27398193 -1.1086287 -0.084864095 -1.6781704
000200 14 ab 8e bf cc a3 f4 bd d9 d9 31 c0 de 4e 11 be
       -1.1145959 -0.11945304 -2.7789214 -0.14190242
000210 9d 96 84 bd c9 32 40 bf c5 a4 c8 bf a5 72 07 be
       -0.0647404 -0.7507749 -1.5675284 -0.13227327
000220 c8 bb 57 bf 51 d0 c2 bd c1 7f cb be f3 ba 3b bf
       -0.84270906 -0.095123895 -0.39745906 -0.73332137
000230 9a 04 4c bc 1d 91 ce bf 06 d8 99 bd 9e ee 9f bd
       -0.012452269 -1.6138035 -0.07511906 -0.078091845
000240 e8 6b db bf 45 37 87 bf b2 2b 8e bd 7f 44 a6 bd
       -1.7142305 -1.0563742 -0.06941928 -0.08118533
000250 06 ba d6 bf a4 d7 f2 bd 13 2f 00 bf 22 bd d3 bd
       -1.677552 -0.118575364 -0.5007183 -0.103388086
000260 87 e6 a1 be 0f 6a 20 c0 06 5a 95 bd 8b 2a 6a bf
       -0.3162119 -2.5064733 -0.07292561 -0.91471165
000270 cc 60 fb be af 67 e2 3d 17 02 3f bf d5 8a 0a be
       -0.49097288 0.11054932 -0.74612564 -0.13529523
000280 f8 19 47 c0 fa 80 53 bd 02 2b 56 bf c9 4c c4 bd
       -3.11096 -0.051636674 -0.83659375 -0.09584958
000290 2d 91 02 3f 76 a8 10 c0 4f cf a5 be 5b f9 8b bf
       0.5100277 -2.260282 -0.32384726 -1.0935472
0002a0 bb 06 2a 3f d2 f1 3a be 15 fc 0d be 8e 31 9f bd
       0.6641652 -0.1825631 -0.13865693 -0.07773124
0002b0 48 e0 a7 bf 89 eb 66 bf 79 44 42 bf af c4 a0 bf
       -1.311532 -0.9020315 -0.7588573 -1.2560023
0002c0 8d 13 8b be 5d 13 84 bf 51 1c 47 be af 03 3f bf
       -0.27163354 -1.0318409 -0.19444396 -0.74614996
0002d0 b3 7d 6d bf 5a 78 d6 3d 98 37 34 bf f6 78 9a bd
       -0.92769927 0.10472174 -0.7039733 -0.07542603
0002e0 2e 90 16 be a4 28 72 bf f2 f9 df bd bd f0 02 be
       -0.14703438 -0.9459326 -0.10936345 -0.12787147
0002f0 52 ce 53 bf 81 32 c2 bd f3 8f 80 bf e8 e1 18 3f
       -0.82736695 -0.09482289 -1.004393 0.59719706
000300 5c 56 7d bd 67 a5 a3 bf fe 90 13 be 9e 9e 0b be
       -0.061849937 -1.2784852 -0.14410779 -0.13634726
000310 0c ee 8e 3f 3e 41 19 be 9d 0d 1f bf 25 80 0b be
       1.1166396 -0.14966294 -0.6213015 -0.13623102
000320 d7 4f 01 c0 77 c0 25 bf 37 72 05 c0 f1 f2 c3 be
       -2.020498 -0.64746803 -2.0850961 -0.38271287
000330 90 df 4d be 01 b4 e9 bf b4 8f 78 bd 55 82 81 bd
       -0.20104814 -1.8258058 -0.06068392 -0.06323687
000340 55 dd 0f c0 d8 55 bf 3e 8c 06 f0 be 67 b4 ad bd
       -2.247884 0.3737018 -0.46879995 -0.08481675
000350 f5 2a 0e c0 23 3b 81 be 4d cd bd bd 83 f7 68 bf
       -2.221372 -0.2524043 -0.09267674 -0.9100267
000360 64 fe 02 be 0f fd ad bd b9 14 cb bf e5 86 0d c0
       -0.12792355 -0.08495533 -1.5865699 -2.2113583
000370 b6 70 92 bf e0 dc 3c be 7d ea 02 bf d8 56 b4 bf
       -1.1440647 -0.18443632 -0.5113905 -1.4089003
000380 7f ba a3 bd 11 67 af bf 24 35 8b be 8a 58 da be
       -0.07994556 -1.3703328 -0.2718898 -0.42645675
000390 1d cf 05 bf a2 d5 51 bf 85 29 02 be 6c 4a a1 3e
       -0.52269155 -0.819666 -0.12711151 0.31502092
0003a0 29 45 4b bf 24 00 7f bd 0f 6a 4c 3d 29 ee 4c be
       -0.79402405 -0.062255993 0.049905833 -0.20012726
0003b0 5e f7 10 be 24 3c f5 bf 0b c0 2c c0 70 27 35 be
       -0.14156863 -1.9158978 -2.6992214 -0.17690825
0003c0 b8 7a 3a c0 d6 6e b8 bf f6 50 10 be 9d 5d 01 bf
       -2.9137402 -1.4408824 -0.14093384 -0.5053347
0003d0 a7 ea a5 bf 56 d2 95 bf f3 3e 61 be 9b e7 ea bd
       -1.2962235 -1.1704814 -0.2199667 -0.114699565
0003e0 55 0c 2d c0 8d 04 01 be 95 6b 8a be fe 3a 19 be
       -2.7038777 -0.12599392 -0.27035204 -0.1496391
0003f0 ef 05 1a c0 7b fe de bf 4d f5 0e bf a4 73 f2 bd
       -2.4066122 -1.7421411 -0.5584305 -0.11838463

l3.weight f4 [4, 300]
000000 5e 67 28 40 55 2e 0f bf 2e 00 bf 3d 0f 2c a2 bf
       2.631309 -0.5593007 0.09326206 -1.2669696
000010 c0 3c 39 3d c1 be cd bf 8f 51 2e 3e e0 66 bf bc
       0.04522395 -1.6073838 0.170233 -0.023364484
000020 ee 06 3c bf 8f cd b7 bb fe 5a 1c bf e3 ff e4 3d
       -0.73448074 -0.0056092213 -0.61076343 0.11181619
000030 06 59 11 bc f0 92 3a bc 65 62 ed 3e 75 4c 17 bf
       -0.0088713225 -0.011387572 0.46364132 -0.5910104
000040 85 47 e9 bb 83 67 67 3c 70 31 c4 bf ac 43 8f bf
       -0.0071191215 0.0141238 -1.5327587 -1.1192527
000050 fd 96 92 bc d2 77 e3 be 9d 99 b1 be 07 c7 39 3b
       -0.017894262 -0.44427353 -0.3468751 0.002834739
000060 28 f4 0d be 3f d9 3a be 50 10 49 c0 f2 aa 4b be
       -0.1386267 -0.18246935 -3.1416206 -0.19889429
000070 ca 18 6e 3b d6 f3 1e bf f7 34 b6 bd 13 a9 6d 3d
       0.0036330693 -0.62090814 -0.08896821 0.05802257
000080 08 47 46 bf fc b2 1e 3f 0f 45 3b bf 2c 3b 96 3e
       -0.77452135 0.6199186 -0.7315225 0.2934202
000090 f8 ff 42 bd 7b 20 fa 3c a9 23 42 3c 34 4e 05 be
       -0.047607392 0.030533066 0.011849322 -0.13018113
0000a0 15 96 05 bc 23 64 66 3e 0f c6 b2 bf 62 27 6d c0
       -0.008153458 0.22499137 -1.3966693 -3.7055287
0000b0 51 58 7e 3e 31 48 11 3d 6e 51 15 bc b9 9e cd 3c
       0.24838378 0.035469238 -0.009113653 0.025100099
0000c0 b0 b6 6b bd e2 60 fa bd 4c 43 05 be f7 e9 35 3d
       -0.05754727 -0.1222551 -0.13013953 0.04441258
0000d0 34 28 83 3b 96 e7 1f bf ed 71 be 3e da 3e ea 3e
       0.0040025953 -0.6246275 0.37196293 0.45751077
0000e0 f1 98 d2 be c2 5f e1 3e 7e 9f 8d 3b 12 27 59 bd
       -0.4113231 0.4401837 0.0043219915 -0.053015776
0000f0 a3 df 66 3c 7a 99 51 bc af 53 90 3e 7c 98 7f bf
       0.014091405 -0.012792939 0.28188846 -0.9984205
000100 7d 41 01 bf e8 f6 3d 3f 91 e9 dc ba 47 55 63 be
       -0.5049055 0.74204874 -0.0016854276 -0.222005
000110 d2 47 5f 3d 09 65 41 bd 9c ec 25 bf 04 ca 6a bd
       0.054511853 -0.047215495 -0.6481416 -0.057321563
000120 0b 37 6a bd ce bb a2 bf 3a 97 eb bd a0 a4 d1 bd
       -0.0571814 -1.2713563 -0.115034536 -0.10236478
000130 54 57 35 bf 09 06 d5 3b 92 7c 6a c0 17 67 a8 3e
       -0.7083638 0.0065009636 -3.6638532 0.3289115
000140 9b e4 f7 be 2d 18 11 c0 c8 2b 17 bf 4e b5 2b 3f
       -0.484166 -2.2671006 -0.5905118 0.67073524
000150 23 53 6d 3e 69 4f 42 bd 8b 87 67 bd de ff 99 bb
       0.23176245 -0.047439013 -0.05652575 -0.004699691
000160 81 0e 48 bd 1c 3b a3 3e 10 ca 42 bb 37 55 a1 bf
       -0.048841957 0.31881034 -0.002972249 -1.260413
000170 69 8d c0 bc 2d 70 13 be 2d 8c 9f 3b dd 00 85 3d
       -0.02350493 -0.1439826 0.004869005 0.06494305
000180 ad 33 82 bc 76 83 92 3e c6 e1 20 3f 03 b8 fd bc
       -0.015893782 0.28615922 0.628445 -0.030971533
000190 55 83 85 bc 1f 6c 3b c0 af 3d aa bc 27 bb 3c bf
       -0.016297976 -2.9284742 -0.020781366 -0.7372307
0001a0 d7 08 d0 3e 17 b2 2a 3e dc 78 c8 be f6 b8 20 3f
       0.40631744 0.16669498 -0.39154708 0.6278223
0001b0 3c 6a 2d be 11 a6 48 bd 8e 33 27 3c 17 9b b2 3f
       -0.16935056 -0.0489865 0.010205163 1.395358
0001c0 07 6a 23 bf 53 a9 6e bf 4a dd e0 3c 9b 0a 7a 3f
       -0.6383366 -0.9322712 0.027449269 0.9767243
0001d0 1c e3 8a 3d 84 fe 04 bf ab 3e 7c bd 8b 20 f4 be
       0.06781599 -0.5195086 -0.061583202 -0.47681078
0001e0 a3 2b 7e bf b2 ab 6b be f1 04 c1 3f 23 43 78 bf
       -0.99285334 -0.23014715 1.5079633 -0.9697744
0001f0 a4 58 83 3e 7b 17 0a 3e 35 ef e0 bc 78 60 b5 3d
       0.25653565 0.1348552 -0.027457813 0.088562906
000200 86 52 a9 bf d5 0e 8e 3c c3 56 d9 be e3 07 6c 3c
       -1.3228309 0.017341057 -0.42449006 0.014406177
000210 e7 84 37 3f 88 26 c1 3f 43 41 46 bd b0 74 3e bd
       0.7168717 1.5089884 -0.048402082 -0.046498
000220 54 c9 d2 3d 7c 84 7a bd f1 18 c6 be e8 a7 85 3c
       0.102923065 -0.061161503 -0.38690904 0.016315416
000230 12 91 3c 3e 04 d4 a7 3e d2 b7 5d 3d 38 21 32 bd
       0.18414715 0.32778943 0.054130383 -0.04348871
000240 df 68 dc bb f9 38 5f 3e a9 22 c3 be eb 45 e7 bc
       -0.006726369 0.21799077 -0.3811238 -0.028231582
000250 30 2e b9 3d 19 b2 c3 3b 97 55 af 3e ba 42 ed 3d
       0.09042013 0.0059721586 0.34244987 0.11584993
000260 8e 3f a5 3b f5 1e 90 bf 11 54 45 3d ed 2d 1d bf
       0.0050429767 -1.1259447 0.048175875 -0.613982
000270 85 e5 84 3f 0d 57 9e 3e b4 42 89 be 32 ac ed bd
       1.0382544 0.3092579 -0.26808703 -0.11605109
000280 dd 64 9e bf bf 56 3d 3d 9e 46 a2 be ab 7e 69 3d
       -1.2374531 0.046225306 -0.31694502 0.057005566
000290 2f c1 56 be 66 8d 27 bf cf a6 32 3e 70 e0 98 3e
       -0.20972131 -0.6545013 0.17446445 0.29858732
0002a0 5e 91 93 bc a2 a6 c7 bd 66 12 af 3c 30 b8 b9 3c
       -0.018013652 -0.097485796 0.021371078 0.022670835
0002b0 45 73 06 3e c5 0a 24 be de c7 9a 3d c6 0a 1d bf
       0.1312991 -0.16019733 0.07557653 -0.61344564
0002c0 f4 53 03 3d d9 50 4e 3f 3b 34 65 3d c3 f8 c7 be
       0.032062486 0.80592114 0.055958014 -0.39056978
0002d0 ff ce 19 bd b9 3d d9 3e cc 9d f5 3d 06 ad 9c 3d
       -0.037550922 0.42429903 0.11992988 0.07650189
0002e0 96 b2 93 3b ce 5a ae be 09 97 41 bc 7e 7b a1 3b
       0.004507373 -0.34053653 -0.011815795 0.0049280515
0002f0 af b6 33 be 6f 31 ab bd 2c 74 71 be 99 6f 8a be
       -0.17550157 -0.08359038 -0.23579472 -0.27038267
000300 51 d1 46 3d 65 5f 9e be 14 a8 82 bc 76 bd 99 3d
       0.048539463 -0.30932155 -0.015949287 0.0750684
000310 e2 99 38 be f6 c8 95 3d e3 49 e1 3e 1f 16 a8 3a
       -0.18027452 0.07313721 0.44001684 0.0012823975
000320 fa 9b 2e 3d 82 ac 68 bf 91 7e 56 3e 94 ae 1c 3f
       0.04262922 -0.90888226 0.20946719 0.61203885
000330 0d 43 1a c0 14 63 b2 3e 37 39 2e 3d b1 63 45 3d
       -2.4103425 0.34841216 0.042535033 0.048190776
000340 40 61 ce 3d 29 74 89 bd 75 8a 95 3f 06 74 99 bc
       0.10077143 -0.06711609 1.1682879 -0.018732082
000350 83 9e 7b 3e 2c d8 42 be c3 75 dc 3d 86 c8 26 3e
       0.24572186 -0.19027776 0.10764649 0.16287431
000360 26 67 1c c0 c2 68 d3 bb 3d 0a 9e 3e 9d 64 84 be
       -2.4437957 -0.006451697 0.30867186 -0.25858012
000370 12 2b e9 be 5c 01 07 3d 68 e7 ca 3e e6 13 9c be
       -0.45540673 0.03296028 0.39629674 -0.3048393
000380 9d 88 17 bc 3a 33 85 3d fb 6e 6f 40 04 40 f8 3d
       -0.00924888 0.06503911 3.7411487 0.12121585
000390 ae 93 a4 c0 c6 65 12 c0 41 4e cd 3c 48 92 04 bd
       -5.1430273 -2.2874618 0.025061728 -0.032366067
0003a0 8c 29 ff 3e f6 18 11 bb 9a 77 bf bd 5f 00 35 3a
       0.49836385 -0.0022140122 -0.09348984 0.00069046573
0003b0 b5 87 8a bc 46 65 29 40 29 cb 20 be ad 50 92 bb
       -0.016910413 2.6468062 -0.157025 -0.0044651837
0003c0 9c 01 88 bc 17 fa da be 44 29 01 3d e6 56 2e be
       -0.01660233 -0.42768928 0.031533495 -0.17025337
0003d0 96 09 2b 3f af 14 b5 3e 7e 0d ab 3d e6 9c 1a 3d
       0.668115 0.35367343 0.08352183 0.037747286
0003e0 66 18 7c 3c 45 10 9a 3c 05 d3 1e 3e bc 5c f1 bc
       0.015386676 0.018806586 0.15510185 -0.029463165
0003f0 91 fc 78 bf 32 47 a7 3e 29 56 44 bf f7 b1 b6 bc
       -0.97260386 0.32671505 -0.7669397 -0.022301657

l3.bias f4 [4]
000000 ee b8 17 3d e9 6d 75 bd 82 51 82 be 9a 0a d7 bd
       0.037041597 -0.05991927 -0.2545281 -0.10500069
